my_data_and_graph/pretrained/A2C_0_local_network.pt (torch, 8399 bytes, 7 tensors)

hidden_layers.0.weight f4 [20, 47]
000000 3b 06 a7 bd 2f ed b1 3d ab b7 e2 bd 31 07 85 bd
       -0.08155485 0.08687817 -0.11070188 -0.06495512
000010 5a 11 d0 3c c8 22 2d bd 50 33 a9 bc 49 7f 00 3d
       0.025398899 -0.042269498 -0.02065435 0.03137139
000020 65 2a d1 3d 6e 49 6b 3d 63 0a 80 bc eb 17 f1 3b
       0.10213164 0.057443075 -0.015629953 0.0073575876
000030 38 4b c7 bd 24 93 1f bd 54 31 cc 3d 2f 24 61 3d
       -0.09731144 -0.038958684 0.09970346 0.054966148
000040 20 40 57 3d 6f 64 2f bb eb 8b d8 3d 5b 68 b2 bc
       0.05255139 -0.0026762744 0.10573562 -0.021778276
000050 96 3a 38 bd 9a 1d a1 bd a3 50 0a be 2f a7 4b bd
       -0.044977747 -0.07866974 -0.13507323 -0.049719986
000060 93 e9 24 bd 6c 2d d2 bb 1e 3c 90 3d 33 f5 7d 38
       -0.040261816 -0.006414106 0.070427164 6.054826e-05
000070 bd 8f a7 3d 8c 62 01 be 74 8a 1b be 93 67 73 bd
       0.08181713 -0.12635249 -0.15189534 -0.059424948
000080 58 97 5f 3d a1 e4 cc bc a3 17 f9 bb 5d 8b a1 bd
       0.054587692 -0.025011363 -0.0076016947 -0.078879096
000090 f8 fc 06 be 36 4e cb bd f3 c4 b5 3c c9 01 9b bd
       -0.13182437 -0.09927027 0.02218864 -0.075687
0000a0 c9 1d e2 bd fe 13 cd 3d c9 7b af 3d be 2a ba bd
       -0.11040837 0.10013579 0.08568532 -0.09090184
0000b0 28 33 06 bd ed eb 85 3d 00 0d c2 bd 03 4d 59 3d
       -0.03276363 0.0653914 -0.09475136 0.05305196
0000c0 cf 46 41 3f e3 c1 71 bd 9d b5 1a bd 6a 2a 21 be
       0.7549867 -0.059022795 -0.037770856 -0.15738836
0000d0 56 e6 c6 3d eb 57 06 3e 75 36 76 bc 5a 25 76 3d
       0.09711902 0.13119476 -0.015027632 0.060094215
0000e0 e4 99 a9 bd 7a d7 ae 3d d6 bd 26 bd 98 63 d8 3d
       -0.082813054 0.08537193 -0.040708385 0.10565871
0000f0 44 3e a8 bd 13 f9 f2 bd 9a 4a 2f 3a 3c 74 4b bc
       -0.08215001 -0.118639134 0.0006686837 -0.012417849
000100 1d 50 3f 3d 8c b6 22 be 5c 0a 3e be 58 06 2f bd
       0.04670726 -0.15889949 -0.1855864 -0.04273066
000110 b1 55 2e 3c e7 9c 00 3d 71 d3 c6 bd 6c 94 0b bb
       0.010640548 0.031399634 -0.09708298 -0.0021298183
000120 ad 9a a2 bc 47 b9 62 bc c8 57 e5 3d a2 a6 18 3e
       -0.019849146 -0.013838119 0.111983836 0.14907315
000130 db f6 d3 3d 53 ae 80 bd 9a b8 f9 3d 70 10 d9 bd
       0.10349818 -0.0628325 0.12193413 -0.10598838
000140 8a d2 25 3d 4e f0 33 bd 18 5e 1b 3e b3 8e 44 be
       0.04048399 -0.043930344 0.15172613 -0.1919506
000150 7e ea 44 3e 9b d2 44 bd ff 83 61 bd c2 3b 86 bd
       0.19230077 -0.04805241 -0.055057522 -0.06554367
000160 20 b6 86 bd 5c 82 d2 3d 9d 27 e3 3c ba dc c0 bb
       -0.06577706 0.1027877 0.02772885 -0.0058856877
000170 7c 34 b9 3d fe b3 9c bd 31 fe 94 3d da 1b d5 3e
       0.09043214 -0.07651518 0.07275046 0.41622812
000180 6c 11 08 bd 0d 2d ae bd 18 bf 3f 3d 63 05 90 bd
       -0.03321974 -0.085046865 0.0468131 -0.070322774
000190 2c 68 2c 3b 75 f1 af 3d 85 be 96 3d ec c2 89 3d
       0.0026307208 0.08590976 0.073605575 0.067266315
0001a0 57 d5 25 bd 48 79 7e 3d 5f 15 cf bd 24 5d b7 3d
       -0.04048666 0.06212738 -0.10111498 0.08953312
0001b0 8b 92 36 be a0 50 56 ba ab 73 04 3d b6 7f 85 bd
       -0.17829339 -0.0008175466 0.032336872 -0.065184996
0001c0 29 de 51 bd 14 32 c3 3d 10 ff 10 3e 9f 40 cd bd
       -0.05123726 0.09531036 0.14159799 -0.10022091
0001d0 df b5 06 be d3 4a c3 bd ce 02 1b 3e 76 f5 8b 3d
       -0.13155316 -0.09535756 0.15137789 0.06833927
0001e0 62 1d ec 3d ac c0 3c 3e 25 87 9d 3c ea 54 49 3e
       0.11529042 0.18432873 0.019229481 0.19661298
0001f0 94 23 2d 3d a8 62 cd 3d d1 79 16 3e 93 1a 57 3d
       0.042270258 0.10028583 0.14694907 0.052515578
000200 06 4e 21 bc 5d d3 14 3d e4 29 bf 3d ba 76 2d be
       -0.009845262 0.036334384 0.09334162 -0.16939822
000210 c6 68 6c be 6b 79 8d be 4e f6 29 be 92 f7 e8 3d
       -0.23086843 -0.27631697 -0.16597864 0.11375345
000220 ed 5a 90 bc b4 e7 af 3d ea c3 e6 3b 5a 15 a4 3c
       -0.017621482 0.08589116 0.0070423977 0.020029712
000230 10 98 d2 bd 41 fd 23 be 10 d2 47 3f 85 40 b6 3d
       -0.1028291 -0.16014577 0.78054905 0.08899025
000240 52 4c fb bd 5d 01 6b bd 4d 07 59 3d bd 59 d7 bd
       -0.12270416 -0.057374347 0.05298548 -0.10515163
000250 e3 15 a2 3c 04 c3 da b9 42 9d 81 bc 62 07 c7 3d
       0.019785827 -0.00041725498 -0.015822057 0.09718205
000260 2e 3e 25 3c 16 ed 1f 3e bc 80 ba bd c3 ba e4 3d
       0.010085626 0.15617785 -0.091065854 0.111684345
000270 03 c0 d8 3d 4f ff 5d bd 9b 0c 5a 3d 93 73 47 bd
       0.10583498 -0.05419856 0.053234678 -0.048694205
000280 22 4f 14 be d6 d9 c4 3d 8a 96 90 bd ae ed c3 3d
       -0.14483312 0.096118614 -0.07059963 0.09566818
000290 7f 88 64 3c 9b f5 1e 3e 79 99 40 3d 92 e6 58 3e
       0.013948559 0.15523379 0.047021363 0.21181706
0002a0 9c 4d 27 3c d3 39 1c 3d 6b b7 24 3e 89 d0 48 3d
       0.010211375 0.038141083 0.16085593 0.049027
0002b0 61 1a 45 3e 2c 2d 18 bd a1 eb ad 3d 4e 51 2f bb
       0.19248344 -0.037152454 0.08492208 -0.0026751342
0002c0 a2 9c 03 bd ce e3 78 bd 1e eb 7a 3d 4f d8 c7 bc
       -0.0321318 -0.060764126 0.06125938 -0.024395136
0002d0 f1 c5 42 be 9e 04 ee 3d a8 3f 1b bd 03 ee 0a 3e
       -0.19020821 0.116219744 -0.037902504 0.13567357
0002e0 cf 9d b1 3c 3e 3b b2 bd f7 da 0b 3e f7 d2 8d 3d
       0.021681694 -0.08702706 0.13657747 0.06925004
0002f0 5f 60 40 3d 7b fc f4 bd 63 90 a0 bd 1e 63 12 bd
       0.046966907 -0.11962219 -0.078400396 -0.035739057
000300 38 e3 2e 3d 51 d9 59 bd bf f8 64 3d b8 bd 1c bd
       0.04269716 -0.053185765 0.055901285 -0.038266867
000310 a7 f5 9a 3d bf df ac bd 76 71 90 bd f6 49 ba 3b
       0.07566386 -0.08441114 -0.07052891 0.0056850864
000320 8e 9a 1c be 91 92 73 3d f1 be c3 3d bd ab 4e bc
       -0.15293333 0.05946595 0.095579036 -0.012614188
000330 02 c0 dc 3d 03 12 31 bb 88 87 0f be fb 2c c2 bd
       0.1077881 -0.0027018792 -0.14016545 -0.094812356
000340 c5 be 99 3c 73 84 5a bd e4 46 95 bd 66 a8 a8 3d
       0.018767724 -0.05334897 -0.07288912 0.082352445
000350 32 6e a3 3d 49 3a 16 be a2 32 31 be 5c 00 e0 bd
       0.079800025 -0.14670672 -0.17304471 -0.109375685
000360 d4 74 b1 bd e9 56 90 bd c9 ca bd 3d de ee 33 be
       -0.08664861 -0.07047827 0.09267194 -0.1757159
000370 34 2d d6 3c af ed fb 3c 5c ca 5e 3d f2 b7 3c bd
       0.026144601 0.030752985 0.054392204 -0.04607386
000380 8b ac 38 be b3 ac 30 be 97 71 81 3b 02 ba 10 bc
       -0.1803457 -0.1725338 0.0039503085 -0.00883341
000390 2f 42 8d 3c 3c 43 b4 bd 9f 19 e0 3d 45 51 f2 3c
       0.017243473 -0.088018864 0.10942387 0.029579768
0003a0 69 93 9f 3c ad a2 14 be 85 ad 98 bd 92 96 bf bd
       0.01947947 -0.14515181 -0.07454971 -0.09354891
0003b0 a6 13 92 bc ff 00 a5 3d bf e0 1d 3c bf 37 1e be
       -0.017831635 0.080568306 0.009636103 -0.15450953
0003c0 03 01 1e bd 43 11 8f bd e8 a2 cc bd 90 9b 1e be
       -0.038575184 -0.06985714 -0.099920094 -0.1548903
0003d0 ec f8 22 3c 0b 7e 46 3d f0 e3 92 3d 2e fe 7b 3c
       0.009947043 0.048460048 0.07172382 0.015380425
0003e0 b6 35 da 3c 51 0e 3b be 52 9f 21 be 32 8d 2e be
       0.02663694 -0.1826718 -0.15783432 -0.17046049
0003f0 17 70 5a 3a 50 0a 70 3d bd 3e 37 be 94 80 be 3c
       0.0008332743 0.058603585 -0.17895027 0.02325467

hidden_layers.0.bias f4 [20]
000000 82 b1 60 3b ad c6 ad bd 72 d8 94 3c 33 31 da bd
       0.003428549 -0.0848516 0.018169615 -0.10653915
000010 8a 1f 86 bc 65 25 c3 3d d3 e9 dd bd cb 21 09 be
       -0.01637246 0.09528617 -0.10835614 -0.13391797
000020 6a e2 e0 3d af b4 82 3d 4d fe b3 3d 06 3f 4b bd
       0.10980685 0.06382119 0.087887384 -0.04962065
000030 1b e0 b1 bd 26 4c f6 bc 8e 04 38 bd 0f 3a d8 3d
       -0.08685323 -0.030065607 -0.04492622 0.10557949
000040 bf f6 d8 3b 4b c9 bc bd 2c b7 ef 3d 29 af 68 3e
       0.0066212113 -0.09218081 0.11704859 0.22723068

hidden_layers.1.weight f4 [10, 20]
000000 1a 2d 8c 3c 5d 90 85 be 65 35 40 3e 88 4a 8c be
       0.01711135 -0.26086703 0.18770368 -0.27400613
000010 27 71 5b 3e bd 48 9d 3d 7d 11 c2 bd bf 30 d1 3d
       0.21429883 0.07679889 -0.09475992 0.10214376
000020 61 57 49 bd 10 18 e1 bc 19 27 4a 3e 7f e4 3c be
       -0.049155597 -0.027477294 0.19741477 -0.1844654
000030 84 ed 0a 3e ac d2 2c bd 7d 61 07 3d d6 e2 66 3d
       0.13567168 -0.0421931 0.033051956 0.05636867
000040 3a 2c a5 3e ee 83 ae 3d 45 be 06 be 43 0a 2e 3e
       0.32260305 0.08521257 -0.1315852 0.16996102
000050 67 49 63 bd e4 11 fa 3d 39 a4 dd 3c 95 d5 8c 3d
       -0.055489924 0.122104436 0.027055847 0.06876675
000060 41 93 8e 3d e7 7e 9f bd cd 73 4e be d2 e1 5d bd
       0.0696168 -0.077878766 -0.20161362 -0.054170437
000070 1f 96 90 bd 9d 47 56 3e c2 4d 0b bd f9 e3 c5 3c
       -0.07059883 0.20925756 -0.034009703 0.024156557
000080 7e e7 13 3e 3f e6 c0 bd 5e 8f 39 3e e8 bb 4a be
       0.14443776 -0.09418916 0.18121096 -0.19798243
000090 ea b6 cf bb 61 f2 08 3d be 19 d8 3d 50 63 58 3d
       -0.0063389437 0.033434276 0.10551785 0.052829087
0000a0 3b 94 42 3e 25 27 9d bd 10 ba db 3c 4d c1 9c bd
       0.19001858 -0.07673482 0.02682212 -0.07654057
0000b0 23 f9 c8 bd 84 2f 91 bd e9 0d ea 3d 28 97 02 3e
       -0.09813144 -0.07089141 0.114284344 0.12752974
0000c0 b6 7d d6 3d 49 a4 14 3e f6 fc 81 3e 24 d2 eb 3d
       0.10473196 0.14515795 0.25388306 0.115146905
0000d0 98 f0 ff bd ee 00 38 be bd e4 62 be 0e fa 36 3e
       -0.124970615 -0.17969105 -0.22157569 0.17868826
0000e0 f0 0d 51 3e ff d4 f6 3d 11 59 94 3d 38 0b f1 3d
       0.20415473 0.120523445 0.072435506 0.11769718
0000f0 15 1b 74 3d 71 b2 7b be e4 b2 7b be c2 78 39 3e
       0.05959614 -0.24579789 -0.2457996 0.18112472
000100 82 ab 0a 3e fd ce 13 3e 61 1b 29 3e 3b 90 8b bd
       0.13541988 0.14434429 0.1651435 -0.06814619
000110 7a d9 1b 3e f2 7d 24 be 5b 46 97 3d dd 9f 1b 3e
       0.1521968 -0.1606367 0.07386466 0.15197702
000120 04 89 25 3e f7 62 87 3b 40 65 93 be d8 48 c4 ba
       0.16165549 0.0041316706 -0.28788185 -0.0014975322
000130 2e 1a 5a be 5a ba 1a 3d 78 9b 87 bd 5b 18 07 be
       -0.2129905 0.037775375 -0.0662145 -0.13192885
000140 21 55 11 be a8 7e 13 be 4b c6 fd bd 61 33 f5 3d
       -0.1419263 -0.14403784 -0.12391337 0.119726904
000150 57 04 4c 3d 3c 13 91 3c de 69 e6 bc c2 e6 8e bd
       0.049808826 0.017709367 -0.028126653 -0.06977607
000160 7c 26 c5 3d 5c 15 c9 3d 37 5c 41 3d 1f f0 0a 3e
       0.09626481 0.09818527 0.047207084 0.13568161
000170 f1 d6 cd 3d 31 1a 36 be 84 70 90 be ad ee 0f 3e
       0.100507624 -0.17783429 -0.28210843 0.14055891
000180 3a c7 76 3e f5 c4 17 3d f2 c8 05 be fa 80 6d 3e
       0.24099436 0.037053067 -0.13064936 0.23193732
000190 d0 10 94 bd b2 fd 02 3e 4e d3 72 be 95 f3 8a bd
       -0.07229769 0.1279209 -0.23713419 -0.06784741
0001a0 8c af 24 3e 14 76 1f 3c 08 e6 10 3e 6b e1 14 3d
       0.16082591 0.009732742 0.1415025 0.036347788
0001b0 3e bc 42 bd 1a 80 97 bd 2f ec 64 be 79 4c 07 3e
       -0.047542803 -0.0739748 -0.22355722 0.13212766
0001c0 9b 49 87 3d 9e 33 8c bc 53 e7 f9 3c 0c 14 62 be
       0.06605836 -0.017114457 0.030505812 -0.2207796
0001d0 b9 58 4d 3c 8f b6 92 3d 2b 41 0c 3e d4 fe b3 bd
       0.01253336 0.071637265 0.13696735 -0.08788839
0001e0 47 0d 7c 3d ea 61 78 3e fe 87 4a 3d a0 de ae 3e
       0.0615361 0.24256101 0.0494461 0.34154224
0001f0 11 14 71 be 72 a4 1f 3e c0 8b e7 bd b4 ba f6 bc
       -0.23542811 0.15590075 -0.11305952 -0.030118324
000200 bb 2e 5f 3e d9 bb eb bd 9a 41 11 bd 05 8c 0a be
       0.2179517 -0.115104385 -0.035462953 -0.13529976
000210 94 7a 0a bb d5 07 71 3e 1f fc 7c 3e 6a ea 63 bd
       -0.002113019 0.23538144 0.24705552 -0.055643477
000220 6e 38 30 be f5 29 4d be ce 5b 08 be b4 45 a2 be
       -0.17209026 -0.20035537 -0.1331627 -0.31693804
000230 d2 df 07 be fd 73 1c 3e 1a 50 0e 3e 4e 7d 40 3e
       -0.13268974 0.15278621 0.13897744 0.187978
000240 de 4a 2a 3e ec 64 0a 3e 85 90 13 be 06 39 b3 3c
       0.16630122 0.13515061 -0.14410599 0.021877777
000250 e1 58 35 3e a1 12 ab bd 18 fe d0 3d d1 00 8a bd
       0.17709686 -0.083531626 0.102047145 -0.06738437
000260 99 26 9f bc 3b 75 95 3e 99 6f a4 bd cf ad 0f 3d
       -0.019427584 0.29191002 -0.08029098 0.035077866
000270 fd 0e 03 3e f1 57 2e be d4 1b 28 bd eb ff b1 be
       0.12798686 -0.17025734 -0.041042164 -0.34765562
000280 6a 31 1e ba 7d 25 25 3e 2b 27 6c 3d 42 fd 36 be
       -0.0006034585 0.16127582 0.05765454 -0.17870048
000290 7d b2 1c 3d 4a 2b 24 3e a7 4e 4d 3e 69 1e 80 bd
       0.038256157 0.16032138 0.20049535 -0.062558
0002a0 01 41 93 bd a2 2e 5c be af 45 ad bd f5 9a 06 3e
       -0.07190133 -0.21502164 -0.08460557 0.13145049
0002b0 01 83 0a bd 36 3f 31 3d c7 68 aa bd 1a 88 5c be
       -0.03381634 0.043273173 -0.08320766 -0.21536294
0002c0 3e 84 c9 3d e7 a7 39 be 0b 11 0e 3e 2e 1f 30 be
       0.09839676 -0.18130456 0.13873689 -0.17199394
0002d0 f4 72 e1 bd 75 8f 36 3e 6a 8a 57 bd 52 09 3c be
       -0.11008254 0.17828162 -0.052622236 -0.1836293
0002e0 9e 38 a4 3b a8 d4 3b be 8b 91 f7 bb 81 95 c3 bd
       0.005011632 -0.1834284 -0.007555192 -0.0955
0002f0 7c c4 e8 3d 04 74 61 3e 7b c2 c2 3d aa 20 0b 3d
       0.113656014 0.22016913 0.095097505 0.033966698
000300 40 6d 05 bd 69 39 1b bd 74 72 93 3c 52 2a 79 be
       -0.032574892 -0.037896547 0.017998911 -0.2433255
000310 1f ed 18 be 6b d8 9e 3d 94 f3 4b be 67 e1 27 3e
       -0.14934205 0.07756122 -0.19917136 0.16394578

hidden_layers.1.bias f4 [10]
000000 ab e1 8c 3d fd b1 05 be 24 d0 94 3e 9b f0 0f be
       0.0687898 -0.13056178 0.2906505 -0.14056627
000010 51 72 99 3e d2 02 d0 3d 05 a0 58 be 17 47 b1 3d
       0.2997003 0.10156788 -0.21154793 0.086561374
000020 64 2f 01 be 33 64 76 be
       -0.12615734 -0.2406166

output_layers.0.weight f4 [21, 10]
000000 97 99 be 3d 5d af 1a 3e 87 b5 18 3e 34 e4 72 be
       0.09306639 0.15105958 0.14912997 -0.23719865
000010 93 b1 58 3b 6c c9 32 bd ff 88 75 3e e8 9c 31 3e
       0.0033064827 -0.043649122 0.23978041 0.17345011
000020 74 f7 96 be e2 cf 20 3e 11 11 d0 3e 79 3f a9 be
       -0.29485667 0.15704301 0.4063802 -0.33056238
000030 12 31 4b 3e 4a a8 93 3e f7 f8 b7 3e b6 68 64 bd
       0.19842938 0.28839332 0.35932133 -0.055763923
000040 a4 a8 a9 3e 27 2f e2 3e 09 d1 71 3e 9c 42 c2 3b
       0.33136475 0.441766 0.23614897 0.0059283506
000050 ac 5d ff bd af 88 2f be 5b 62 ef 3d 8f fa 54 3e
       -0.12469038 -0.17141984 0.11688682 0.20798706
000060 3f 9f 85 3d f2 83 eb 3d 74 79 15 3d bd 1b d9 3e
       0.065245144 0.11499776 0.03649278 0.42403975
000070 79 e1 73 bd 30 c2 e6 3c 5a 75 ee bd 6f c6 88 be
       -0.0595412 0.028168768 -0.11643477 -0.26713893
000080 35 16 d2 bb 1a bd 0a 3e dc e5 eb bb 53 96 aa be
       -0.0064113387 0.13548699 -0.007199032 -0.33317813
000090 46 c2 36 3e a4 57 b3 be 94 56 71 be 00 05 9c be
       0.17847547 -0.35027802 -0.23568183 -0.30472565
0000a0 bc 1f a1 be 81 a3 7f bd f5 c5 18 ba a7 b4 62 3e
       -0.31469524 -0.06241179 -0.0005827838 0.22139226
0000b0 fd 21 e2 be fa e4 6c bd 84 8f a7 be 09 6d c1 bd
       -0.44166556 -0.057835557 -0.3272668 -0.09444625
0000c0 a1 5a 1b bd 1b 89 cd 3c c7 38 26 3e 7b 0a eb bd
       -0.037928227 0.025089791 0.16232596 -0.11476608
0000d0 ab ff 52 bd fb 7e c5 bd 1f 21 0a 3c 33 2b 04 3e
       -0.051513355 -0.0964336 0.008430748 0.12907104
0000e0 d5 13 87 3e 79 1b 9a 3e db 22 bb 3d 38 f1 0d bd
       0.26382318 0.30099085 0.091375075 -0.034653872
0000f0 8f cc bb bd b3 cf 7c be 56 dc 74 be 32 dd 02 3e
       -0.09169876 -0.24688606 -0.23912176 0.12779692
000100 36 d8 29 3d 9e 19 3f 3e f3 10 f4 bd 84 01 e4 bd
       0.04146596 0.18662116 -0.11917295 -0.111331016
000110 63 09 1f bd b4 64 31 3d cd 66 da 3e 4d 07 e2 bd
       -0.03882731 0.04330893 0.42656556 -0.11036549
000120 38 78 3b 3e d6 c1 07 be 82 0a 3a 3e 18 e7 71 be
       0.18307579 -0.13257536 0.18168071 -0.23623312
000130 2f d8 cf 3e 66 64 b1 3e 60 18 48 be 50 f0 01 be
       0.40594622 0.3464691 -0.19540548 -0.12689328
000140 fd f4 91 3c 32 2d 98 be d1 7f 66 3e 42 15 66 be
       0.017817015 -0.2972198 0.22509696 -0.22469047
000150 06 d9 ae be 2b a3 13 3e a7 f9 71 3d a1 56 75 be
       -0.3414995 0.14417712 0.059075978 -0.23958828
000160 19 ba 4d be 5d fe 83 be ff 02 cd bd 2d 9c 30 3c
       -0.20090522 -0.2578 -0.10010337 0.010779423
000170 62 18 aa be 86 d2 a5 be 41 a2 b4 be f3 93 a4 3e
       -0.33221728 -0.3238718 -0.3528004 0.32144126
000180 55 37 31 3e 4c 43 af be 13 5d 13 3d 91 0f 07 3e
       0.17306264 -0.3423103 0.035977434 0.13189532
000190 62 2b 24 b9 a7 13 ab bd 98 20 27 be 02 a9 b2 bd
       -0.0001565642 -0.08353358 -0.16321027 -0.08723642
0001a0 e5 69 2a be 65 33 3f be 5f ef 95 3e d4 b8 60 be
       -0.16641958 -0.18671949 0.29284188 -0.21945506
0001b0 63 87 d4 bb 35 3e 2b bd f8 ce 87 3c 50 e0 fb bd
       -0.006485866 -0.041807372 0.016578183 -0.122986436
0001c0 0e 78 1f be 36 7c 8d be 87 c9 81 bc d0 33 9b be
       -0.15573141 -0.27633828 -0.015843166 -0.30312967
0001d0 63 21 23 3e e6 33 4d 3e 68 ff 36 3e 69 f6 83 3e
       0.15930705 0.20039329 0.17870867 0.25773934
0001e0 30 f1 6f 3d f2 7d 66 3e 17 56 9a 3d 54 b9 22 3e
       0.058579624 0.22508982 0.075359516 0.1589101
0001f0 00 4f ff 3d 3c f0 0f 3e 29 1c a3 be 10 9e 49 bd
       0.1246624 0.14056486 -0.31857422 -0.049223006
000200 43 e6 a5 3e ed ee 55 3e d3 1b 80 be 16 5e 85 3e
       0.32402238 0.20891924 -0.25021228 0.26048344
000210 ec 18 e2 be 69 d9 9c be ac 3c 2c be 02 bc 9e be
       -0.4415964 -0.3063462 -0.1682002 -0.31002814
000220 74 df 4c 3d 8c 7b ee bd d7 4e f1 3c 0b d2 c7 bc
       0.05001779 -0.116446584 0.02945654 -0.024392148
000230 cd 1f 31 bd c0 a0 8a 3e 21 9d ba bc 37 1f 5e 3e
       -0.04324322 0.27075768 -0.022780003 0.21691595
000240 4a 34 96 be 4e 59 8c bd 5f 09 34 be 5b 86 62 3e
       -0.29336768 -0.06852971 -0.175817 0.22121565
000250 f3 5b b5 bd c0 52 27 bd b1 da 1b 3d 83 3f 6a be
       -0.088554285 -0.0408504 0.038050357 -0.2287579
000260 08 46 3f 3e df 26 48 3e ab 50 ce be b8 07 0e be
       0.18679059 0.19546078 -0.4029592 -0.13870132
000270 53 ca 30 3e 56 b2 2c 3e 41 0b 55 3e 01 b8 36 3d
       0.1726468 0.16864905 0.20805074 0.044609074
000280 4c 82 ad be 92 65 cc bd cc 2e b2 be 6a 59 07 3e
       -0.3388847 -0.099803105 -0.34801328 0.13217703
000290 fe 3b 8c 3d 9b 58 01 bc 8c 3e 98 bd 4e 07 d7 be
       0.0684738 -0.00789466 -0.07433805 -0.4199776
0002a0 0a 14 3d 3e 5a f5 84 be f0 5c bc 3e 4d 9d 62 3e
       0.18464676 -0.25968438 0.36789656 0.22130318
0002b0 f6 6a 76 3b 56 da ce 3c 62 ab 63 3e d2 57 97 3e
       0.0037600375 0.025250595 0.22233346 0.2955919
0002c0 8d 34 87 3e 30 2e 60 3e d0 e5 a5 3c 4b 66 78 3e
       0.2640728 0.21892619 0.020251185 0.24257772
0002d0 89 7f 2c bd ac 67 aa 3e 42 ef c4 be 32 36 b4 bd
       -0.042113815 0.3328222 -0.3846379 -0.087993994
0002e0 c9 fd 68 be c8 43 a1 3e f8 16 9e bd 07 95 eb bd
       -0.22753061 0.31497025 -0.07719225 -0.11503034
0002f0 8a 63 19 be 89 a0 01 3e 16 9d 08 3e 83 fe e5 bd
       -0.14979377 0.12658896 0.13341174 -0.11230185
000300 b1 7c 82 3d a8 46 2e 3e fd a0 e2 3e e1 86 8f 3e
       0.06371439 0.1701914 0.4426345 0.28032592
000310 e7 99 14 3d 45 7a f1 3e 28 8a 45 3e 26 23 75 3e
       0.036279585 0.47163597 0.19290984 0.2393919
000320 4c 79 0e be 62 5e 5f be 46 ea ae bc 2e 3a d4 3d
       -0.13913459 -0.21813348 -0.021351945 0.103626594
000330 da 6e ad 3e fd 28 99 3e 07 4c e9 3e d6 b5 98 3d
       0.33873636 0.29914084 0.45565817 0.074565575
000340 34 1e a8 3e b2 56 70 3e
       0.32835543 0.23470572

output_layers.0.bias f4 [21]
000000 ab 06 c2 bd 1a dc 78 bd 96 3e a9 3c a2 af 7b 3d
       -0.09473928 -0.06075678 0.020659726 0.061446793
000010 b5 01 0a 3d 0d c7 4c 3e 9b ed 2d be da 9f 65 bd
       0.033693034 0.19997807 -0.1698517 -0.05606065
000020 7c 18 67 3e b3 d3 e0 3d 38 1d b2 be ab 18 85 bd
       0.22567934 0.109778784 -0.34787917 -0.06498846
000030 fc f6 83 be 03 06 5c be 6b 45 47 bd 86 43 bb 3d
       -0.25774372 -0.21486668 -0.048650187 0.091437384
000040 4c f2 b6 bc b6 f0 0a 3e 32 ce 3e 3e 51 46 0c 3f
       -0.022332333 0.13568386 0.18633345 0.54794794
000050 18 83 a6 3e
       0.32521892

output_layers.1.weight f4 [1, 10]
000000 fc d1 3d be 6f b7 7f 3d 0b 7b 8c be c1 67 7d be
       -0.18537134 0.062430795 -0.27437624 -0.2474661
000010 18 d9 b9 be fc 2a 4a 3e e7 90 02 3f 4d 5a 94 3d
       -0.36298442 0.1974296 0.51002353 0.07243786
000020 ab c4 d8 3d 12 b3 03 be
       0.105843864 -0.12861279
