my_data_and_graph/pretrained/A3C_0_local_network.pt (torch, 8399 bytes, 7 tensors)

hidden_layers.0.weight f4 [20, 47]
0	0xbe1199ce	-0.14218828
1	0xbe13603e	-0.14392182
2	0xbdcdf3cb	-0.100562654
3	0xbd912a36	-0.07088129
4	0xbe64a5ed	-0.2232892
5	0x3d2c908a	0.04213003
6	0x3d547a97	0.051874723
7	0x3c1167db	0.008874859
8	0xbe516603	-0.2044907
9	0xbe61fae9	-0.22068371
10	0xbd8bc186	-0.06824021
11	0xbe74350d	-0.23848362
12	0x3c2d7aa8	0.010588326
13	0xbe4f5cb7	-0.20250212
14	0xbddec17f	-0.1087675
15	0x3cd24a3a	0.02567016
16	0xbca778e9	-0.020443397
17	0xbe54680d	-0.20742817
18	0xbde744d6	-0.11292426
19	0xbdc1ecbb	-0.09468981
20	0xbdb5fb29	-0.088857956
21	0x3bea40ae	0.0071488237
22	0xbe276bd2	-0.16349724
23	0xbe163256	-0.14667639
24	0xbe6c4771	-0.23074128
25	0xbdc4f48c	-0.09616956
26	0xbe621be8	-0.22080958
27	0xbd6b0c8c	-0.057385013
28	0xbd4c67a0	-0.049903512
29	0xbde4273c	-0.11140296
30	0x3d060fa8	0.032729775
31	0xbdd9987f	-0.106247894
32	0x3ccf3670	0.025294513
33	0xbe184908	-0.14871609
34	0xbe3d3301	-0.18476488
35	0xbe16b4bd	-0.14717384
36	0xbdce86d1	-0.10084308
37	0xbd0a2023	-0.033722054
38	0xbd71785c	-0.058952674
39	0xbd12e4f4	-0.035862878
40	0xbd4cbe96	-0.049986444
41	0xbcaccd7e	-0.02109408
42	0xbe750765	-0.23928602
43	0xbdd25503	-0.10270121
44	0xbd23215c	-0.039826736
45	0xbe40ecba	-0.18840304
46	0x3cdb2cf2	0.02675483
47	0x3c8d4d78	0.017248854
48	0xbe21970c	-0.15780276
49	0xbcf54f41	-0.029945018
50	0x3c1e1dd7	0.009650669
51	0xbe262250	-0.16224027
52	0xbc2f9f6b	-0.010719161
53	0x3d4c944e	0.049946122
54	0xbe5df98e	-0.21677229
55	0xbd62a2ba	-0.05533097
56	0x3c552ed5	0.013011654
57	0xbe011d6a	-0.12608877
58	0xbd718f43	-0.058974516
59	0xbe6af84f	-0.22946285
60	0xbe6a1d9d	-0.22862859
61	0x3a834ec9	0.0010017987
62	0xbe4ce4df	-0.20009182
63	0x3cac88c7	0.021061314
64	0xbe515445	-0.20442303
65	0xbe638264	-0.22217709
66	0x3d1d321e	0.038377874
67	0xbe2325a4	-0.15932328
68	0xbe60df24	-0.21960121
69	0xbde55247	-0.11197334
70	0xbe724b8e	-0.23661634
71	0xbd46d217	-0.0485402
72	0x3c895f99	0.016769217
73	0xbe713305	-0.23554619
74	0xbe2c758f	-0.1684172
75	0xbc4e5f9e	-0.012596039
76	0x3c2c5ce8	0.010520197
77	0xbe3da9f5	-0.18521865
78	0xbe65adbc	-0.22429556
79	0xbe4e4627	-0.20143948
80	0x3c93a4cc	0.018022917
81	0xbbebecac	-0.0071998443
82	0xbe49053e	-0.19630906
83	0x3b2ffa15	0.0026851941
84	0xbcfb2e26	-0.030661654
85	0xbe12db2a	-0.14341417
86	0xbe595235	-0.21222766
87	0xbe318e20	-0.17339373
88	0xbd630c0a	-0.055431403
89	0xbe0f9768	-0.140226
90	0xbce85ea0	-0.028365433
91	0x3be688a5	0.0070353323
92	0xbc9b6de9	-0.018973308
93	0xbe4b02a0	-0.1982522
94	0x3c2742f8	0.010208838
95	0xbdc748e0	-0.09730697
96	0xbe48a6cf	-0.19594882
97	0xbde892f8	-0.11356157
98	0xbdb08b8c	-0.086203665
99	0xbe3d496d	-0.18485041
100	0xbe0556c9	-0.13021387
101	0x3d68eafd	0.056864727
102	0xbd794b9c	-0.060863122
103	0xbdcade67	-0.09905701
104	0xbdee2205	-0.116275825
105	0xbd5ff955	-0.05468114
106	0xbe1fab54	-0.155927
107	0xbd903c10	-0.07042706
108	0x3d437314	0.04771717
109	0xbd8c4f2e	-0.0685104
110	0xbd471292	-0.048601694
111	0xbdb7ac26	-0.089683816
112	0x3bfd4856	0.0077295704
113	0xbe37eea9	-0.17962135
114	0x3cb93d83	0.022612339
115	0xbe15da5c	-0.14634079
116	0xbd30d013	-0.043167185
117	0x3d80925b	0.06277915
118	0xbd3ac5fd	-0.045598973
119	0xbe2ae084	-0.16687208
120	0xbd4c6f89	-0.049911056
121	0x3b2ccf1f	0.002636857
122	0x3e0f1d6c	0.13976067
123	0x3d96f4e2	0.073709264
124	0x3d78e059	0.06076083
125	0x3dfc5702	0.12321283
126	0x3d4d755d	0.050160754
127	0x3d5187b7	0.05115482
128	0x3d1fb105	0.03898718
129	0x3bb6893e	0.0055705598
130	0xbc3ef0aa	-0.0116540585
131	0xbdd13333	-0.102148436
132	0xbe153939	-0.1457261
133	0xbe13679f	-0.14394997
134	0xbe359210	-0.177315
135	0x3cff03dd	0.031129772
136	0xbdf7b4ed	-0.12095056
137	0xbd292104	-0.04129125
138	0xbe36dc53	-0.17857485
139	0x3ce7ca49	0.0282947
140	0xbdf0ae6d	-0.11752019
141	0xbd8ca19f	-0.06866764
142	0xbe198092	-0.14990452
143	0xbdd3d735	-0.10343782
144	0xbb034f59	-0.0020036309
145	0xbe5444f0	-0.20729423
146	0x3b2e2c54	0.0026576715
147	0x3cff9fa4	0.031204052
148	0xbcd2120f	-0.025643377
149	0xbe051377	-0.12995706
150	0x3b992abc	0.004674284
151	0xbdcbc376	-0.099493906
152	0xbdd73001	-0.10507203
153	0xbda60c6b	-0.08107837
154	0xbc725e1b	-0.014792944
155	0x3bf4e0d5	0.007473091
156	0xbc56d3f4	-0.013112057
157	0xba8cf709	-0.0010754775
158	0xbe217264	-0.15766293
159	0x3d38da73	0.045130204
160	0xbde668a9	-0.11250431
161	0x3ce2a7b7	0.027667863
162	0x3d747780	0.059684277
163	0xbe0daff0	-0.13836646
164	0xbe34e723	-0.17666297
165	0xbd2e1708	-0.042502433
166	0xbe026822	-0.12735036
167	0x3ccefde1	0.025267543
168	0xbc68f228	-0.014217891
169	0xbd8b9e37	-0.068172865
170	0xbdf35475	-0.11881343
171	0xbe31c324	-0.17359596
172	0xb91d3780	-0.00014993362
173	0xbd92ce5e	-0.07168268
174	0xbe51802e	-0.20459053
175	0xbe024571	-0.12721802
176	0xbe126a09	-0.14298262
177	0xbe293b61	-0.16526558
178	0xbda4bed8	-0.08044213
179	0xbd5341c8	-0.051576406
180	0xbe14e6ac	-0.1454112
181	0xbe57ffb2	-0.21093634
182	0x3d0a124d	0.03370886
183	0xbe59bbd6	-0.2126306
184	0xbdcd1a78	-0.10014814
185	0x3cf7e7bf	0.030261872
186	0xbdb5e8b1	-0.08882273
187	0xbe428860	-0.18997335
188	0xbdb96801	-0.0905304
189	0xbc004076	-0.007827869
190	0xbdeeb11c	-0.11654875
191	0x3d93df97	0.07220381
192	0x3d996769	0.07490427
193	0xbe05cde0	-0.13066816
194	0x3de01f05	0.109434165
195	0xbe4595ff	-0.192955
196	0xbe29e68e	-0.16591856
197	0xbd9fa224	-0.07794598
198	0xbbf387f8	-0.00743198
199	0xbe39dd4f	-0.18150829
200	0xbe08b7c4	-0.13351351
201	0x3d0fd092	0.035111018
202	0xbd9a3f14	-0.075315624
203	0xbdeb310a	-0.11483963
204	0x3da153ef	0.07877337
205	0x3d90dc37	0.07073253
206	0xbe00a4ba	-0.12562838
207	0xbd3d864f	-0.046270665
208	0x3d81313e	0.0630822
209	0xbe21c5b7	-0.15798078
210	0x3dbcada6	0.09212808
211	0xbcafe60f	-0.021472005
212	0xbdfdd584	-0.123942405
213	0x3d911a43	0.07085087
214	0xbdba7c85	-0.091057815
215	0x3d1c5085	0.038162727
216	0xbe2d4e35	-0.16924365
217	0xbe0aa9f4	-0.13541394
218	0xbdf419af	-0.11918961
219	0xbd8dc6bb	-0.069226705
220	0xbd54e7ec	-0.05197899
221	0xbe224ce7	-0.15849648
222	0xbe3254b6	-0.17415127
223	0xbe238ec8	-0.15972435
224	0xbda3a2fe	-0.07990073
225	0x3d66ca28	0.056345135
226	0xb963a4ba	-0.00021709772
227	0xbdb08af6	-0.08620255
228	0xbd9f619d	-0.0778229
229	0xbcf605ce	-0.030032065
230	0x3d5fda05	0.05465128
231	0xbd80dd22	-0.06292178
232	0x3d73238a	0.059360065
233	0x3ca2fdb0	0.019896358
234	0xbcc682f0	-0.024232358
235	0xbdd45cd2	-0.103692666
236	0xbe311cc1	-0.17296125
237	0xbd61ed9c	-0.055158243
238	0xbd6278e6	-0.05529108
239	0xbcbdffec	-0.023193322
240	0xbcdf112c	-0.027229868
241	0xbbbec00b	-0.005821233
242	0x3c468c5c	0.012118425
243	0xbccbbecc	-0.024871252
244	0xbc30b968	-0.010786392
245	0xbe885838	-0.26629806
246	0xbcea953d	-0.028635615
247	0xbe2d2794	-0.16909629
248	0xbe7187ab	-0.2358691
249	0xbe14c7e6	-0.1452938
250	0xbd6b7c6e	-0.057491712
251	0xbd8944d0	-0.06702578
252	0xbd78b98a	-0.06072382
253	0xbc6ce710	-0.0144593865
254	0x3cc1cb89	0.023656623
255	0xbe6a59fd	-0.2288589

hidden_layers.0.bias f4 [20]
0	0xbd95b779	-0.07310385
1	0xbd856406	-0.065132186
2	0xbd485ac3	-0.048914682
3	0x3cedda90	0.029034883
4	0xbe43a8a8	-0.19107306
5	0xbdbc0ecf	-0.09182512
6	0x3cbaa824	0.022785254
7	0xbe64230c	-0.22278994
8	0xbd0ccbae	-0.03437393
9	0xbd2d70a4	-0.04234375
10	0x3d0cc108	0.034363776
11	0x3dcc3b36	0.09972231
12	0xbdd1d17d	-0.10245035
13	0xbdb1b720	-0.086775064
14	0xbe057102	-0.1303139
15	0x3d728fe1	0.059219245
16	0xbe362ec3	-0.17791276
17	0xbdb13d6b	-0.08654293
18	0xbe2b9959	-0.16757716
19	0xbe0a6f0b	-0.13518922

hidden_layers.1.weight f4 [10, 20]
0	0xbd6da80d	-0.058021594
1	0x3e1219c7	0.14267646
2	0x3e605012	0.21905544
3	0xbe8f8276	-0.2802922
4	0x3e379def	0.1793134
5	0x3cafe2cc	0.02147045
6	0xbe9c2e7a	-0.3050421
7	0xbe55c049	-0.20874132
8	0xbbba8127	-0.0056916657
9	0xbdf9bfd1	-0.12194789
10	0x3db6a633	0.08918419
11	0xbd67108d	-0.05641227
12	0x3d4786bc	0.048712477
13	0xbd98725c	-0.07443687
14	0xbc2a1af8	-0.010382406
15	0xbee0e433	-0.43924102
16	0xbe2134f2	-0.15742853
17	0xbe2f411f	-0.17114685
18	0x3d3c09aa	0.045907654
19	0xbe626005	-0.22106941
20	0x3deebefd	0.11657522
21	0xbd19f415	-0.03758629
22	0x3dd35913	0.10319724
23	0xbd9c1d95	-0.0762283
24	0xbe12fc30	-0.14354014
25	0xbda20dda	-0.07912798
26	0xbe58e5e0	-0.2118144
27	0xbe77f639	-0.2421502
28	0xbddade96	-0.10686986
29	0xbe1b2e59	-0.15154399
30	0xbda20842	-0.07911731
31	0x3e07384c	0.1320507
32	0xbe6c1a82	-0.23056987
33	0x3e06bd0a	0.1315805
34	0x3d31f62a	0.04344765
35	0xbe586728	-0.21133101
36	0xbbd72499	-0.006565642
37	0x3dcf684b	0.10127314
38	0xbc8a1286	-0.016854536
39	0x3c82fb92	0.015989099
40	0x3d922e79	0.0713777
41	0xbd80a8bf	-0.06282186
42	0x3e686e14	0.22698241
43	0xbdc02c8c	-0.09383497
44	0xbd9eaf83	-0.0774832
45	0xbcab8e74	-0.02094195
46	0xbe1ea16b	-0.15491264
47	0xbd8161b6	-0.06317465
48	0x3d475251	0.048662487
49	0xbd8fec63	-0.07027509
50	0xbd0fb095	-0.03508051
51	0xbd315466	-0.04329338
52	0x3e49001c	0.19628948
53	0xbd891e23	-0.06695201
54	0x3d3c8be8	0.046031862
55	0xbe871c1c	-0.26388633
56	0x3c05b683	0.00816119
57	0x3e307ea9	0.17235817
58	0x3e71aff7	0.23602282
59	0xbe042785	-0.129057
60	0x393c98a1	0.00017985936
61	0x3e1d9a10	0.15390801
62	0x3aa7a2c0	0.0012789592
63	0xbe699d4c	-0.2281391
64	0x3db272f1	0.087133296
65	0xbe8f5a5d	-0.2799863
66	0x3d84b8c4	0.06480554
67	0x3de0ae60	0.109707594
68	0xbd105552	-0.035237618
69	0xbc620545	-0.013795202
70	0xbde6f1f8	-0.112766206
71	0xbd7186a2	-0.058966286
72	0xbee3644f	-0.44412467
73	0x3d0da574	0.034581617
74	0xbd7685e1	-0.06018627
75	0xbe32a5a6	-0.17446002
76	0xbe66556c	-0.22493523
77	0xbd60df3b	-0.05490039
78	0xbdaa4bbf	-0.08315229
79	0xbd972765	-0.07380561
80	0x3c93f642	0.01806176
81	0xbe8f2b80	-0.27962875
82	0xbd706fe8	-0.058700472
83	0x3dc5c29a	0.09656258
84	0x3dd6c873	0.104874514
85	0xbe9232bf	-0.2855434
86	0xbd78e8c1	-0.060768846
87	0xbd3386f0	-0.04382986
88	0xbd80f579	-0.0629682
89	0x3dcb5ec3	0.09930184
90	0x3e4cc778	0.19997966
91	0xbe34bd03	-0.17650227
92	0xbcd8e374	-0.026475646
93	0x3d45cb26	0.04828944
94	0xbe3d7ad4	-0.18503886
95	0xbd8ab785	-0.06773285
96	0xbdf92b0e	-0.12166415
97	0xbd42e7d3	-0.047584366
98	0x3da7fe73	0.08202829
99	0x3dbac4c0	0.09119558
100	0xbe3692c7	-0.17829429
101	0xbda14e92	-0.07876314
102	0x3e37353a	0.17891398
103	0xbe494167	-0.19653855
104	0xbe2432d6	-0.16035017
105	0xbd49086f	-0.04908031
106	0x3e24fbdf	0.16111706
107	0xbdbf5d8c	-0.093440145
108	0xbda7b72e	-0.08189236
109	0x3e41aa65	0.18912657
110	0xbe4475a4	-0.19185501
111	0xbd9e345d	-0.07724831
112	0xbe1721a5	-0.14758928
113	0xbdc9b731	-0.09849394
114	0xbca57706	-0.020198356
115	0xbdcd5e28	-0.100277245
116	0xbe1c9a3b	-0.15293209
117	0xbd92d071	-0.07168663
118	0xbe006f5b	-0.12542479
119	0x3db08ac0	0.086202145
120	0xbdef0764	-0.116713315
121	0x3e6e98dd	0.233005
122	0xbd43bc96	-0.04778727
123	0xbe0e898b	-0.13919656
124	0xbdd3583d	-0.103195645
125	0x3d83aca6	0.064294145
126	0xbcbf2edf	-0.02333778
127	0x3d535546	0.051594995
128	0xbd24d49d	-0.040241826
129	0xbe1fb64c	-0.15596884
130	0xbdc948b4	-0.0982832
131	0x3dc4ffe3	0.09619119
132	0x3cfcf3c8	0.030877963
133	0x3e6ec142	0.2331591
134	0x3d3e98fb	0.046532612
135	0xbe11e6c0	-0.1424818
136	0xbe300266	-0.17188415
137	0x3dcbf8c4	0.09959558
138	0xbe0aebbd	-0.1356649
139	0x3e0e99f8	0.13925922
140	0xbe5974e9	-0.21236004
141	0x3db9964e	0.090618715
142	0x3e2c6cfd	0.1683845
143	0xbdc287af	-0.09498536
144	0x3df9c52b	0.1219581
145	0x3e708401	0.23487855
146	0x3e1c8a13	0.15287046
147	0x3e834ce6	0.25644606
148	0x3e865a11	0.2624059
149	0x3ea30c2c	0.31845224
150	0xbdd87ad1	-0.105703
151	0xbe1531bd	-0.14569755
152	0x3ea9a7ca	0.33135825
153	0xbe35c3ea	-0.17750517
154	0xbe3444ac	-0.17604321
155	0xbe514ec5	-0.20440204
156	0x3d9efcd8	0.0776307
157	0xbd635476	-0.05550047
158	0x3dd649fa	0.10463329
159	0x3b95ec18	0.0045752637
160	0xbe1538fe	-0.14572522
161	0x3d8e6201	0.069522865
162	0xbe22f2de	-0.15912959
163	0xbdffebd0	-0.124961495
164	0xbe0b34da	-0.1359438
165	0x3e198b6f	0.14994596
166	0xbdc4211a	-0.09576626
167	0xbe5ddb04	-0.21665579
168	0x3dd90913	0.10597434
169	0x3e036002	0.12829593
170	0xbe2db501	-0.16963579
171	0xbda9af7e	-0.082854256
172	0xbe5d9a63	-0.21640925
173	0xbe231b92	-0.15928486
174	0xbded9684	-0.11600974
175	0xbe035889	-0.12826742
176	0xbdfed30f	-0.124426
177	0x3db0ec16	0.0863878
178	0xbe5034b8	-0.2033261
179	0x3da4bb18	0.08043498
180	0x3d986c21	0.07442499
181	0x3cb4fb6a	0.02209254
182	0x3d84a82c	0.06477389
183	0xbdae2b21	-0.0850432
184	0x3a8ce152	0.0010748303
185	0x3bf96d4f	0.0076119076
186	0x3d9e02ee	0.077154025
187	0xbe85ccca	-0.26132804
188	0xbd962306	-0.07330899
189	0x3dc36a76	0.0954179
190	0x3e05dbc9	0.13072123
191	0xbdfa07ec	-0.12208542
192	0xbdd14dd1	-0.102199204
193	0xbe53fdd0	-0.2070229
194	0xbdf17c42	-0.117912784
195	0xbebd4efa	-0.36974317
196	0x3d32742e	0.04356783
197	0xbe080439	-0.13282861
198	0xbe55a4d9	-0.20863666
199	0x3e04de9b	0.12975542

hidden_layers.1.bias f4 [10]
0	0xbe272b67	-0.1632515
1	0xbe7cf948	-0.24704468
2	0xbd6dc69d	-0.05805074
3	0x3e92578d	0.2858242
4	0xbeb5ee66	-0.35533446
5	0x3af2dab6	0.0018528316
6	0xbe0f7bbc	-0.14012045
7	0xbe2e8b57	-0.17045341
8	0xbdca1ee8	-0.09869176
9	0xbe7a4b1d	-0.24442716

output_layers.0.weight f4 [21, 10]
0	0x3e7e76d7	0.24850021
1	0xbc07b6d6	-0.008283338
2	0xbe19e72c	-0.15029591
3	0xbd5bbd2a	-0.053647198
4	0x3e6d93c2	0.23200896
5	0xbe3ee067	-0.1864029
6	0x3e62545e	0.22102496
7	0x3e10c085	0.1413594
8	0x3e1e1970	0.15439391
9	0xbdfc2e79	-0.123135515
10	0xbe305781	-0.1722088
11	0x3df17b52	0.117910996
12	0x3e07d333	0.1326416
13	0xbe71576e	-0.23568508
14	0x3c111058	0.008853994
15	0x3c56ffb7	0.013122491
16	0xbe302969	-0.17203297
17	0xbd812376	-0.06305592
18	0x3e0bd6bb	0.13656132
19	0x3e6116b4	0.21981317
20	0x3e325215	0.17414124
21	0xbdd45cb8	-0.10369247
22	0xbb2507fa	-0.0025181756
23	0x3e68ce8c	0.22735041
24	0x3da7f39c	0.08200762
25	0x3ba33791	0.0049809893
26	0xbe30478a	-0.1721479
27	0x3e3c94c8	0.1841613
28	0x3e89f9c3	0.26948366
29	0xbcaaac01	-0.020833971
30	0x3e91c306	0.28469104
31	0xbd767ccc	-0.06017761
32	0xbe3f62a1	-0.18689968
33	0xbe340706	-0.17580804
34	0x3ea268f2	0.31720692
35	0xbe5f9b9d	-0.21836706
36	0xbddfe68b	-0.109326445
37	0xbe3873cd	-0.18012924
38	0xbe393df8	-0.18090045
39	0xbd6698f4	-0.05629821
40	0x3da5d5b9	0.08097405
41	0x3e72165c	0.23641342
42	0xbe9f5c3d	-0.3112506
43	0x3e81eeea	0.2537759
44	0xbcda7296	-0.026665967
45	0x3d68c175	0.05682512
46	0x3e136711	0.14394785
47	0x3d8d9ddc	0.06914875
48	0x3db2bbe2	0.08727242
49	0xbd6d7de1	-0.057981376
50	0xbe87404d	-0.26416245
51	0x3c6315a2	0.013860138
52	0x3e8f52a9	0.27992752
53	0xbea0dc7e	-0.31418222
54	0x3e8cfde3	0.2753745
55	0xbec823c5	-0.3908979
56	0x3dc3ac4e	0.09554349
57	0xbec6cd7e	-0.38828653
58	0x3e9f1a95	0.31074968
59	0x3d0a6e6a	0.033796705
60	0xbe1ce923	-0.1532331
61	0xbe825f6e	-0.25463432
62	0xbe26764b	-0.16256063
63	0xbe724db4	-0.23662454
64	0x3e393ebf	0.18090342
65	0x3db32280	0.08746815
66	0xbebe74df	-0.3719854
67	0x3e2ecd09	0.17070402
68	0x3d20adb9	0.039228175
69	0xbbeb4a7d	-0.0071805106
70	0xbddded48	-0.108362734
71	0x3ea65dc5	0.32493415
72	0xbc714f25	-0.014728342
73	0x3e3369a3	0.17520766
74	0xbe880265	-0.26564327
75	0x3d1243f7	0.035709348
76	0xbe6f36de	-0.23360774
77	0x3e47a42a	0.19496217
78	0xbe9dd22a	-0.30824405
79	0x3e795403	0.24348454
80	0x3da82b32	0.08211364
81	0x3d23f79e	0.040031068
82	0xbe6bd3e9	-0.23030056
83	0xbe395df6	-0.1810225
84	0x3e22948b	0.15876977
85	0xbea35f41	-0.3190861
86	0xbeae5788	-0.34051156
87	0x3e2482fe	0.16065595
88	0xbe98c790	-0.29839754
89	0xbe277068	-0.16351473
90	0x3e9878b2	0.29779583
91	0x3e85eb12	0.26155907
92	0xbe7aa066	-0.2447525
93	0xbe22b3ba	-0.15888873
94	0xbe6178e2	-0.2201877
95	0xbe1ed292	-0.15510014
96	0x3e6ba798	0.2301315
97	0xbe5f61a9	-0.21814598
98	0xbd4969a6	-0.04917302
99	0xbeb29424	-0.34878647
100	0xbe07b57e	-0.13252828
101	0x3da7f1bd	0.08200405
102	0x3e1fde56	0.15612158
103	0xbdde7e32	-0.108639136
104	0xbe0a8867	-0.13528596
105	0x3e6a7aff	0.22898482
106	0xbde3b620	-0.11118722
107	0xbe35f7b0	-0.17770267
108	0x3e867884	0.2626382
109	0x3ebcfd77	0.36912128
110	0x3e3f537a	0.18684188
111	0xbd6c861f	-0.057745095
112	0x3ecab42e	0.3959059
113	0xbdf2fea7	-0.11864977
114	0x3e849f23	0.25902662
115	0x3eb27281	0.34852985
116	0xbe064ea1	-0.13115932
117	0xbd667310	-0.056262076
118	0x3e2e36a6	0.17013034
119	0xbe8fb629	-0.28068665
120	0xbe449e13	-0.19200926
121	0xbe7ccb27	-0.24686871
122	0xbd3f68bf	-0.046730753
123	0x3e15ef7e	0.1464214
124	0x3d189242	0.037248857
125	0xbe60f713	-0.21969251
126	0x3e8e12e2	0.2774878
127	0x3ea70f45	0.32628837
128	0x3e8bbfc8	0.27294755
129	0x3e83d710	0.25750017
130	0x3e65825e	0.22413012
131	0xbda650fe	-0.08120917
132	0xbe9956df	-0.2994909
133	0x3e6a4f37	0.2288178
134	0xbcaaf3ff	-0.0208683
135	0xbe6a9ffd	-0.22912593
136	0x3dc68bc4	0.09694627
137	0xbe2c0be5	-0.16801412
138	0xbdef7498	-0.1169216
139	0x3dbb5dd3	0.09148755
140	0x3ea96e10	0.33091784
141	0xbec0c38e	-0.37649196
142	0xbe754b20	-0.23954439
143	0x3e400efd	0.18755718
144	0xbe98ab0d	-0.29818
145	0x3d3f972b	0.046775024
146	0xbd05708a	-0.03257803
147	0xbe780370	-0.24220061
148	0xbe953c6b	-0.29147658
149	0x3e2cf543	0.16890435
150	0xbe9dc1ca	-0.30811912
151	0x3e2a50d4	0.16632396
152	0xbe7f613b	-0.24939434
153	0xbe60922b	-0.21930759
154	0xbb38bf99	-0.0028190373
155	0x3dc6d482	0.097085014
156	0xbe8a80b3	-0.27051315
157	0x3e56ba16	0.20969424
158	0x3e67ebc6	0.22648534
159	0xbe750240	-0.2392664
160	0x3cff2514	0.03114561
161	0x3d0f1fdc	0.034942493
162	0xbcb49125	-0.022041867
163	0x3e05001f	0.12988327
164	0x3e73e26b	0.2381684
165	0x3e59eca7	0.21281682
166	0x3e3a4c51	0.18193175
167	0x3e901e41	0.28148082
168	0xbe4446f9	-0.19167699
169	0xbe64a4ae	-0.22328445
170	0xbc1a2fb0	-0.009410784
171	0xbe73c6af	-0.2380626
172	0xbb9f182a	-0.0048551755
173	0x3db450bb	0.088044606
174	0xbd9ba60a	-0.07600029
175	0xbde07f5d	-0.109617926
176	0x3e4ac480	0.19801521
177	0x3ca8baeb	0.020596942
178	0xbe49842c	-0.19679326
179	0xbd324801	-0.0435257
180	0x3e105305	0.1409417
181	0xbec9333e	-0.39296907
182	0x3e4e0493	0.20118932
183	0x3dd44f84	0.10366729
184	0xbda83aa3	-0.08214309
185	0xbd1cd24b	-0.03828649
186	0xbe93eb21	-0.28890327
187	0x3d8a8dbc	0.06765315
188	0x3e1f3f5d	0.15551515
189	0xbe793acb	-0.24338834
190	0xbe712080	-0.23547554
191	0x3e5bc05d	0.214601
192	0xbd762faa	-0.06010405
193	0x3e1a512d	0.15070029
194	0xbdaa24cb	-0.08307799
195	0xbe8710d6	-0.26380032
196	0x3e72ca24	0.23709923
197	0x3ebb9125	0.36634174
198	0xbe04e95b	-0.12979643
199	0x3deeeb74	0.11666003
200	0xbe0f52e6	-0.13996467
201	0xbe86b777	-0.26311848
202	0x3e06964f	0.13143276
203	0x3e6666d7	0.22500168
204	0xbd89ba29	-0.0672496
205	0x3dd26704	0.10273555
206	0x3e859aac	0.26094568
207	0x3ea02659	0.31279257
208	0x3e49d5e3	0.19710498
209	0xbdee4e20	-0.11635995

output_layers.0.bias f4 [21]
0	0xbe5be766	-0.2147499
1	0x3f9f3da9	1.2440692
2	0x3f10dab0	0.5658369
3	0xbf6831a5	-0.9070075
4	0xbef53f0b	-0.4789966
5	0x3ea015bf	0.3126659
6	0xbf61429a	-0.8799225
7	0x3f034ea8	0.51291895
8	0xbf029009	-0.5100103
9	0xbf39f439	-0.7263828
10	0xbf144101	-0.5791169
11	0x3f24a126	0.64308393
12	0xbf068f0b	-0.52562016
13	0xbf601f1a	-0.8754746
14	0xbf13aee0	-0.57688713
15	0xbef7ca0e	-0.48396343
16	0xbf82122c	-1.0161796
17	0x3f156ee7	0.5837235
18	0xbea100e0	-0.3144598
19	0x3fb3e77f	1.4055022
20	0x3f2f89f4	0.68569875

output_layers.1.weight f4 [1, 10]
0	0x3d3f210f	0.046662387
1	0xbd2719d6	-0.040796123
2	0xbd88f8f9	-0.06688113
3	0xbe897b65	-0.26851955
4	0xbd908db7	-0.0705828
5	0x3df69f81	0.12042142
6	0xbcb1d593	-0.021708285
7	0xbcfa0fc3	-0.030525094
8	0xbe20f397	-0.15717922
9	0x3dc6c14f	0.097048394
