my_data_and_graph/pretrained/DDQN_local_network.pt (torch, 30887 bytes, 7 tensors)

embedding_layers.0.weight f4 [225, 20]
0	0xbfd06792	-1.6281607
1	0xbd91c444	-0.07117513
2	0xbfef41c4	-1.8691945
3	0x3fc5a169	1.5439883
4	0x3e8e911b	0.27845082
5	0xbfa87bc4	-1.316277
6	0x3e9af489	0.3026469
7	0x3f6fb8f1	0.93641573
8	0x3ec55da6	0.3854801
9	0xbef58ad8	-0.47957492
10	0xb9dd936d	-0.00042262246
11	0x3f01cc87	0.5070271
12	0x3fef83aa	1.8712056
13	0xbf50289d	-0.8131197
14	0x3e8775aa	0.26456958
15	0x3d8a62a4	0.067570955
16	0x3e1fd1cb	0.15607373
17	0x3e835e05	0.2565767
18	0xbfcec939	-1.6155158
19	0xbf961d8b	-1.1727766
20	0xbf14b01e	-0.58081234
21	0xbf24175d	-0.6409815
22	0x3e489ccc	0.19591063
23	0x3f6d2745	0.92638046
24	0x3f8c282b	1.0949758
25	0xbf954fed	-1.1665016
26	0xc06ca855	-3.6977742
27	0xbfc0b9b8	-1.5056677
28	0xbf674cbe	-0.90351474
29	0xbf7a493e	-0.9776801
30	0xbd2667c5	-0.040626306
31	0xbf5107c0	-0.8165245
32	0xbfa09dd7	-1.2548169
33	0x3ea36128	0.31910062
34	0xbdc4c392	-0.096076146
35	0xbf59a470	-0.85016537
36	0xbeb5c0a3	-0.35498533
37	0xbe81022d	-0.25196972
38	0xbb7cb8d8	-0.0038562324
39	0xbf18a072	-0.5961982
40	0x3e8a753f	0.27042577
41	0x3fd80912	1.6877768
42	0x3e2a4d4a	0.16631046
43	0x3ff92c6c	1.9466681
44	0xbfc80e78	-1.5629416
45	0x3f851e9c	1.0399966
46	0xbfccc105	-1.5996405
47	0xbe51cea9	-0.20488991
48	0xbee1c03f	-0.44091985
49	0x3e8fc845	0.2808248
50	0x3feac18c	1.8340316
51	0xbf172089	-0.5903402
52	0xbf604fdd	-0.8762186
53	0xbd83d36c	-0.0643681
54	0xbfb65a84	-1.4246373
55	0xbf8766be	-1.057823
56	0xbf6b4451	-0.9190112
57	0x3dd8208e	0.10553084
58	0xbf8331e3	-1.0249599
59	0xbf74e8d7	-0.95667785
60	0x3fdda4aa	1.7315876
61	0x3f0ac71d	0.5421007
62	0xbfa030d7	-1.2514905
63	0xbe7059e0	-0.23471785
64	0x3f38de97	0.72214645
65	0x401c93f4	2.4465303
66	0xbe2e9f7f	-0.1705303
67	0xbf8c4361	-1.0958062
68	0xbdcdf6c1	-0.1005683
69	0x3e2bcb00	0.16776657
70	0x3da55407	0.080726676
71	0xbedff0fc	-0.43738544
72	0x3f83d9e3	1.0300869
73	0xbf8ecae6	-1.115567
74	0x3eb276ea	0.3485635
75	0xbf571e43	-0.8403055
76	0xbec51f05	-0.3850023
77	0xbfb6e45b	-1.4288439
78	0x3f4a7dd2	0.79098237
79	0x3f92cc86	1.1468666
80	0x3ee2a895	0.44269243
81	0xbee81eb4	-0.45335925
82	0x3f600d37	0.87520164
83	0xbe85098c	-0.25983846
84	0xbf71a15a	-0.9438683
85	0xbfd1d105	-1.6391913
86	0x3f083f6c	0.53221774
87	0xc0059706	-2.0873427
88	0xbf911c24	-1.1336713
89	0xbf1e82d5	-0.61918384
90	0x3f5ea7ad	0.869746
91	0x3f04a765	0.51817924
92	0xbec89ab1	-0.3918052
93	0x3f453a9f	0.77042574
94	0xbf6bea3c	-0.9215429
95	0xbed45262	-0.41469103
96	0xbf0a3e66	-0.5400146
97	0x3ea3dcf8	0.32004523
98	0xbf15e91a	-0.5855881
99	0x3e9f7ccd	0.31149903
100	0xbfa0a271	-1.2549573
101	0xbea8360d	-0.32853737
102	0xbe3a59b8	-0.18198287
103	0xbff0a1d9	-1.8799392
104	0xbfeb7910	-1.839632
105	0xbfa02066	-1.2509887
106	0x3fbac3e7	1.4591035
107	0x3fd5f24c	1.6714568
108	0x3ec4789c	0.38373268
109	0xbcb3310b	-0.021873971
110	0xbf5c3eb3	-0.8603317
111	0x3f7cf231	0.98807055
112	0xbf880d15	-1.0628992
113	0x3fb6ffc2	1.4296801
114	0x3fb0b727	1.3805894
115	0xbe0e39f7	-0.138893
116	0xbf1e4776	-0.6182779
117	0x3f270b61	0.6525174
118	0xbee59265	-0.44838253
119	0xbf10b983	-0.5653307
120	0x3eb246f6	0.34819764
121	0xbe49a6bb	-0.19692509
122	0xbeb0bab5	-0.34517446
123	0x3fe1e238	1.7647161
124	0x3fa74bf4	1.3070054
125	0x3f89da1c	1.0769687
126	0x3fde7090	1.7378101
127	0x3e305917	0.17221485
128	0x3ec3d27c	0.38246524
129	0xbf2871e9	-0.65798813
130	0xbfafbc87	-1.3729409
131	0x3e37fc87	0.17967425
132	0x3ebe1af7	0.37129948
133	0x3f4bb707	0.7957615
134	0xbfc9a4b0	-1.5753384
135	0xbd48c047	-0.049011495
136	0x3fad7904	1.3552556
137	0xbf0aed6e	-0.5426854
138	0x3d5fbce6	0.054623507
139	0xbf91adb8	-1.138114
140	0xbf362d4f	-0.71162885
141	0x3ee24dfd	0.44200125
142	0xbd5709ef	-0.052499708
143	0xbf68259d	-0.90682393
144	0x3f4bae88	0.7956319
145	0x3e079d65	0.13243635
146	0xbf3756c2	-0.71616757
147	0x3e4b8365	0.19874342
148	0xbe82ad57	-0.25522873
149	0xbf7cad76	-0.9870218
150	0x3fd1548a	1.6353924
151	0xbebdd2cd	-0.3707489
152	0x3dc3ba4e	0.09557019
153	0x3f2081d1	0.62698084
154	0xbedce663	-0.4314452
155	0xbfa4e0eb	-1.288114
156	0xbdc6d35b	-0.097082816
157	0xbee507d6	-0.4473254
158	0xbf293068	-0.6608949
159	0xbebb0409	-0.36526516
160	0x3f36d7ff	0.71423334
161	0x3f7fa883	0.99866503
162	0x3f79006a	0.97266257
163	0xbe9935cd	-0.2992386
164	0xbfc91387	-1.5709084
165	0xbdee957f	-0.11649608
166	0x3e6e3aa1	0.23264553
167	0x3f822f77	1.0170735
168	0xbe4d7bae	-0.20066711
169	0x3e8b4b48	0.27205873
170	0x3e9532c6	0.291403
171	0xbefa3e48	-0.48875642
172	0xbfddca02	-1.7327273
173	0xbfdad521	-1.7096292
174	0xbf595dfe	-0.84909046
175	0xbf7871eb	-0.97048825
176	0x3e829008	0.25500512
177	0x3fb1cd00	1.3890686
178	0xc00cec1a	-2.2019105
179	0xbea4592f	-0.32099292
180	0xbeec8502	-0.46195227
181	0x3eb6cb5b	0.35702023
182	0xbc7df916	-0.015501281
183	0xbf0a7c0e	-0.5409554
184	0xbeff28c0	-0.49835777
185	0xbf192de9	-0.5983568
186	0x3f27f28f	0.6560449
187	0xbfbda68c	-1.4816451
188	0x3e33985f	0.17538594
189	0x3f80746d	1.003553
190	0x3fe4ca6e	1.7874277
191	0xbf229bb6	-0.63518846
192	0xbf24fb89	-0.6444631
193	0xbe933962	-0.28754717
194	0x3e28da4c	0.16489524
195	0x3d29e795	0.04148062
196	0xbe46720c	-0.19379443
197	0x3d5fb681	0.05461741
198	0x3fda6762	1.70628
199	0xbfcabfc9	-1.5839778
200	0xbf69f145	-0.91383773
201	0x3f8d89df	1.10577
202	0x3e5d3bf8	0.21604908
203	0xbfabdb1a	-1.342624
204	0x3ff03b47	1.876809
205	0x3f30df88	0.6909108
206	0x3f381bb8	0.71917295
207	0x3d19193d	0.037377585
208	0x403d6ec5	2.9598858
209	0x3f25c16a	0.6474825
210	0x3eeca9a9	0.4622319
211	0x3f469078	0.7756419
212	0x3ef17a94	0.47163832
213	0xbf4f1632	-0.8089324
214	0xbf387cc4	-0.7206538
215	0xbe6bb413	-0.23017912
216	0xbf9d680c	-1.2297378
217	0xbf7f3008	-0.99682665
218	0xbed96fa2	-0.42467982
219	0x3f20462c	0.62607074
220	0xbf2b640d	-0.6694954
221	0xbead5295	-0.33852068
222	0x3e31645b	0.17323439
223	0x3f737d7b	0.95113343
224	0xbe58166a	-0.211023
225	0xbee4296c	-0.44562852
226	0x3ddb1280	0.10696888
227	0x3f65254b	0.8951003
228	0x3f51274e	0.817006
229	0x3f20f021	0.6286641
230	0xbf283d4d	-0.6571854
231	0x3ec2af94	0.3802458
232	0xbf74214a	-0.95363295
233	0x3f8229d6	1.0169017
234	0x3c695232	0.014240788
235	0x3f7a1f08	0.977036
236	0x3e98f20b	0.29872164
237	0xbf9cabb7	-1.2239903
238	0xbf9f4e8f	-1.2445849
239	0x3e7b8b20	0.2456479
240	0xbf1a9e8c	-0.60398173
241	0xbfc59030	-1.5434628
242	0x3fb26060	1.3935661
243	0xbddb7037	-0.10714763
244	0x3e7c91ff	0.24665068
245	0xbf3cbbb5	-0.7372392
246	0xbef806ef	-0.4844279
247	0x3f88c3a9	1.0684711
248	0xbfa97df1	-1.3241559
249	0x3f3d2d5b	0.7389733
250	0xbe343d63	-0.17601542
251	0xbf10e066	-0.56592405
252	0xbf0c643c	-0.54840446
253	0x3f0555ae	0.5208386
254	0xbe6b66b6	-0.229884
255	0xc016471e	-2.3480906

hidden_layers.0.weight f4 [30, 66]
0	0x3d6b2325	0.057406563
1	0xbde00084	-0.10937598
2	0x3d950528	0.07276374
3	0x3d5917b5	0.053001124
4	0x3d92e9c9	0.07173497
5	0x3d27515f	0.040849086
6	0xbdd39ddf	-0.10332846
7	0xbd0844fe	-0.03326892
8	0xbc8d1c2e	-0.017225351
9	0x3d422f2e	0.047408275
10	0xbbee9ef5	-0.0072821327
11	0xbdf10d07	-0.11770063
12	0xbd9d9d87	-0.076960616
13	0x3c9f72a2	0.01946384
14	0xbdd3d018	-0.10342425
15	0xbe006252	-0.12537506
16	0xbcad3f19	-0.021148251
17	0xbbd51f98	-0.0065040104
18	0x3dee4d2b	0.11635812
19	0x3d8a50b7	0.067536764
20	0xbcbb7715	-0.022883931
21	0xbc5b8cc9	-0.013400265
22	0xbdefd5ef	-0.117107265
23	0xbb001121	-0.001954146
24	0xbd91b024	-0.07113674
25	0x3d827248	0.06369454
26	0x3d327e51	0.043577496
27	0x3cfa8202	0.03057957
28	0x3d1f13b6	0.038837157
29	0x3d0ce364	0.034396544
30	0x3dd44872	0.1036538
31	0x3db77c28	0.08959228
32	0x3c6e5677	0.014546982
33	0x3d8c91d1	0.0686375
34	0xbdfd03ae	-0.123542175
35	0x3db70446	0.08936362
36	0x3d232f9d	0.03984033
37	0xbc582cb1	-0.013194249
38	0x3d1d11f5	0.038347203
39	0xbdab2062	-0.08355786
40	0xbc1fbfd2	-0.009750323
41	0xbd967f9c	-0.07348558
42	0xbd575758	-0.052573532
43	0xbd4e7f97	-0.050414648
44	0x3d2d976c	0.042380735
45	0xbd764a6b	-0.060129564
46	0x3d66fc61	0.05639303
47	0x3cbe33e8	0.02321811
48	0xbcd6d4c5	-0.026224503
49	0xbdd29aaf	-0.1028341
50	0x3dca9037	0.09890788
51	0xbcf0f46f	-0.02941343
52	0x3d960169	0.07324488
53	0xbda09e00	-0.07842636
54	0x3da785c8	0.081798136
55	0x3ab26166	0.0013609349
56	0x3d23dbf2	0.040004678
57	0xbde85bbc	-0.11345622
58	0x3dc92ecb	0.09823378
59	0x3d087b53	0.033320736
60	0xbd1bf6d1	-0.03807718
61	0xbd38aff6	-0.045089684
62	0x3ca9bb0f	0.02071908
63	0x3c813494	0.015772142
64	0x3cd930be	0.0265125
65	0x3de9c14f	0.11413824
66	0xbd4212a0	-0.047381043
67	0x3d8e72c7	0.06955486
68	0xbd4bf5d9	-0.049795005
69	0x3dacecce	0.084436044
70	0x3aa026d8	0.0012218608
71	0x3d3d249b	0.046177488
72	0xbd8d178d	-0.068892576
73	0x3df2ca0d	0.118549444
74	0xbca708e2	-0.020389978
75	0x3d9bd972	0.07609834
76	0x3dcb94f6	0.099405214
77	0x3df4a228	0.11944991
78	0xbc966bfd	-0.01836204
79	0xbca4c4c4	-0.020113356
80	0x3ce1fb9e	0.0275858
81	0xbce9e2ff	-0.028550623
82	0x3d4cea47	0.05002811
83	0xbd849aac	-0.06474814
84	0xbc3b71d7	-0.011440716
85	0x3df31126	0.11868505
86	0xb9ae4e1b	-0.0003324606
87	0x3e141af1	0.14463402
88	0x3dd41354	0.10355249
89	0x3da7a063	0.08184888
90	0xbd918a62	-0.071064726
91	0xbd2dad36	-0.042401515
92	0x3d6ea769	0.058265124
93	0x3c978df9	0.018500315
94	0x3e025db0	0.12731051
95	0x3d3cfa0d	0.046136905
96	0x3dfe51c8	0.12417942
97	0x3d9a4e43	0.075344585
98	0x3dcfd192	0.10147394
99	0x3de944bd	0.11390064
100	0x3d7f8aae	0.062388115
101	0xbd7c674a	-0.06162194
102	0x3be2f266	0.006925869
103	0x3e00bc7c	0.12571901
104	0x3de122f0	0.10992992
105	0x3dea43a8	0.11438686
106	0xbc25ab3b	-0.010111625
107	0xbcb40a97	-0.021977706
108	0x3d1c945e	0.03822743
109	0x3d0a72b6	0.033800803
110	0x3dd30b79	0.103049226
111	0x3cb4c41c	0.022066168
112	0xbda2a41d	-0.079414584
113	0x3e033642	0.12813666
114	0x3d55b88e	0.05217796
115	0xbc2e4902	-0.010637524
116	0x3de5f946	0.11229186
117	0x3daa9f51	0.083311684
118	0x3dfec0c6	0.12439112
119	0xbdea4f38	-0.11440891
120	0x3d7c6725	0.061621804
121	0x3e44c931	0.19217373
122	0x3e1f9351	0.1558354
123	0x3cd5b4b3	0.02608714
124	0x3cec6fc0	0.02886188
125	0xbe2dd071	-0.16974045
126	0xbdcef61a	-0.10105534
127	0xbc95556f	-0.018229214
128	0xbd42c9b7	-0.04755565
129	0xbdeca4ea	-0.11554892
130	0x3d96e260	0.07367396
131	0x3d62481c	0.05524455
132	0x3c916aa5	0.017751047
133	0x3cb5fa45	0.022214064
134	0x3dea073a	0.114271596
135	0x3cbcb804	0.023036964
136	0xbbdf347d	-0.006811677
137	0x3dab9d27	0.08379584
138	0x3d5a7e8d	0.053343344
139	0x3def6dd8	0.11690873
140	0x3e0f1e2a	0.1397635
141	0xbd0b601e	-0.03402721
142	0x3d9130e8	0.07089406
143	0x3e063f93	0.13110189
144	0x3c9c980d	0.019115472
145	0xbc920101	-0.017822744
146	0x3c04570a	0.008077392
147	0x3da26053	0.07928529
148	0xbd5f7dae	-0.054563217
149	0x3d0145a1	0.031560544
150	0x3e01d817	0.12680088
151	0xbd007ca8	-0.03136888
152	0xbd86fb6a	-0.06590922
153	0xbb7407b9	-0.0037236048
154	0x3db36801	0.087600715
155	0x3e06dc68	0.13170016
156	0x3da3aa4b	0.07991465
157	0x3d5f4463	0.054508578
158	0x3e29b5fa	0.16573325
159	0x3d95b11f	0.07309174
160	0xbcfe48e7	-0.031040622
161	0x3d1cfcb9	0.038326953
162	0x3cf2f857	0.029659433
163	0xbc77541b	-0.015095736
164	0x3e18bb85	0.14915283
165	0x3e0fb30e	0.14033148
166	0x3ce15c90	0.027509958
167	0x3dc14948	0.094378054
168	0x3e22d511	0.15901591
169	0xbd83f281	-0.06442738
170	0xbd388baf	-0.045055088
171	0x3da9eeef	0.08297526
172	0x3d9a0360	0.07520175
173	0x3dfa1871	0.12211693
174	0x3e033412	0.12812832
175	0x3e0f657f	0.14003561
176	0xbcc0ac12	-0.02351955
177	0x3da6f307	0.081518225
178	0x3d18fa0e	0.037347846
179	0x3de0810a	0.10962112
180	0xbd187fcc	-0.03723125
181	0xbdcc7e37	-0.09985011
182	0x3e19ec64	0.15031582
183	0xbc41511f	-0.011799126
184	0x3e282f5a	0.16424313
185	0x3d16aa14	0.036783293
186	0x3d86ed35	0.065882124
187	0x3de4f683	0.11179831
188	0x3d80d036	0.06289713
189	0x3c0fbc45	0.008772914
190	0x3c928de4	0.017889924
191	0xbca59b5b	-0.02021568
192	0xbdcce81d	-0.100052096
193	0xbd865497	-0.06559103
194	0xbe260162	-0.16211465
195	0xbd55da9c	-0.052210435
196	0x3db8ad9b	0.090174876
197	0xbd28ee89	-0.04124311
198	0x3e10871e	0.14114043
199	0x3db45d35	0.0880684
200	0x3daeef1c	0.085417
201	0xbb14bdfa	-0.0022696243
202	0xbd095684	-0.033529773
203	0x3dd07ddc	0.10180256
204	0xbd2b4c36	-0.041820727
205	0xbd6396ee	-0.05556386
206	0xbdaf4292	-0.08557619
207	0x3d5934bb	0.053028803
208	0x3e25e60f	0.16201042
209	0x3d30e7f8	0.043189973
210	0xbcc84cd0	-0.02445069
211	0xbca89453	-0.020578539
212	0xbc44204e	-0.011970593
213	0xbcfcf573	-0.030878758
214	0xbcf88dbb	-0.03034102
215	0xbcad180c	-0.02112963
216	0x3e0a8467	0.1352707
217	0x3e0dcd5c	0.1384787
218	0x3dd9fef1	0.10644329
219	0xbd50c9e2	-0.05097378
220	0x3de36e76	0.11105053
221	0x3d87e586	0.06635575
222	0x3c70906e	0.014682872
223	0xbd8615ba	-0.06547113
224	0x3b46408b	0.0030250873
225	0x3c23f267	0.010006524
226	0xbd9b706d	-0.07589803
227	0x3d65d1a2	0.056108125
228	0x3c508b19	0.012728476
229	0x3dc6ecd9	0.09713144
230	0x3d7a6d73	0.061139535
231	0xbce58c88	-0.028021112
232	0x3dc48efd	0.09597585
233	0xbacfadaf	-0.0015844608
234	0x3e1595e7	0.14607964
235	0xbd53d7eb	-0.051719587
236	0xbd6979dc	-0.05700098
237	0x3e00586c	0.1253373
238	0x3d9c779b	0.076400004
239	0xbd56626f	-0.052339967
240	0x3da1c434	0.07898751
241	0x3dde9a97	0.108693294
242	0x3d9ef953	0.077623986
243	0xbd5ea64b	-0.054357808
244	0xbe079ced	-0.13243456
245	0x3ce84ae1	0.028356018
246	0xbd0bea77	-0.03415915
247	0x3cee5041	0.029091002
248	0x3e0a6092	0.13513401
249	0x3d603676	0.054739438
250	0x3e3dc656	0.1853269
251	0xbba3886b	-0.0049906275
252	0x3e299b71	0.16563202
253	0x3d3fb91d	0.046807397
254	0x3d99ad50	0.0750376
255	0x3e27f9e5	0.16403921

hidden_layers.0.bias f4 [30]
0	0xbb57b171	-0.003291216
1	0x3dfa0761	0.12208439
2	0x3d4a7513	0.049428057
3	0xbd0cd490	-0.034382403
4	0x3dae6c1c	0.08516714
5	0x3d2d04f1	0.04224104
6	0xbcc47023	-0.023979252
7	0x3e139536	0.14412388
8	0x3de6550f	0.112466924
9	0xbc950356	-0.018190067
10	0x3c18b320	0.0093200505
11	0x3c2f020f	0.010681643
12	0x3d8650f5	0.0655841
13	0xbbb72610	-0.005589254
14	0x3cde8fbe	0.027168151
15	0xbdc5acbd	-0.09652088
16	0x3d7876f0	0.060660303
17	0xbcfeb724	-0.031093188
18	0x3d78e2ab	0.060763042
19	0x3d82de75	0.063900866
20	0xba6fbb6c	-0.00091450545
21	0xbdd1324d	-0.10214672
22	0xbd17ef4f	-0.037093457
23	0x3b1cf57f	0.0023950038
24	0x3e0e8a31	0.13919903
25	0xbc1dff19	-0.00964334
26	0x3e3050f3	0.1721838
27	0x3e434464	0.19069058
28	0x3b52fa03	0.0032192476
29	0xbd771659	-0.060324047

hidden_layers.1.weight f4 [10, 30]
0	0x3e247b60	0.16062689
1	0x3d90aa87	0.070637755
2	0x3e753229	0.23944916
3	0x3e1a83c3	0.15089326
4	0xbd313af0	-0.043269098
5	0x3df5cdcc	0.12002143
6	0xbde7c887	-0.113175444
7	0x3e2f95bf	0.17146967
8	0x3e07e322	0.13270238
9	0x3d8aa68c	0.067700475
10	0x3d46e27c	0.048555836
11	0xbd860035	-0.06543008
12	0xbd8d4e40	-0.06899691
13	0x3db17e3c	0.086666554
14	0x3e1d0617	0.15334354
15	0x3e5be999	0.21475829
16	0xbb38f95d	-0.0028224804
17	0x3df76c82	0.12081243
18	0x3a4db3bc	0.0007846912
19	0xbddd5234	-0.108066946
20	0xbdf9d826	-0.1219943
21	0x3d696d9f	0.05698931
22	0x3e431756	0.1905187
23	0x3e09dcd7	0.1346315
24	0x3e491710	0.19637704
25	0xbe30061e	-0.17189834
26	0x3e7eb0ad	0.24872084
27	0x3e6fea67	0.23429261
28	0xbe637e99	-0.22216262
29	0xbd84d792	-0.06486429
30	0xbe1f78f7	-0.15573488
31	0x3e1eeedf	0.1552081
32	0xbdc6f273	-0.09714212
33	0x3e23ef3c	0.1600923
34	0xbe0de985	-0.13858612
35	0x3dd20935	0.10255662
36	0xbe02c149	-0.12769045
37	0x3d1ca3e7	0.038242247
38	0xbe31ba17	-0.17356144
39	0x3e3e38eb	0.185764
40	0xbd3c4970	-0.045968473
41	0xbd202c13	-0.039104532
42	0x3e18768c	0.14888972
43	0x3d202c50	0.03910476
44	0xbe0240c0	-0.12720013
45	0x3e0abdf1	0.1354902
46	0x3e33d60f	0.17562126
47	0xbdb28356	-0.087164566
48	0x3b616063	0.0034389726
49	0xbd1e51cc	-0.038652226
50	0xbe17175b	-0.14755003
51	0x3dcb16ff	0.099164955
52	0x3b8dd50f	0.004328377
53	0xbe1cefe2	-0.15325883
54	0xbe2c693a	-0.16837016
55	0xbd9e40f9	-0.07727236
56	0xbdcb0417	-0.099128895
57	0xbd4c2351	-0.049838368
58	0xbd243df0	-0.04009813
59	0x3d557c62	0.052120574
60	0xbe33c692	-0.17556217
61	0x3e238a4e	0.15970728
62	0x3bad5fff	0.0052909846
63	0x3d923ef0	0.071409106
64	0xbdbf6e44	-0.093472034
65	0x3dccf804	0.10008243
66	0x3e1689ab	0.14700954
67	0xbe2f0b1c	-0.17094082
68	0xbe3cfdfd	-0.18456264
69	0xbe1884bb	-0.14894383
70	0xbdc556f9	-0.09635729
71	0x3de1a3bd	0.11017559
72	0xbdc80e20	-0.09768319
73	0xbd961e59	-0.07330007
74	0xbdd9e3f1	-0.106391795
75	0x3c658f66	0.01401124
76	0xbda40df1	-0.080104716
77	0x3d2043aa	0.03912703
78	0xbcaf4c53	-0.021398699
79	0x3dd58667	0.10426026
80	0xbce88cec	-0.02838751
81	0xbdb68de4	-0.08913782
82	0xbe2651a3	-0.1624208
83	0x3d153b63	0.03643359
84	0xbdb6b34b	-0.08920916
85	0x3e1d0640	0.15334415
86	0x3e0c37e2	0.13693193
87	0x3e122adb	0.1427416
88	0x3c4065c4	0.011743013
89	0x3da11721	0.078657396
90	0x3ce5dc2b	0.028059086
91	0x3d707aef	0.05871099
92	0x3e4f4917	0.20242725
93	0x3e836311	0.2566152
94	0x3e562871	0.20913865
95	0xbc06d568	-0.008229591
96	0xbd33acb4	-0.043865874
97	0xbda48e46	-0.08034949
98	0x3e85acb2	0.2610832
99	0xbd9aaa46	-0.07552008
100	0x3e0abcf2	0.1354864
101	0xbd97f7aa	-0.07420285
102	0x3e68d678	0.22738063
103	0x3dfc5b4c	0.12322101
104	0x3e894ddf	0.26817223
105	0xbd3e22a2	-0.046419747
106	0x3e603cb2	0.21898153
107	0xbdfaa5bc	-0.122386426
108	0xbe096da5	-0.13420732
109	0x3d10b07f	0.03532457
110	0x3d9f14f9	0.07767672
111	0xbd9aeac9	-0.07564313
112	0x3e5350d6	0.20636305
113	0x3e40a2b0	0.1881206
114	0x3c9bf348	0.019036904
115	0xbe0a06c0	-0.13479137
116	0x3df7f30f	0.121069066
117	0xbda6a061	-0.081360586
118	0x3dcd8939	0.10035939
119	0xbda56c18	-0.08077258
120	0xbdb8158e	-0.08988486
121	0x3e1a32fb	0.1505851
122	0x3e167aed	0.1469533
123	0x3e826831	0.25470117
124	0x3d1f6f9a	0.03892479
125	0x3c6e785d	0.014555064
126	0x3e12d064	0.14337307
127	0x3e572623	0.21010642
128	0x3d2e014e	0.042481713
129	0x3d9c6be1	0.07637764
130	0xbe174c33	-0.14775161
131	0x3d8c0ade	0.0683801
132	0x3e76e5e8	0.2411114
133	0xbd8b2390	-0.067938924
134	0xbcc4eb27	-0.02403791
135	0xbd7cd94d	-0.06173067
136	0x3e407742	0.18795493
137	0xbde107a5	-0.10987786
138	0x3d157b56	0.036494575
139	0xbd6e8d77	-0.05824038
140	0x3e871321	0.26381782
141	0x3e517c53	0.20457582
142	0x3e56a699	0.2096199
143	0x3d33f952	0.043938942
144	0xbe0dfef2	-0.13866785
145	0x3d853bf2	0.06505574
146	0x3d14962f	0.03627604
147	0x3d3166dc	0.043310985
148	0xbd6f3891	-0.058403555
149	0x3ca789b5	0.020451406
150	0x3d495871	0.04915661
151	0xbde3c578	-0.111216486
152	0x3d2b916e	0.04188674
153	0xbd623196	-0.05522307
154	0xbde41ec5	-0.11138681
155	0xbd49945d	-0.049213756
156	0x3e019954	0.12656146
157	0x3e440766	0.19143447
158	0xbc2dcc78	-0.010607831
159	0xbc63912c	-0.013889592
160	0xbde77119	-0.113008685
161	0x3e0add70	0.13561034
162	0x3e35bb5f	0.17747258
163	0xbddcff27	-0.10790854
164	0xbd441d8f	-0.04787975
165	0x3db00278	0.08594221
166	0x3e7fc197	0.24976192
167	0x3dd8a6fb	0.10578724
168	0xbce96a77	-0.02849315
169	0xbd6985b5	-0.05701228
170	0x3e2a495a	0.16629544
171	0xbe2e38ba	-0.17013827
172	0xbd2a4a3c	-0.0415747
173	0x3dc8feb1	0.098142035
174	0x3e5908db	0.21194784
175	0xbc0d1c91	-0.008612768
176	0xbe0b4b89	-0.13603033
177	0xbca3ced8	-0.019996092
178	0x3e75544c	0.23957938
179	0x3e17f5b6	0.14839825
180	0xbd3dfad2	-0.04638178
181	0x3e04792a	0.12936845
182	0xbc19e7ed	-0.009393674
183	0x3d2c4aa2	0.042063363
184	0x3e76ba40	0.24094486
185	0xbe4dcad0	-0.20096898
186	0x3df09c53	0.117485665
187	0x3e0b0362	0.13575509
188	0xbd85acbe	-0.065270886
189	0xbde2487c	-0.110489815
190	0x3e0f532c	0.13996571
191	0xbe28d4cc	-0.16487426
192	0x3e35ff2e	0.17773125
193	0xba264000	-0.0006341934
194	0x3e2f3b7e	0.17112538
195	0x3d027d3f	0.031857725
196	0xbd34e18c	-0.04416041
197	0x3db3616b	0.087588154
198	0x3e3984dc	0.18117088
199	0xbdbb87ea	-0.09156783
200	0xbe15468d	-0.14577694
201	0x3e337b0d	0.17527409
202	0x3e367216	0.17816958
203	0x3d5dcbc3	0.0541494
204	0xbe0da74a	-0.13833347
205	0xbdce56ec	-0.10075173
206	0xbdaabaf2	-0.08336438
207	0xbe23c6aa	-0.15993753
208	0x3de4a74a	0.1116472
209	0xbcd8d44a	-0.026468415
210	0x3e164e23	0.14678244
211	0xbdf796ec	-0.12089333
212	0xbda4c62e	-0.08045612
213	0x3def458e	0.116831884
214	0xbd2b1ec7	-0.0417774
215	0xbe216dac	-0.15764493
216	0xbc551806	-0.013006216
217	0xbe428af3	-0.18998317
218	0xbdf1408c	-0.117798895
219	0x3dca3239	0.098728605
220	0x3de9c2a0	0.11414075
221	0x3d204a0e	0.039133124
222	0x3e293f81	0.16528131
223	0xbdc67be7	-0.09691601
224	0x3dce9b82	0.100882545
225	0xbd711904	-0.058861747
226	0x3e0b98a3	0.13632445
227	0xbd251f90	-0.040313303
228	0x3e3e8cff	0.18608473
229	0xbdae5fe7	-0.08514386
230	0xbde9029e	-0.11377452
231	0xbe24d566	-0.1609703
232	0x3e22ebcd	0.15910263
233	0xbdf91167	-0.12161522
234	0xbd8dea51	-0.06929458
235	0x3e222b3d	0.15836807
236	0xbe149f7f	-0.14513968
237	0x3d838e80	0.06423664
238	0xbe114d6f	-0.14189695
239	0xbd02df8e	-0.03195148
240	0x3e2f2d4d	0.17107125
241	0x3e60b6d0	0.21944737
242	0xbd69c2cd	-0.057070542
243	0xbd611db3	-0.054959964
244	0x3e1d34e2	0.15352204
245	0xbc94d346	-0.01816715
246	0x3e3184d9	0.17335834
247	0x3dcf8783	0.10133269
248	0x3d08e943	0.03342558
249	0xbe1d3822	-0.15353444
250	0xbc896c18	-0.016775176
251	0xbc802911	-0.015644582
252	0x3e7fda91	0.2498572
253	0xbe36558b	-0.1780607
254	0x3dbfc076	0.09362881
255	0xbda78b5b	-0.08180877

hidden_layers.1.bias f4 [10]
0	0x3d3ac737	0.045600142
1	0xbde51200	-0.11185074
2	0xbd4be2dd	-0.0497769
3	0x3dd99e21	0.10625864
4	0x3e6a0b47	0.22855864
5	0xbd6c8aec	-0.057749674
6	0x3e28c406	0.16481027
7	0xbd29db41	-0.041468862
8	0xbc7c5d61	-0.015403123
9	0x3b5e0e80	0.0033883154

output_layers.0.weight f4 [21, 10]
0	0xbe26cf2d	-0.16289969
1	0x3e518206	0.20459756
2	0x3e0ab933	0.1354721
3	0xbda99f6c	-0.082823604
4	0xbe6fda71	-0.23423173
5	0x3e5098df	0.20370816
6	0xbe5460ad	-0.20740004
7	0xbdd22dfe	-0.102626786
8	0xbe867718	-0.26262736
9	0x3e0a938b	0.13532846
10	0xbdcb177c	-0.09916589
11	0x3e277b07	0.16355525
12	0xbe9f55cf	-0.31120154
13	0xbe297a44	-0.16550547
14	0xbe099b68	-0.13438189
15	0xbe7a14a3	-0.24421935
16	0x3e40e999	0.1883911
17	0x3db9d87a	0.09074493
18	0x3d349685	0.04408886
19	0xbdc98cd1	-0.09841312
20	0xbec104fd	-0.37699118
21	0xbe14d5e2	-0.14534715
22	0x3e94e898	0.29083705
23	0x3bdb5b70	0.00669425
24	0xbe430a58	-0.19046915
25	0x3d87b228	0.066257775
26	0x3d854c78	0.06508726
27	0x3d4da529	0.050206337
28	0x3dbb888c	0.091569036
29	0x3e5b20de	0.21399257
30	0xbe76929f	-0.24079369
31	0xbc3c5ed7	-0.011497221
32	0xbd410a48	-0.047128946
33	0xbe99d784	-0.30047238
34	0x3e6e784f	0.23288082
35	0xbea1de94	-0.31615126
36	0x3d31643e	0.04330849
37	0xbdae1de6	-0.085017964
38	0xbe7a5d47	-0.24449645
39	0xbe4acaac	-0.19803876
40	0x3bb91f5c	0.0056494903
41	0xbe261859	-0.16220225
42	0x3e7687a2	0.24075177
43	0xbea7d016	-0.32775944
44	0xbdad63cb	-0.084662996
45	0xbd9b6f45	-0.07589582
46	0xbe876019	-0.26440504
47	0xbd955dfb	-0.07293316
48	0x3e05a967	0.13052903
49	0xbda81c8b	-0.08208569
50	0x3e7ed6a0	0.2488656
51	0xbd980dd0	-0.074245095
52	0x3e9d8539	0.30765703
53	0xbeb7b711	-0.35881856
54	0xbdfb1045	-0.122589625
55	0xbd7c58ed	-0.061608244
56	0x3cd14f45	0.025550494
57	0xbd581072	-0.05275006
58	0xbd543d00	-0.051815987
59	0xbea305f4	-0.3184048
60	0xbe04569f	-0.12923668
61	0x3dc66267	0.096867375
62	0x3e455272	0.19269732
63	0xbd847b56	-0.06468837
64	0xbe4fef2f	-0.20306085
65	0xbde54ee5	-0.111966886
66	0xbe00c9dd	-0.12577005
67	0xbd47f0ce	-0.048813634
68	0xbdf74055	-0.12072817
69	0x3c36ab8c	0.011149298
70	0x3d6e62fc	0.058199868
71	0x3e16933c	0.14704603
72	0x3dff8c0c	0.12477884
73	0xbda96af2	-0.08272351
74	0xbb0f32e9	-0.0021850413
75	0xbedde7ba	-0.43340856
76	0x3dc9f209	0.09860618
77	0x3cd63861	0.02614993
78	0xbd5af981	-0.0534606
79	0xbeaf6dd1	-0.3426347
80	0x3d97ced2	0.07412495
81	0x3e8be6d4	0.27324545
82	0xbe04bff6	-0.12963852
83	0xbd4922c2	-0.049105413
84	0x3d636bd6	0.055522762
85	0xbeae03cd	-0.33987275
86	0x3e467569	0.19380726
87	0xbeb12ec9	-0.34606007
88	0xbec82cbb	-0.39096627
89	0x3e665017	0.2249149
90	0xbd7614ed	-0.06007855
91	0xbdd6aa14	-0.104816586
92	0x3cbb8957	0.022892637
93	0xbe8c2dcd	-0.27378693
94	0xbde9c854	-0.11415163
95	0x3e02b88e	0.12765715
96	0xbec3cfbf	-0.38244435
97	0x3e18ad8a	0.1490995
98	0x3dd23d31	0.102655776
99	0x3dc1d181	0.09463788
100	0x3e010e7f	0.12603186
101	0xbcebbbbd	-0.028776044
102	0x3d79ec41	0.061016325
103	0x3d22c1e7	0.0397357
104	0xbe07c8da	-0.13260213
105	0xbe703f7e	-0.2346172
106	0xbd8daa40	-0.06917238
107	0xbc64a019	-0.013954186
108	0xbed432f9	-0.4144514
109	0xbe16200d	-0.14660664
110	0xbe17c2c4	-0.14820391
111	0xbd6a06d9	-0.057135437
112	0xbd3b6e74	-0.045759633
113	0x3d9b2b1a	0.0757658
114	0xbd9063e6	-0.07050304
115	0xbe6d8bf6	-0.23197922
116	0xbc198a42	-0.009371342
117	0x3e11b651	0.14229704
118	0xbe2c061e	-0.16799209
119	0xbba6af4e	-0.005086816
120	0xbe54a21a	-0.20764962
121	0xbe6a85b4	-0.22902566
122	0xbe98cb95	-0.2984282
123	0x3e11a9a7	0.14224873
124	0xbe112fb8	-0.1417836
125	0x3dbcff0e	0.09228335
126	0xbda14166	-0.07873802
127	0x3e4ad38c	0.19807261
128	0xbe298ec7	-0.16558371
129	0x3dcca7e7	0.09992962
130	0x3de6d019	0.1127016
131	0x3e505328	0.20344222
132	0x3c6c00fd	0.0144045325
133	0xbe26b552	-0.16280106
134	0xbe4f405d	-0.20239396
135	0x3e2e7602	0.17037204
136	0x3bf76b9b	0.0075506694
137	0x3e3e34a2	0.18574765
138	0xbebdf6e1	-0.37102416
139	0xbe16f3bb	-0.14741413
140	0xbe5effe7	-0.21777306
141	0x3dec6369	0.115423985
142	0x3e05f85c	0.13083023
143	0xbe19208c	-0.14953822
144	0x3dfd60a9	0.12371952
145	0xbd8b8fa2	-0.06814505
146	0x3d9aaed4	0.07552877
147	0x3d154bde	0.036449306
148	0xbe8d908a	-0.27649337
149	0x3e6676c1	0.22506239
150	0xbec9b6b9	-0.3939722
151	0xbe0767a8	-0.13223135
152	0x3e817df2	0.252914
153	0xbe0bb952	-0.13644913
154	0xbbee55ef	-0.0072734277
155	0xbe32fc0d	-0.17478962
156	0xbebfc096	-0.3745162
157	0xbea5e556	-0.32401532
158	0x3e13aed4	0.1442216
159	0x3e70d14a	0.23517337
160	0xbd31e350	-0.043429673
161	0xbdff30dd	-0.12460492
162	0x3e61d281	0.22052957
163	0xbd0c41ac	-0.034242317
164	0xbddfb8bb	-0.109239064
165	0x3d991590	0.07474816
166	0xbe9bcee4	-0.30431283
167	0x3e98ffd2	0.29882675
168	0xbe6b75d6	-0.2299417
169	0x3d41162d	0.04714029
170	0x3d779c15	0.060451586
171	0x3e8b09a2	0.27155787
172	0x3e5beac5	0.21476276
173	0xbdd06b8b	-0.10176762
174	0x3c4d4a43	0.012529912
175	0xbe92b135	-0.28650823
176	0xbe668b22	-0.22514012
177	0x3d899c80	0.06719303
178	0xbe5310b0	-0.20611835
179	0x3e38e210	0.18054986
180	0x3cfa8027	0.030578686
181	0xbd70a66a	-0.058752455
182	0xbd160e46	-0.036634706
183	0xbe24ce44	-0.16094309
184	0x3c82069b	0.01587229
185	0xbd65d195	-0.056108076
186	0xbe6123cd	-0.21986313
187	0xbe9238be	-0.28558916
188	0xbe11f1bf	-0.14252375
189	0xbeabb590	-0.3353696
190	0xbda0efb6	-0.07858221
191	0xbea21096	-0.3165328
192	0x3e7fd537	0.24983679
193	0xbd09cba7	-0.033641484
194	0xbe056006	-0.13024911
195	0xbeb43765	-0.35198513
196	0x3dfbf0f4	0.123018175
197	0x3dd22d79	0.102625795
198	0x3d9c0281	0.07617665
199	0x3e8008a3	0.2500659
200	0x3e5e7b62	0.21726754
201	0xbd296723	-0.041358124
202	0x3e4d690a	0.200596
203	0xbdc3ff05	-0.095701255
204	0xbe135104	-0.14386374
205	0xbdc792f8	-0.09744829
206	0x3e454635	0.19265063
207	0x3e0d98f7	0.13827883
208	0xbec4031d	-0.38283625
209	0x3e8370e7	0.25672075

output_layers.0.bias f4 [21]
0	0x3d6ec6db	0.058295112
1	0x3df2ff82	0.118651405
2	0x3d90717e	0.07052897
3	0xbe0c4d7d	-0.13701434
4	0xbe97da82	-0.29658896
5	0xbd90ab33	-0.07063904
6	0xbe20ad2c	-0.1569106
7	0xbe9f69d3	-0.31135425
8	0xbe52d347	-0.20588408
9	0xbdbdd117	-0.09268396
10	0xbbaec5bf	-0.0053336318
11	0xbe34f7f1	-0.17672707
12	0x3ca51e37	0.02015601
13	0x3e8e4d86	0.2779352
14	0xbc666d4b	-0.014064143
15	0x3e6b0d94	0.22954398
16	0xbe9215af	-0.28532168
17	0x3e53cd83	0.20683865
18	0xbe7049d3	-0.23465662
19	0xbe13e46a	-0.14442602
20	0x3d81b559	0.063334174
