my_data_and_graph/pretrained/DQN with Fixed Q Targets_local_network.pt (torch, 30887 bytes, 7 tensors)

embedding_layers.0.weight f4 [225, 20]
00000000: 6a6b cdbf ffc9 32bf c73c e2bf 6b79 ab3f
00000010: 366a 37be c9ca 013f a022 e7bc 0253 68be
00000020: 2723 1dbf 0f29 9ebe 9cd3 e63f f6fa 343f
00000030: 469f 9dbf 8efe c73e 78b9 d03e 0305 acbe
00000040: ffb4 a33f e3d0 afbe f724 343f 2a4d 8fbf
00000050: 525f 223f 5dd1 5f3f 19fc 53bd 15ab 233f
00000060: fa8a 5f3f dbd7 18be 16ac a13f 987f ddbe
00000070: 8a24 86bf 0a77 cf3f 43bc 0bbd 4eb7 c93f
00000080: d903 f93f 3863 a33e d817 313f 8cde 023e
00000090: c7ec 8fbf 3b72 4f3d 94e9 debf 30ea c13d
000000a0: 8ddb 08c0 96a6 5bbe 25e5 d33e c911 053e
000000b0: fdc1 503e 732e 703c 2d15 193e cb23 f33d
000000c0: 5720 4c3f fa46 a83e baaf d43f 778e 1e3f
000000d0: 2d99 ddbf b2c0 8dbf bdca 033e abf9 63bf
000000e0: a182 ee3f 443c a43f 7027 8e3f 4bfa 1e3f
000000f0: be62 8bbf 9e88 8cbd f3c0 ea3e 2cf9 73bf
00000100: 90f4 23be 5713 1a40 4ada 00be 5dba 483f
00000110: ecf4 45bd b72d c4bf c983 4abe 28ac 95be
00000120: 61e4 ac3d dc3f 1ebf 5700 5dbf 38be e8bf
00000130: f90d 793f fdc1 d4bd 00a1 fb3f 5d0a 323f
00000140: 0e77 943d 2206 aa3f 4488 a83f 505d f5bf
00000150: 61b3 7fbe 531e 4dbf 78ac a53e bdd9 ff3f
00000160: 76f4 313e 4370 b63f db06 e2be 0ee4 c73f
00000170: b636 1ebf ad0f cb3e de12 0140 d9b4 b03d
00000180: f77e adbf 8feb 233f b21c 613f eacf 213f
00000190: 1eb7 8abf 94d8 883f c17b a3bf d66a 913d
000001a0: e69d 07c0 e3be a0be 8c15 96bf cd07 ff3e
000001b0: aac5 ddbf 3a72 8cbf 18fa b0bf 82f4 0abf
000001c0: ec94 c1bf 43bc 993e 8aeb 113e 83b3 c33f
000001d0: 74a9 1ebd 524a ae3f 7da6 1bbf 5caa d2be
000001e0: 70f3 f63f 6a5b 523f fc86 0abf 133c 99bf
000001f0: f478 61bf f05f 46bf f658 49bf 18b0 9b3f
00000200: 4776 963d 877c 443c a494 81bf 55ff 21bf
00000210: 281b f73f ec13 28bf 94a4 b83f 7d0d d8bf
00000220: 3121 6d3f 378b b0bf 7157 563f b5c1 d03f
00000230: aa25 be3f 5f79 85bf 4a73 ebbe 69fb 663e
00000240: b481 2f3e 065e a33f bb17 8b3d b80f 023f
00000250: 9b4c 0240 654c 8fbc 744e 78be 5b3e 093f
00000260: fbc7 5f3e 92cc 023e ebf5 d5bf 58c1 1bbf
00000270: 3ba3 cbbe e206 0340 3420 68bf 4e57 e43f
00000280: c7f7 01be 22f5 a33f 2da7 77be 2fc2 bf3d
00000290: 003d 323f f728 ad3e a12d 083e 0a6a 213f
000002a0: e5a3 2a3f 4b23 04bd 0670 5c3d 5557 9ebf
000002b0: 88b5 27bf 8560 153f 31fe 9bbe 9f17 0fc0
000002c0: 7b34 363f 79de 1c3e 155f 15bd 7ae6 b7bf
000002d0: 73f7 043e 75d1 c33e 22fa 943f 699a 843f
000002e0: f9e8 5b3f 79fb 693f 738e 143f aec1 bd3e
000002f0: 966d 70bd 7887 a8bf dc49 c9bf 8822 75bd
00000300: 1938 973e 3472 f9be 6adc 643e 4f8e 043e
00000310: 33b1 a13f 01b4 203e cc69 abbd 7f5c 83bf
00000320: bdb6 03bf c155 adbe 13d2 d5bf 82b7 883f
00000330: 848d 82be b6b2 dbbf acb3 fabe 707c a23e
00000340: 73a6 0a3f 6c58 84bf fa05 143f 3370 1ac0
00000350: 4acd bb3e 3420 33be eb90 0f3f 0065 b0bf
00000360: 89a0 9dbf 1821 e6bc 8d70 b5be 3b3e 28bf
00000370: 5761 a63f 2b78 1fbf f08c e9be 5e35 4c3f
00000380: f6b1 e83f 2596 f03f 3cc5 353e 58f9 923d
00000390: d12d 833f b39a 20bf d5ee 9c3f 99dd a13f
000003a0: 58b4 833e de38 773f 6544 babf 7439 313f
000003b0: 4ffb ef3e 0573 bfbf 822a d13d e279 df3e
000003c0: d26b 9a3e ed93 083f b676 333f ed0a 9cbf
000003d0: 1c31 04bf f684 e3bc 3d0f 01bf c39c 31bf
000003e0: 9bd0 b73f c664 9b3f 0cf0 db3e b592 8d3f
000003f0: acec 6cbe 485a bb3d cb5c cdbe 7efd 16c0
-1.6048405 -0.6983947 -1.7674798 1.3396429 -0.1791161 0.5070005 -0.028214753 -0.22687915
-0.61381763 -0.308907 1.8033328 0.70695436 -1.2314231 0.39061397 0.407665 -0.33597574
1.2789611 -0.34339055 0.70368904 -1.1195424 0.634267 0.8742884 -0.05175409 0.63932925
0.87321436 -0.14926092 1.2630641 -0.4326141 -1.0479901 1.6208203 -0.034115087 1.5759065
1.9454299 0.31911635 0.6917701 0.12780207 -1.1244134 0.050646048 -1.7415032 0.09468496
-2.1384003 -0.21450266 0.4138576 0.12995066 0.203865 0.014659512 0.14949484 0.11872061
0.79736847 0.3286665 1.6616127 0.61936134 -1.731237 -1.1074431 0.12870307 -0.8905284
1.8633615 1.2830892 1.1105785 0.62100667 -1.0889509 -0.06861995 0.45850334 -0.9530208
-0.16011262 2.4074304 -0.1258327 0.7840937 -0.04832928 -1.5326451 -0.19776835 -0.29232907
0.08441997 -0.6181619 -0.86328644 -1.818305 0.97286946 -0.10388563 1.9658508 0.69547063
0.072492704 1.3283122 1.3166585 -1.9169102 -0.24970771 -0.80124396 0.32358146 1.9988323
0.1737841 1.425301 -0.44145855 1.5616472 -0.6180223 0.39660397 2.0167766 0.08628244
-1.3554372 0.6403131 0.8793441 0.63207877 -1.0837133 1.0691094 -1.2772142 0.071004555
-2.1190124 -0.31395635 -1.1725326 0.4981064 -1.7325947 -1.0972359 -1.3826323 -0.5427934
-1.5123572 0.30026445 0.14250007 1.5289158 -0.03873582 1.3616431 -0.60800916 -0.411456
1.9293041 0.82170737 -0.5411222 -1.1971458 -0.88075185 -0.7749014 -0.7865137 1.2163115
0.07346778 0.01199258 -1.0123487 -0.6328023 1.9305162 -0.656554 1.4425225 -1.6879116
0.9262877 -1.3792485 0.83727175 1.6309115 1.4855244 -1.0427665 -0.45986396 0.22556843
0.17139322 1.2763069 0.067916356 0.50805235 2.0359256 -0.017492482 -0.24248677 0.5361077
0.2185363 0.1277335 -1.6715673 -0.60841894 -0.39772972 2.047295 -0.9067414 1.7839143
-0.12692176 1.2809184 -0.24184866 0.093632095 0.6962433 0.33820316 0.13298656 0.6305243
0.66656333 -0.03226022 0.05381777 -1.2370402 -0.6551137 0.583504 -0.3046737 -2.2358167
0.7117383 0.15319242 -0.03646763 -1.4367211 0.1298502 0.3824574 1.1638834 1.0359622
0.85902363 0.9139934 0.5802986 0.37061828 -0.05869826 -1.3166342 -1.5725665 -0.059847385
0.29534987 -0.48719943 0.22349706 0.12944911 1.2632202 0.15693666 -0.083697885 -1.0262603
-0.5145071 -0.33854488 -1.6704735 1.0681002 -0.25498593 -1.7163913 -0.48965204 0.31735563
0.5416023 -1.0339484 0.5782162 -2.413098 0.3668006 -0.17492753 0.560805 -1.3780823
-1.2314616 -0.028091952 -0.35437432 -0.65719956 1.2998456 -0.62292737 -0.4561534 0.7976893
1.8179309 1.879582 0.1775102 0.07176465 1.0248357 -0.6273605 1.2260386 1.2645751
0.2572353 0.9657115 -1.4552122 0.6922829 0.4687142 -1.4956976 0.10213186 0.43647677
0.30160385 0.53350717 0.70103014 -1.2190834 -0.51637435 -0.027773362 -0.50413877 -0.69379824
1.4360536 1.2140129 0.4295658 1.1060396 -0.23137158 0.09148079 -0.40109858 -2.359222

hidden_layers.0.weight f4 [30, 66]
00000000: 0639 8b3d 6b1e 67bd 7316 e83d 967c 3c3d
00000010: e9a1 303b b376 b4bd 8cbe c3bd 09f2 d4bd
00000020: da62 1d3c f306 803c 094b 09bd 3e68 e0bd
00000030: 7bfd 4e3d 4a81 c4bd 0f2d 6dbd 7fd8 313d
00000040: c79b 113d 2ec9 c7bd 87e0 c33c 41fb 123c
00000050: e180 f2bb 2a48 8c3d 9b7b fdbd 9684 6c3d
00000060: b322 d2bd 9941 923c 5c75 a3bd c53e 183c
00000070: f772 a23d 6ddb a4bd 2e5a 53bc 08d5 a0bd
00000080: 720c f53d 1ce9 d9bd d8fc 46bd 39c5 f2bd
00000090: 001f 77b8 0c05 00be 9a57 963d 6f51 f4bd
000000a0: ddfc b33d 3fcc b63d 873a d9bd 19d9 9bbd
000000b0: 3675 01bc 0478 3b3d a9d6 f0ba edd8 85bd
000000c0: 2994 b73d a407 113c cf5c b43d 4441 63bd
000000d0: 414b b43d 5b2d 97bb 416d c0bd 976f 963c
000000e0: e39d a0bd a04b 8cbd e799 ccbd 8b3c bcbd
000000f0: e327 ae3c 676c 683b 915b 9ebd 472e e43c
00000100: 50b4 f3bd fd70 e33d 3f25 c4bd fc4f eb3d
00000110: c816 52bd 4c73 173d d098 933d c57a 7abd
00000120: af1f 043d 7ea1 1d3e e763 923d 2660 7a3d
00000130: d81e 6bbd 2da2 6abc 1789 95bd 8bb7 b8bc
00000140: 09f0 c9bd a1e7 c23d 345b 0d3c 681c 073e
00000150: a12a 6cbd 08a6 5abd cb18 fd3d dac8 af3d
00000160: 7696 3dbd c3fa d3bd e5e4 033e e3d8 223d
00000170: 4bf9 df3c f097 35bd e738 c9bd 85bc 07be
00000180: 7b30 b73d 9ccd c6bd 1cec 463c e66a b0bd
00000190: eef6 7e3d 86cc 883c b7a0 673d 8d8c d0bd
000001a0: c5f9 fe3b 78e1 7e3d ba75 4d3d 6a6e debd
000001b0: c532 4f3c d48d 9f3d 258c 383b eec4 7f3d
000001c0: 0a3f 233e 7db4 323d cbbb b0bc 7b74 c33d
000001d0: 5823 4fbb fea6 d93d e1e5 ca3b b1b5 11bd
000001e0: 070d cabd bd2a 40bd cbf2 953c 4747 313e
000001f0: 45b7 4e3d 2dc4 aa3d 68eb d6bc d5c6 f9bb
00000200: 6787 263d 1a48 313d b8d3 6e3d a4ce 823d
00000210: 5129 1b3e 9e71 af3d 1999 b13d 83de fb3d
00000220: fdc9 6fbb 873b 0e3e bab0 8b3d ef01 323d
00000230: 6f8a debc 75d9 cf3d 96cb 333e 36f0 613d
00000240: 2cde 49bd 9d48 ad3d ca78 0b3e e6ef 793c
00000250: 43a8 2a3e 3b6e 323e 9e74 573d 80cb 0d3e
00000260: d323 7a3a 7994 67bd bd88 113e 354d 1e3e
00000270: 20d3 493e a970 2a3d 7fa8 ca3d abed 58bd
00000280: f134 0cbd c53d 543d 7d73 a7bd d89a a13d
00000290: 5764 adbc 6260 08bd 8208 9abd 1146 293e
000002a0: 45d6 9ebc 1324 253e f8e8 fb3c 1fc6 ac3d
000002b0: 45c9 093e 07e7 d7bc b5a3 f43d f2f9 ee3d
000002c0: cabc 023d c882 ba3c 8884 29bd d740 0e3e
000002d0: 3e3d 86bd 2109 b03d 52f8 ec3c 5dcc 68bd
000002e0: 7931 12be d84f 573b a63f 16be 9036 48bd
000002f0: 7083 713c 8fd6 b43d 14ff 2f3e 95a4 0f3d
00000300: bf14 cebc a06d 1abe b63d d43d 6fc3 aabc
00000310: 6a32 d43c 999d f33c 23c8 37bd cbf9 f03c
00000320: 8f0f f73d 8470 813d cd55 e33d 092e cdbc
00000330: 42a6 143e d4be c03d 15e0 9c3d fcf0 113d
00000340: 3e5e 403d 72e4 2f3c 418c 1fbd 5a4b 103e
00000350: c017 6b3d 7d13 13bd d875 c3bc d9a9 a63d
00000360: 3f52 e53d 44ca 2d3d 88af 033e c8fa 493d
00000370: e923 1abd 6f35 c93d 7cf7 fc3d 8df1 31bc
00000380: 65e9 dc3d 263b fd3d 4dcc 8b3d 530c 43bd
00000390: acf3 193d faad e93d b2b1 673d 69e3 573d
000003a0: 37d5 8ebd 1152 80bd 1dc0 cc3d 6300 1abd
000003b0: 9885 7abd a9a8 ae3d 4946 a9bd 5014 8fbd
000003c0: 0b2f b93d be2a 193d a46e 39bc ecc5 ae3d
000003d0: ebed 94bd aabf 01be 6a70 07be c99f 313e
000003e0: ee28 0fbe 5c47 19be ee64 2bbe 436c ab3c
000003f0: 04b5 12bc ad09 aabd d44b 92bc 00f2 b2bc
0.06797986 -0.056425493 0.11332407 0.046017252 0.0026951975 -0.088117026 -0.09557828 -0.10397727
0.009606088 0.015628314 -0.033518825 -0.109573826 0.050534707 -0.095949724 -0.0579043 0.043419357
0.03554895 -0.09755169 0.023910774 0.008971036 -0.0074006175 0.06849702 -0.123770915 0.05774363
-0.102605246 0.017853545 -0.07981369 0.009292309 0.07932084 -0.08049665 -0.0128999185 -0.078531325
0.119652644 -0.10640165 -0.048580974 -0.118540235 -5.891826e-05 -0.12501925 0.073409274 -0.11929595
0.08788464 0.089256756 -0.10606866 -0.076097675 -0.00790148 0.045768753 -0.0018374521 -0.06535516
0.08963806 0.008851919 0.08806764 -0.055482164 0.08803416 -0.004613561 -0.093958385 0.018363757
-0.078426145 -0.06850362 -0.09990292 -0.09191235 0.021259254 0.0035465003 -0.07732309 0.027854098
-0.11899626 0.11105535 -0.09577417 0.11489865 -0.051291257 0.03697519 0.07206881 -0.06115224
0.03225678 0.15393636 0.07147961 0.06112685 -0.05740246 -0.014320892 -0.073015384 -0.022548458
-0.09860236 0.09516836 0.008627702 0.1319443 -0.05765784 -0.053380996 0.123582445 0.08583231
-0.04628607 -0.103505634 0.12880285 0.03975762 0.027340552 -0.044334352 -0.098253064 -0.13255508
0.08944794 -0.097071856 0.012141254 -0.08614139 0.06224721 0.016699087 0.056549754 -0.10183058
0.0077812397 0.062226743 0.0501611 -0.108609036 0.012646382 0.077907234 0.0028159705 0.062443666
0.15942016 0.04362916 -0.021573922 0.09543701 -0.003160676 0.10627554 0.0061919545 -0.035573665
-0.09865766 -0.04691576 0.01830425 0.17312346 0.05046775 0.08338199 -0.026235297 -0.0076225796
0.040656473 0.043281652 0.05830738 0.0638707 0.1515248 0.08566593 0.08671779 0.122983
-0.00365889 0.13889895 0.06820817 0.043458875 -0.02716562 0.101488985 0.1755813 0.055160724
-0.049284145 0.084611155 0.13620296 0.01525495 0.16665749 0.17424862 0.05260145 0.1384716
0.00095420814 -0.05653808 0.14212318 0.1545914 0.19709444 0.041611347 0.09895419 -0.052961033
-0.034230176 0.05181672 -0.081763245 0.07890862 -0.02116601 -0.033295043 -0.07521154 0.16530634
-0.019389281 0.16127042 0.030750737 0.08436226 0.13455684 -0.02635528 0.11945287 0.11668767
0.031918325 0.02276744 -0.041386157 0.13891922 -0.0655465 0.08595491 0.028927002 -0.05683552
-0.14276685 0.0032853987 -0.14672717 -0.04888016 0.01474081 0.08829986 0.17187148 0.035069067
-0.025156377 -0.15080881 0.10363333 -0.020845143 0.025902946 0.029738234 -0.0448686 0.029415986
0.120635144 0.06320289 0.111003496 -0.025046365 0.14516547 0.094113976 0.07659928 0.03563021
0.046964876 0.010735618 -0.038952116 0.14091244 0.057395697 -0.035907257 -0.023859903 0.081378646
0.11197328 0.042429224 0.12859929 0.04931143 -0.037631903 0.09824645 0.123518914 -0.010860813
0.10786704 0.12364797 0.06826077 -0.047619175 0.0375859 0.114101365 0.056565948 0.05270711
-0.06974261 -0.06265653 0.0999758 -0.037598025 -0.06116256 0.08528263 -0.08265359 -0.06986296
0.09042176 0.037394278 -0.011317883 0.08533844 -0.07271942 -0.1267077 -0.13226476 0.1734611
-0.13980457 -0.14968628 -0.1673772 0.020925647 -0.00895429 -0.08302627 -0.017858423 -0.02184391

hidden_layers.0.bias f4 [30]
00000000: 1831 e4bd 4e73 aebc e431 3d3d c7ac 09bc
00000010: aca3 883d af4b ebbd 1a0f 93bd 8def a93c
00000020: bf8b 053e 0462 993a b0b1 043d d3d5 afbd
00000030: 06d4 b0bd 37a6 8d3d 534d ab3b 6d31 3c3d
00000040: b31c ecba b1c1 c43d 415d da3c a559 aa3d
00000050: 56f7 613c 1b9f 223e c20b fbbd eb9e 953c
00000060: 0054 193d 9edf 6ebd 998a c1bd 3065 1c3e
00000070: 1461 a8bd 1b1b ba3d
-0.111421764 -0.021295216 0.046190158 -0.00840301 0.06671843 -0.11489045 -0.07180615 0.02074411
0.1304159 0.0011702185 0.03239602 -0.085857056 -0.0863419 0.069164686 0.0052277236 0.045945574
-0.0018013924 0.09607256 0.026655795 0.083178796 0.01379188 0.15881006 -0.12258102 0.018264255
0.037433624 -0.058318727 -0.094502635 0.15272975 -0.08221641 0.09087201

hidden_layers.1.weight f4 [10, 30]
00000000: 15b5 bebb bc64 223e 5f7b 183e ff05 483e
00000010: c8e1 a03d af7e 92bd 0132 423d e524 c83c
00000020: ac82 393e 87bd 7cbd b5ae 20be 488f c53d
00000030: 4433 67bd a7a0 fc3b 55b6 27be 2ccd 323d
00000040: 64aa 25bd 3597 aabd b205 03be 00fb 7f3d
00000050: f543 083e 8a8b 303e 8135 1bbe 6748 843e
00000060: 7c7c cb3d 7e86 05bd f368 293e 6649 7e3d
00000070: 52bf 99bd b4fd ef3c e820 a7bc 7068 4e3d
00000080: 5703 b8bb 71bb cb3d c53e e1bd ba17 593d
00000090: 6870 dabc 89a8 a93d e79a 97bc 0c51 3abe
000000a0: c04d ecbd c52c 24be 0688 efbd c991 c53d
000000b0: 1c74 cf3d 2fdc 12bd d649 afbd 813e 1ebe
000000c0: 3993 5e3d 07b6 623d c17f 19be 6504 4e3d
000000d0: 42cd e63a 1fd9 903d 73fe 24be 1855 87bb
000000e0: 6410 1b3e 1532 5b3d d08a e5bd 72e0 41be
000000f0: fdeb 2abd cf5b 803d d35c b73d 11a6 453d
00000100: 493a 303e 0a6c 28be 0319 843d daf0 4dbe
00000110: d1c0 883d 1a7d 053c eb44 bdbd 10f4 9bbd
00000120: b801 1b3e 0d49 573e eb6e 303e 9cb1 513e
00000130: aea1 9b3c 014f f6bd a313 1d3e 9592 a13d
00000140: dc0a dc3d 3f93 143e 4c20 453e 5d9c ffbb
00000150: d5cc 87bc 2af1 903b 73e7 6dbb 6587 3cbe
00000160: 3756 0fbd ff51 dbbd 86b5 003e 4880 b63d
00000170: 2453 593e 48f1 c0bc 1e08 e23d 9ee3 27be
00000180: 7b90 c6bd 8dd9 883d fa71 673d 8288 2abe
00000190: e37a 953e 2c0c 60bd 287f 463d 603c bcbc
000001a0: fb0d 803e 89a2 da3c eae1 193e e150 213e
000001b0: 21b1 f43d 4dcf af3d 31d2 243e 237a 893d
000001c0: 729a 5a3d e6d7 51bc 1c5f 293d 3b2d 043e
000001d0: 6d9a 053d 8298 cabc be9b a1bd b9b3 fdbd
000001e0: 69f0 28be 0968 0cbe 92bf d93c cf5e 603e
000001f0: 0459 90bd d8c1 3e3e d7e8 773e ef5f 4e3e
00000200: b688 233d 8df1 453e 71f5 fcbd 7aaa 203e
00000210: ca5a 44bd 0a4a fbbd bb70 5cbd 6cc1 d5bd
00000220: e873 c2bd 8efa a83d c15a b2bd 1fc2 4c3e
00000230: b576 553d 8794 d63d bf47 f73d 5dbd 4b3b
00000240: fc45 543e 7e59 95bd 7773 2fbe dbbe 1a3e
00000250: c9d6 093e e798 293e 0ef6 013e 4bee 50bd
00000260: 484b 213d e75e 95bd 3e8d 05be 2538 aebd
00000270: 4b15 443e 2ee1 833e a067 863c e3c3 9a3d
00000280: 8e8f e8bd 8067 763d e5b4 533e 5122 853e
00000290: 9014 33be 10d9 703d a0de 29be f59f 1b3d
000002a0: 5ad0 d93d 860f 5b3e 95e8 013e 88ab b23d
000002b0: c115 2dbe 9eed 80bd 16c1 8abd 229f 043e
000002c0: c915 c9bd 922e 7fbb 9acb 2dbb d5d0 433e
000002d0: d5e8 a7bd 38d8 583d 7557 863d 1cd8 3ebd
000002e0: 8532 f3bd 0268 cabc 41ab 2b3e 3a20 c13d
000002f0: e337 263e 86f6 4a3d e6ad 51be f414 8ebc
00000300: bec5 c13c 574e 4abe 9a5e 933d faff 1dbe
00000310: b536 26bd 006f 19bd d2f4 ce3d ba53 2ebe
00000320: 012f 2ebe 188f 143d 93e9 14be 7c61 d4bd
00000330: 1dd3 20bd c9b4 05be f032 bd3d 59aa 9f3d
00000340: a7cc 4f3e 0aea a9bc 9ec3 c73c 2e87 78bd
00000350: da6c 5e3d fa77 fc3c 1bc3 25be b4b2 033e
00000360: fe73 a1bc 3b76 36bd f8b9 f53d 0ae9 ee3d
00000370: 793d 13bd b0a1 213e 6d68 593d 9b9c e43d
00000380: c239 2dbe c550 073d 300a f2bd eab6 e73d
00000390: 5da9 ee3d 211e ec3d 6365 e03d 15fe abbd
000003a0: ff89 8fbd cc09 de3d 4233 a53d d79a 34be
000003b0: d8bc 093e 7629 53bd 09f3 bd3d b80d 043e
000003c0: f813 cb3d c559 e5bd db21 cbbd 4f20 3fbe
000003d0: 07ff 523d ebe5 c7bd 7f35 743d 314e 303c
000003e0: 4bb4 05bc 8a66 bbbd 5f5f 133e 42be c5bd
000003f0: 8b4d ef3d 8c26 533d 7c3b 00be 2bf7 0b3e
-0.0058199265 0.1585874 0.14890812 0.19533537 0.07855564 -0.07153069 0.04741097 0.024431655
0.18116254 -0.061704185 -0.15691645 0.09646469 -0.056445375 0.007709581 -0.16378148 0.0436527
-0.0404457 -0.08329622 -0.12795141 0.06249523 0.13307174 0.1724073 -0.15157129 0.2583649
0.09935853 -0.032598965 0.16543941 0.062081717 -0.075071946 0.02929578 -0.020401433 0.050392568
-0.0056156325 0.09947861 -0.109983005 0.053001143 -0.026664928 0.08284099 -0.01850648 -0.1819498
-0.11538267 -0.16032703 -0.11695866 0.09646947 0.10129568 -0.035854515 -0.08559005 -0.15453531
0.05433962 0.055349376 -0.1499014 0.05029716 0.0017608779 0.070726626 -0.1611269 -0.004130017
0.15142971 0.05351456 -0.11208117 -0.18933275 -0.041728962 0.06267511 0.08953252 0.048254076
0.17209734 -0.16447464 0.06450083 -0.20111409 0.06677402 0.008147502 -0.09241661 -0.076149106
0.15137374 0.2102396 0.17229812 0.20477909 0.018997993 -0.120267875 0.15339522 0.078892864
0.10744259 0.14509295 0.19250602 -0.0078006224 -0.016577164 0.0044232802 -0.0036301285 -0.18411024
-0.03499433 -0.10708999 0.12569246 0.089111865 0.21223122 -0.023552552 0.110367045 -0.16395423
-0.09695526 0.066821195 0.05650518 -0.16653636 0.29195318 -0.054699108 0.04846111 -0.022978008
0.25010666 0.02668883 0.15027586 0.15753509 0.11947847 0.08584461 0.16095807 0.06712749
0.053369947 -0.012807822 0.04135047 0.12907879 0.032617975 -0.024730925 -0.078910336 -0.12387795
-0.16497959 -0.13711561 0.026580606 0.21911167 -0.070482284 0.18628633 0.24209915 0.20153783
0.0399253 0.19330426 -0.12351502 0.15690032 -0.047938146 -0.12269981 -0.053818446 -0.10437283
-0.094947636 0.082509145 -0.08708716 0.19995926 0.05211516 0.10477548 0.12074231 0.003108821
0.20729822 -0.0729246 -0.1713389 0.15111868 0.1346084 0.16562234 0.12691519 -0.051008504
0.039378434 -0.07293492 -0.13042161 -0.085068025 0.19148748 0.25757736 0.016406834 0.07556894
-0.11355506 0.0601573 0.20674475 0.26002744 -0.17488313 0.058800757 -0.16588831 0.037994344
0.10635443 0.2139264 0.12686379 0.08724123 -0.1690283 -0.06295322 -0.067751095 0.1295133
-0.09818608 -0.003893767 -0.002651906 0.19122632 -0.08198706 0.052940577 0.0655965 -0.046592817
-0.1187487 -0.024707798 0.16764547 0.09429975 0.16232257 0.04955151 -0.20476493 -0.017343976
0.023653861 -0.19756447 0.07195778 -0.15429679 -0.040579516 -0.037459373 0.101052895 -0.17024127
-0.17010118 0.036269277 -0.14542226 -0.10370156 -0.039263833 -0.13057245 0.09238231 0.07796163
0.20292912 -0.020741481 0.02438527 -0.060675792 0.054303028 0.030818928 -0.16187708 0.12861139
-0.01970863 -0.044546347 0.11998361 0.116655424 -0.035947297 0.15784335 0.053078104 0.111626826
-0.16916564 0.033036012 -0.11818349 0.11314185 0.11653397 0.11529184 0.10956838 -0.08398072
-0.070087425 0.10841712 0.08066417 -0.17637192 0.13450944 -0.051553212 0.09274871 0.12895858
0.09915918 -0.11198763 -0.09918567 -0.18664669 0.051512744 -0.0976065 0.05962133 0.01076083
-0.008160661 -0.09150417 0.1439185 -0.096554294 0.11684712 0.051550433 -0.12522691 0.13668506

hidden_layers.1.bias f4 [10]
00000000: 205f e2bd 16ea 853c 0e55 19be f171 363e
00000010: 0112 1dbc 5498 eb3d 9d25 983d 0b85 2b3e
00000020: e740 3c3d 87f3 f53d
-0.110533 0.016346972 -0.14973852 0.17816903 -0.009586812 0.11503664 0.07429049 0.1674997
0.045960333 0.1200934

output_layers.0.weight f4 [21, 10]
00000000: 5135 9cbe 8f2e 463e 0e25 523e f833 a53e
00000010: f7c3 87be 3f6d 9ebe 5548 aebd c0d7 8bbe
00000020: bbd1 393e 1c67 a03e 7a19 033e a351 46be
00000030: 9731 99be 63f5 98be 07a6 84bc 7a8e 8fbe
00000040: 642b 9cbb e163 133e c454 bcbd d9fd 993c
00000050: 85cc adbd a6cc 5bbe 7729 7b3d a014 183e
00000060: 7d1e a9be 7de1 e63b 0d16 af3c 7052 f5ba
00000070: 36f3 413e 7a4e 86be 7108 61be d84b c23d
00000080: fef5 403d 008d 963e a41d 92be b7d7 41be
00000090: 556a 50bd 2565 04be bb63 9a3e 9c33 213e
000000a0: 9a61 923b 5be3 853e 4b3a 453e 3871 aebe
000000b0: a960 67be 2e34 3f3e 0f8b 0b3e 0523 4c3e
000000c0: aa36 6e3e 1c44 343e 154b 06be cfdb 823e
000000d0: 9661 513e 2b08 23be 3d17 05be 4842 903d
000000e0: 0691 41bd 15e3 99bd 0970 04be fce1 9c3e
000000f0: 8307 c0be 75f6 3fbe 745f f43d a9ea 0bbd
00000100: 2d12 37be 0ceb 2a3d 3636 34be eb8b 88be
00000110: ca38 5b3d 548b a13d b830 9dbb 855d 5cbe
00000120: 522b 61be a76f a4be a83e 1b3e 7cfa 7dbd
00000130: e7ae 403e 3445 25be 3cb5 33bd 7a59 053d
00000140: 2643 56be de2c 1dbe 26af 11bd bd18 29be
00000150: 6b39 17be 37ef e73d 07f0 883e 41e5 61be
00000160: 20a7 573e daa9 9f3e f90a 193e 3cf3 d43c
00000170: 1fea cdbe ac7a 023e 5c10 6dbd 99bb 57be
00000180: 98d8 2dbe ca97 55bd 1432 4abe 303f aebe
00000190: fe97 46be 0520 573c c65a 10be 0653 34be
000001a0: 0dee a93d b2e6 a1be 86ef 743e d8f4 613e
000001b0: e524 da3d f34b ab3c 5e0b a6be eff2 89be
000001c0: 8390 40be 8efc cb3d 57a5 2e3e 2993 8dbd
000001d0: d294 683d ae07 1ebd 3624 f9bd ea92 66bd
000001e0: 1449 f6bd eac3 4c3e aa96 6dbd a3d5 81be
000001f0: 1023 0ebe e489 d83d a88c 873d 102f 3b3d
00000200: 367d 05be b13d 8b3e c04b a5be c183 95be
00000210: 9d4f fd3c 1baa bc3c 45d5 b53c c17a cabc
00000220: 6238 853e f8db 56be 3368 053d adbb af3d
00000230: b4ae 42be 119d 80be 864a 65be 1780 0abc
00000240: ae87 5c3e 1b46 a7be e1ea ecbd 76fc 67be
00000250: f003 653e 8691 8539 2e2b 8bbe 286c 7b3d
00000260: 9cfa 4dbe 81db 41be d6d7 bd3d 53ca e4bc
00000270: f63a 01be 7fb0 083e 322f 853d fcdf d53d
00000280: 9835 9bbd b039 c73c 4247 0fbe d62d 853d
00000290: 5050 6dbd b062 b4be e2ae d5bd 4e75 83be
000002a0: 27b8 fe3d 00a2 1b3d 98d5 84be 28d3 6a3e
000002b0: 101c 393e 3d75 4fbe 45d8 6fbd 725e 8e3e
000002c0: 3a4c 9abd cdc5 9dbe c930 503d e029 3fbe
000002d0: 54cb 8e3d 7341 31be 2d2f 71bd 8cb0 a5be
000002e0: e63c 62be bed1 a03d d415 c6bd f64d 12be
000002f0: 2a74 04be cf02 b13e 174c 3b3e a7de 52be
00000300: 483c 35be 0b53 27bc c528 efbc 4fb4 c8be
00000310: 38f0 6ebe 039e 063e 17de 95be f221 0a3e
00000320: 2fb9 f9bd 4787 8b3e e40b 8a3c 212d 653e
00000330: a23e 92be 2abe 0c3e 8d64 8b3e 9468 d0bd
00000340: 6b04 18be 12d2 6dbe
-0.30509427 0.19353698 0.20521948 0.32266212 -0.26516697 -0.30942723 -0.0850989 -0.27313042
0.18146412 0.31328666 0.12802687 -0.1936708 -0.29920647 -0.29874715 -0.01619245 -0.28038388
-0.0047659148 0.1439357 -0.09195855 0.018797802 -0.08486275 -0.21464786 0.06131884 0.14851618
-0.33031073 0.0070459233 0.02137282 -0.0018716585 0.18940434 -0.26231748 -0.21975876 0.09487122
0.047109596 0.2940445 -0.2853824 -0.18929945 -0.050882656 -0.12929209 0.30154213 0.15742344
0.0044672014 0.2615002 0.19260518 -0.34070754 -0.22595467 0.18672249 0.13627265 0.19935234
0.2326304 0.17604107 -0.13114579 0.25558326 0.20447382 -0.15921085 -0.12997146 0.07043892
-0.047257446 -0.075140156 -0.12933363 0.30641162 -0.3750573 -0.1874636 0.11932269 -0.034159336
-0.17878027 0.041728064 -0.17598805 -0.2666925 0.053520955 0.07887903 -0.0047970675 -0.2152005
-0.21989182 -0.32116434 0.1516062 -0.06200646 0.1881672 -0.1613968 -0.04387401 0.032556035
-0.20924053 -0.15349147 -0.035567425 -0.16513343 -0.14767997 0.113249235 0.26745626 -0.2206011
0.21059847 0.31184274 0.14945592 0.02599489 -0.40217683 0.12742108 -0.05787693 -0.21067657
-0.16977155 -0.05214671 -0.19745666 -0.34032583 -0.19393918 0.013130193 -0.14097127 -0.17609796
0.08297358 -0.3162132 0.23919496 0.22066057 0.10651568 0.020910239 -0.32430547 -0.26943156
-0.18805127 0.0996028 0.1705526 -0.06912834 0.05678255 -0.038581543 -0.1216511 -0.056292452
-0.12025657 0.1999661 -0.058005013 -0.25358304 -0.13880563 0.105731755 0.06618625 0.04569918
-0.13036045 0.27195504 -0.32284355 -0.29202083 0.030921752 0.023030331 0.022196421 -0.024716737
0.2601958 -0.20982349 0.032570075 0.08580718 -0.19011956 -0.25119832 -0.2239171 -0.008453391
0.21536133 -0.32670674 -0.11568237 -0.226549 0.22364783 0.0002547616 -0.2718138 0.061382443
-0.20115131 -0.1893139 0.09269683 -0.027928507 -0.12620148 0.13348578 0.065031424 0.10443112
-0.075785816 0.0243195 -0.13992026 0.06502883 -0.05793792 -0.35231543 -0.10433747 -0.25675434
0.12437468 0.037996292 -0.2594421 0.22932112 0.18077111 -0.20259567 -0.05855586 0.2780643
-0.0753407 -0.30814973 0.050827775 -0.18668318 0.069723755 -0.17310123 -0.05888288 -0.32361257
-0.22093543 0.07852505 -0.09672132 -0.14287552 -0.12934938 0.34572455 0.18290745 -0.20592748
-0.17698777 -0.01021267 -0.029194245 -0.39200065 -0.23333824 0.13146214 -0.29271004 0.13489512
-0.12193524 0.27251646 0.016851373 0.22380497 -0.2856341 0.13744417 0.27225152 -0.10176197
-0.14845435 -0.23224667

output_layers.0.bias f4 [21]
00000000: 7a21 773e fbf1 643e 1105 093e 1764 603e
00000010: 8339 633e 9792 f7bd f270 083e 825a 1d3e
00000020: 4cef 153d 1836 9dbe 6c2c a63d 0cf4 a5be
00000030: bf49 b9be c04e 34bc 59ea 3bbd 944b 6fbe
00000040: 5b34 7c3e 47e9 25bd 8be3 20bd 554f 013d
00000050: 7674 a3bd
0.24133864 0.22357933 0.13380839 0.21913181 0.22189908 -0.12088507 0.13324335 0.15366557
0.036605164 -0.30705333 0.081139416 -0.32412755 -0.36189076 -0.011005104 -0.04587779 -0.23368675
0.24629347 -0.040505674 -0.039279502 0.031569798 -0.079811975
