my_data_and_graph/pretrained/DQN_local_network.pt (torch, 30887 bytes, 7 tensors)

embedding_layers.0.weight f4 [225, 20]
00000000: eaaa bbbe ac05 453f 2c84 a03f b186 823f
00000010: eb14 183f 6942 14bf 8f56 39bf c869 77bd
00000020: 80ad acbe 7f67 89bf fe7d b23f fcf3 4fbf
00000030: b43c 643d eb4a 96bf aea7 a33d 0191 d23e
00000040: bbe0 82be aede 93bf a2b4 a8bd af60 9fbd
00000050: 56c7 dfbe c9d1 bd3f 5653 043e 370b cdbf
00000060: e580 c53f 4bd5 e9be 9bc3 933f c4ef e13e
00000070: cec2 21bf 82e2 bcbe 3d40 963c aecb 513e
00000080: 4ce8 a33f 4d2f ea3f 8e0e 9f3f b409 c83f
00000090: 2688 d93e 7d6d 73c0 17e0 793f 999f 8abf
000000a0: 137c 423f c5fe 24bf 1eec 213e 21ab a83f
000000b0: 3bd9 e23e a5f5 28c0 d6f9 513f a942 7dbf
000000c0: c98e b03e 25fe f23c 7797 0e40 5891 b1bf
000000d0: e9c0 06bf 27fb d0bf befe 05bf fdb8 71bf
000000e0: d597 c03e 8e7e e83e 8162 c9be 2ee7 fcbf
000000f0: ed45 4a3f 664a 00bf 48cd 843f 58d1 91bf
00000100: 5dad d5bf e744 59bf 3aff 893f 300f 073e
00000110: 80e3 5ebf 6ad5 963f 8467 f53e 6f0e dc3e
00000120: 81b3 d83e f0fe 803f 263b 61be fdd9 bc3f
00000130: 46f2 613e d057 593f 434e 54be e252 7ebf
00000140: 5992 b03f f65b 443f 36fd 2ebf 9758 5e3f
00000150: 373b e03e 87e7 9ebe d19e 883e 78b4 e6bf
00000160: bd58 e6be bb75 32bf 148f 04bc 8657 4a3f
00000170: 3984 553f cce4 1b3f 53d7 893f e3a9 f2bd
00000180: 044e 6cbf a25b df3f d288 2a3f 8c77 2ebf
00000190: 32fc 843f 6451 db3f f86f fcbf 51aa 30bf
000001a0: 55c9 7c3d d7f3 473e dc08 533f 8d2f 91bf
000001b0: fb59 07bf 9d23 9abd 7809 4a3f 16b6 1740
000001c0: 1ab4 3b3f 6a52 a2bf 6bd5 e53e cce3 8b3f
000001d0: 17a7 c93d 0595 733d 2fff 553e a80a b53f
000001e0: 9ccc 9abe 1a9b 1cbe 68c2 15bf fc66 b1bf
000001f0: 0e7e a33f 8867 843e 55f5 6a3f 3179 61bf
00000200: ea7d 713f afb6 b33f 0a5c b93e 6446 d6bd
00000210: 827b 89bf f4ba 8b3f 9c7b c1be 332a 983f
00000220: 80d7 cabe a831 ebbe 5693 babe f446 e2be
00000230: 4072 9c3f c202 db3e 93e4 57bf f663 583e
00000240: 450b 84bf cb64 febd 58c1 0240 a56b f93d
00000250: 48c7 df3e bb84 6cbc 0d7d 943e 49b6 a1bf
00000260: 94f4 8b3f 11e4 44bf fe7c 523e 7271 0240
00000270: 970b 953f 4994 a4be 91d2 8fbe 4451 c43f
00000280: b042 9bbf dc09 20bf b8b9 cebe 8ef4 843d
00000290: fcd1 503e 07c2 4cbf a657 da3f a39b 8cbe
000002a0: b8c3 fc3e a517 573f 102d 9c3f 67bb a93d
000002b0: 0902 9b3f fde1 183f 23ec 873e ea56 5e3f
000002c0: 5f8a 2ebf 7007 20bf c3e5 10c0 716d 00bf
000002d0: 99d9 80bf ae05 323f ce2c 943f 8c5e ebbd
000002e0: 77aa b83f 51ab f53e 3fa0 04bf fa0a 4d3f
000002f0: e404 dc3e b16b 9abd c178 dd3e c87f e13f
00000300: 37e7 dd3f 0f9e 91bf 5e74 973e 8a02 3640
00000310: 9658 cb3f 9f52 3ebd 2e4e 41be ec7c 4abf
00000320: 68e7 e03e d301 8fbe 3036 1abf 7913 78bf
00000330: 7f1e d9bb 32d8 88bf 62ea 693d 46c4 9fbd
00000340: a415 853f d94f 88bf eefe a2bc aa92 a63f
00000350: da95 713f 5268 bebe 355d a53f 80c3 343f
00000360: 22f7 1d3f c682 b83f 6632 573f 8062 43c0
00000370: efb1 3f3e 7c24 853d 2b1b 993e 7e24 6fbf
00000380: 1960 493e a148 14bf 3573 0040 5450 4fbf
00000390: 5bfa f23d 6f9e 14bf 8a72 813f 43fb 9fbf
000003a0: 3c2b 533f 7469 0fbf 1bf8 0f3f 0804 1dbe
000003b0: 3bbd e33e 8680 d7be 1e9f 60bf c3b8 b53e
000003c0: f35d 80bf 69e8 2d3f 5d77 a23f f0c0 c7bf
000003d0: 5f62 f8be e9fa cfbe 1c3d d1bf 362e 63be
000003e0: e7a6 9bbf c6cf 7d3e 4595 c53f 7c28 0340
000003f0: dfe9 ad3d ba01 82bf aa26 bebf 485c 3740
-0.36653835 0.7696178 1.2540336 1.0197355 0.5940692 -0.57913834 -0.723977 -0.060403615
-0.3372612 -1.073471 1.39447 -0.81231666 0.055721954 -1.1741613 0.07990967 0.41126254
-0.2556208 -1.1552331 -0.08237578 -0.07782113 -0.4370677 1.4829646 0.12922415 -1.6019047
1.542996 -0.45670542 1.1544069 0.4412824 -0.63187873 -0.36891562 0.018341178 0.20487854
1.2805266 1.8295685 1.2426317 1.5627961 0.42486686 -3.8035576 0.9760756 -1.0829955
0.7597057 -0.6445125 0.15812728 1.3177224 0.4430636 -2.639993 0.82021844 -0.9892984
0.34483936 0.029662201 2.2279947 -1.387248 -0.5263811 -1.6326646 -0.5234183 -0.94422895
0.3761584 0.45409054 -0.39332965 -1.975805 0.7901295 -0.50113523 1.0375147 -1.1392012
-1.6693531 -0.8487076 1.0781014 0.13189387 -0.8706589 1.1783879 0.4793054 0.42979762
0.4232445 1.0077801 -0.2199522 1.4754025 0.22065076 0.84899616 -0.2073298 -0.9934522
1.3794662 0.7670282 -0.6835512 0.8685393 0.43795177 -0.31036016 0.26683667 -1.8023825
-0.44989577 -0.6971089 -0.008090753 0.790398 0.8340488 0.6089599 1.0768837 -0.118488096
-0.9230654 1.7449839 0.6661502 -0.68151164 1.0389464 1.7134213 -1.972167 -0.6900988
0.061715443 0.19526611 0.82435393 -1.1342636 -0.52871674 -0.07526324 0.789207 2.3704886
0.7332169 -1.2681401 0.44889387 1.0928893 0.09846323 0.059468288 0.20898126 1.4143877
-0.3023423 -0.15293542 -0.58499765 -1.3859553 1.2772844 0.25860238 0.91780597 -0.8807555
0.94332755 1.4040126 0.36203033 -0.10462645 -1.0740817 1.0916429 -0.3778962 1.1887878
-0.39617538 -0.45936322 -0.36440533 -0.44194758 1.2222366 0.42775542 -0.8433315 0.21131882
-1.0315939 -0.124215685 2.0430508 0.12178735 0.43706727 -0.014435942 0.29001656 -1.2633754
1.0934014 -0.769105 0.20555493 2.0381742 1.1644162 -0.32144383 -0.28090337 1.53373
-1.2129726 -0.62515044 -0.40376067 0.064919576 0.20392603 -0.7998356 1.7057998 -0.2746249
0.49368072 0.84020454 1.2201252 0.08287697 1.2109996 0.5971983 0.26547346 0.8685137
-0.6817989 -0.6251135 -2.2640235 -0.50166994 -1.0066406 0.69539917 1.1576173 -0.11492643
1.4427022 0.47982267 -0.51807016 0.80094874 0.4297248 -0.07540072 0.4325619 1.7617121
1.7336186 -1.1376361 0.2958097 2.843905 1.5886409 -0.046465512 -0.1887748 -0.79096866
0.4392655 -0.2793108 -0.60238934 -0.9690471 -0.00662595 -1.0690978 0.05710829 -0.07801108
1.0397229 -1.0649368 -0.01989695 1.3013508 0.9436928 -0.37188965 1.291907 0.7061081
0.6170522 1.4414909 0.84061277 -3.052887 0.1872022 0.065010995 0.2990354 -0.9341506
0.19665565 -0.5792332 2.0070317 -0.80981946 0.11864158 -0.5805425 1.011308 -1.2498554
0.82487845 -0.56020284 0.56237954 -0.15333569 0.4448031 -0.42090243 -0.87742794 0.35492525
-1.0028671 0.67932755 1.2692677 -1.5605755 -0.4851255 -0.40621117 -1.6346774 -0.22185597
-1.216031 0.2478629 1.5436178 2.049346 0.08491873 -1.0156777 -1.4855549 2.8650074

hidden_layers.0.weight f4 [30, 66]
00000000: bfbe fdbc 9329 5c3d dbbc a13d e36e 433d
00000010: 5146 8abd 019e 313d bd37 14bd 31e5 a9bd
00000020: 9281 1d3d f34d bb3d a208 9bbd a380 cd3d
00000030: 6a6a 02be 3b11 7b3d 96e2 9f3c b9b8 54bd
00000040: 5c4d 7e3d 3b67 cb3c 243f 3d3c 24b4 b4bd
00000050: e18a 36bd 9a10 533d cbe6 c3bd c575 7a3d
00000060: 5bb6 f6bc 8854 32bd 15f6 47bc 32f2 28bc
00000070: 74e0 a13d b6de 133e 6b37 253e d245 623d
00000080: 4227 bb3d 6853 103e ac7c 673d 0ba5 103e
00000090: 3e34 4bbd 7a46 1f3e 33fd 233d 086b 9f3d
000000a0: 6fe3 6ebd 4bb5 233e e7d1 8dbd 752c 6ebd
000000b0: 2105 8cbd e0d3 543d ff94 05bd 7d7d 7fbd
000000c0: e814 32be 7064 20be 581b e33d 74ca e93d
000000d0: 1dae e5bd d663 0b3e 0f1e a33d ece4 0dbd
000000e0: 5651 45be 0e6f f1b9 2592 1f3e 9d6a c13b
000000f0: 7138 163d 4a41 263c c171 2ebd 34c6 f13d
00000100: 46f2 273e 7649 5bbd c7e7 563c 0387 513b
00000110: 457b afbd fa6c bb3c d163 f2bd 29d0 1cbd
00000120: f97c 2abd 4f39 80bd ee0d 7a3d b0fd cdbd
00000130: dda5 52bd 4083 06be a583 8a3d 0a19 e93c
00000140: 791e fa3b d657 9ebd 7a3c b8bd 1bde a8bc
00000150: 73ce 65bd b083 dbbd 1404 9fbc d454 d53c
00000160: 99cf 9f3d 3a28 643d 6063 87bc 4cc8 25be
00000170: 0813 47bd d8d7 3cbc 394d 5fbc f10e 9e3a
00000180: 258b 91bb 2492 b63d 90c7 013d 0848 1e3d
00000190: 0dbc a5bb 95cf 4e3d afe2 b53d 09b4 da3d
000001a0: 567a 113b b7a8 c9bd 48cc 8cbd 544a 973c
000001b0: ee9c 083e 4e01 133e 003a 23bd 2548 8abd
000001c0: a73f 7ebb 8fcb 6cbd f8c2 1bbe fa09 363d
000001d0: 2b34 efbc 09be 97bd 7935 87bd 40be 063e
000001e0: ed48 2b3e 639e 80bd 2a80 e23b 00b2 b53d
000001f0: 68d1 fcbc d209 6ebd dced 683b 4be7 423d
00000200: c24a 7cbd 6348 d13d fa0b 17bc 8e02 27be
00000210: ef2e af3d 1354 12bb 10a5 22bd 22c3 f63c
00000220: 8d59 f73d 3238 063e 9cf7 ba3d ab19 723d
00000230: e0b9 bfbc a35b ddbd f924 2b3d 2c18 debd
00000240: 90c9 733d 9b89 4ebd 7418 c13d 68dc c83d
00000250: dcba d13c 8777 8dbd dc88 69bd 05ec cb3d
00000260: a2b6 a93b b112 613d eee8 f1bd 21fa 3bbd
00000270: 2fa5 ddbc 8136 b53d ab15 053e 4c38 21bd
00000280: 82ae 8f3d 4934 9ebd 38fb 783d 3e69 97bd
00000290: 53a1 3f3c ef19 9d3c 13a4 dd3d b5c3 ccbd
000002a0: 311a 14bb 177a 50bd 3776 743c a758 0a3b
000002b0: 0dda 05be 0a85 87bd 6010 fcbd 55ef 883c
000002c0: b37b 853c 921c fcbd cf66 053e 8d1b 643d
000002d0: b443 67bd b204 88bd d181 233d 9691 dc3d
000002e0: 4a68 69bd 14a6 89bd 2926 4bbd dfb8 31bd
000002f0: 5aaa 2a3d 48e7 223e a431 8fbd a6c0 dbbd
00000300: edef 6f3d f2a7 0b3d 1cf0 eabd 8d5a b43d
00000310: 21eb 5a3d dbce 783c 9dcb 2cbd fb0f 433c
00000320: c94d b2bd d8a9 3fba ba88 b63d 5bde 333e
00000330: 94e4 4e3e 55d9 0d3e bf92 9b3d db9c 5c3d
00000340: ee6d 993d fdd2 cc3d bf5a fdbc 604b 573e
00000350: f8fb 2a3d 08c1 8abc be3b 403d d5be 883d
00000360: a4fb 54bd 7816 b5bc 537a 223c affd 1b3e
00000370: f1b0 f0bc ab99 fd3c 085d 75bd e1e7 1c3e
00000380: 74b6 73bd ffea 12be de21 bd3b bcaf 1ebe
00000390: 8ca0 2bbe d5a8 21bb 3896 94bd e325 9a3d
000003a0: 56e1 123c c3e7 f33d 38ea 40be 8980 2a3d
000003b0: 45d4 58bd 4ce1 733d 60fa d43d 5b21 913c
000003c0: df27 973d 13d1 11be 941b 203e f5cb 863d
000003d0: 2331 dbbd 5b27 98bb 38d3 6b3d 4593 b03d
000003e0: cdf8 b63d c6f1 72bd d62b debd e584 a8bd
000003f0: 267a 003d fa49 de3d 712f 293d ea4e 85bd
-0.030974744 0.053750586 0.078973494 0.04771317 -0.06751693 0.043363575 -0.03618597 -0.08295668
0.038453646 0.09145727 -0.07570006 0.10034301 -0.12735906 0.06129573 0.019517224 -0.051933978
0.062085494 0.024829498 0.011550698 -0.088234216 -0.04456604 0.051529504 -0.09565505 0.06114747
-0.03011625 -0.043537647 -0.012204667 -0.01031165 0.07904139 0.14440426 0.16134422 0.055242367
0.09138347 0.14094317 0.05651538 0.14125459 -0.04961037 0.15554228 0.04003639 0.077840865
-0.058322366 0.15987127 -0.06924801 -0.058147866 -0.06836916 0.051959872 -0.032612797 -0.062375534
-0.17390788 -0.15663314 0.110892 0.11415568 -0.1121485 0.13612303 0.079647176 -0.034642145
-0.19269308 -0.00046049844 0.15583093 0.005902602 0.03667492 0.010147402 -0.042588953 0.11805382
0.16401014 -0.053536855 0.013116783 0.0031971342 -0.08568434 0.022879113 -0.11835445 -0.038284454
-0.04162309 -0.06260931 0.06104844 -0.10058153 -0.05142771 -0.13136005 0.067633905 0.028454322
0.007633027 -0.07731597 -0.0899591 -0.02061372 -0.05610509 -0.10718477 -0.019411124 0.026041426
0.07803268 0.055702426 -0.016526878 -0.16189688 -0.048602134 -0.011526071 -0.013629251 0.0012058896
-0.004441636 0.08914593 0.03168446 0.038642913 -0.005057818 0.050490934 0.08881127 0.1067887
0.0022198162 -0.09846633 -0.06874901 0.01846806 0.13341114 0.14355966 -0.039850235 -0.06752042
-0.0038795264 -0.057811316 -0.15211093 0.04444311 -0.02919968 -0.07409293 -0.06601996 0.13158512
0.16727038 -0.0628021 0.006912251 0.088718414 -0.030861571 -0.058114834 0.0035542166 0.04758386
-0.061594732 0.10218885 -0.009219164 -0.16309568 0.08553874 -0.0022327944 -0.039708197 0.030122343
0.12077627 0.13107374 0.09129259 0.05910651 -0.023404062 -0.10808494 0.041783307 -0.10844454
0.059518397 -0.0504242 0.09428492 0.09807664 0.025601797 -0.06907564 -0.057015285 0.099571265
0.005179242 0.054949466 -0.11812006 -0.04589284 -0.027056305 0.088482864 0.12996547 -0.03936033
0.070157066 -0.07724816 0.060786456 -0.0739312 0.011696178 0.019177405 0.1082231 -0.09998266
-0.002259862 -0.050897684 0.014920763 0.002110997 -0.13071461 -0.06617172 -0.12307811 0.016715685
0.016294336 -0.12310137 0.130275 0.055690337 -0.05646105 -0.066415206 0.039918724 0.10769956
-0.056984223 -0.0672113 -0.04959694 -0.043389197 0.041666366 0.1590854 -0.0699189 -0.10730104
0.05857842 0.034095712 -0.114715785 0.08806334 0.053446893 0.015186037 -0.04218637 0.0119056655
-0.087062426 -0.00073113805 0.08912797 0.1756529 0.20204383 0.13852437 0.07596349 0.053860527
0.074916705 0.1000118 -0.03092706 0.21024847 0.041744202 -0.016937748 0.046931975 0.06677023
-0.051997796 -0.02210544 0.00991686 0.15233491 -0.029381247 0.030957064 -0.059903175 0.1532283
-0.059500173 -0.14347456 0.0057718595 -0.15496725 -0.16760463 -0.0024667282 -0.072552145 0.075267576
0.008964857 0.119094394 -0.18839347 0.041626487 -0.05293681 0.05954103 0.10399318 0.0177161
0.07380652 -0.14239912 0.1563552 0.065818705 -0.107027315 -0.0046433634 0.05757448 0.086218394
0.08934174 -0.059312604 -0.10848205 -0.082284726 0.03136649 0.10853954 0.04130501 -0.06509192

hidden_layers.0.bias f4 [30]
00000000: 6146 a63d 1275 31bc d76e 97bd 246a 273d
00000010: 181f 0c3d a30a 353c 6a87 863d b841 13bd
00000020: cdc0 acbd 76af 423d 4b76 b63d 9441 f9bd
00000030: 6b23 00bd 526c d13d 2250 523e 15b6 2f3d
00000040: 9ec3 5abb ab96 3ebc 76fa b13d d9a0 ff3d
00000050: 2062 8e3d dac0 fe3d eeb6 403b 5378 8a3c
00000060: 1c4b 1d3d 7c31 fd3d ecb4 c43d 0fc5 ca3d
00000070: 8ea3 2b3d 4b44 323c
0.081188925 -0.010831134 -0.07394188 0.040872708 0.03420934 0.011049899 0.06568797 -0.035951346
-0.08435211 0.047530614 0.08909281 -0.12170711 -0.031283777 0.102257386 0.2053838 0.042898256
-0.0033380757 -0.011632602 0.0869035 0.12481851 0.069523096 0.12439127 0.002940591 0.016903078
0.038401708 0.12362954 0.096048206 0.09900867 0.041904025 0.01088054

hidden_layers.1.weight f4 [10, 30]
00000000: f88a 2a3d b935 0e3e e535 a83d fd5e 5cbe
00000010: eca1 3a3e a91d 353e acbf 2e3e fabf 38be
00000020: ee7e 12be e3cd 39be eb06 7bbe 5795 8abd
00000030: 78c0 b0bd a306 033e fd22 d9bd ad9b 493d
00000040: 20ad 0d3e 3199 87bd b6d7 ea3b 892a c9bd
00000050: d4a2 2e3e eaa5 20bc e8de ea3d 4122 4ebd
00000060: b359 6b3e 3212 253e 7c8b ccbd 27fb 0c3c
00000070: ece6 d33b c4a3 8f3c 43c1 48bd 5ace 8dbd
00000080: 717a b93d ada8 993d 2427 4cbb cd96 093d
00000090: 17b7 673e 6d9e 2dbe d0c6 3a3e b34f 993e
000000a0: 050b 453e ab9b 08bd 2479 f039 1e8e 313e
000000b0: 8725 4e3e 9c4e ad3c 1a02 98bd ed3b 503d
000000c0: 11d2 253d e8c7 81bc 6274 6ebd 5b94 343e
000000d0: 9a4f 96bc 4a1c 623e 45a9 1b3e 7959 8e3e
000000e0: ce28 a4bb e04f b33d 1b7b 753e f62f 703e
000000f0: 2360 8dbd c984 113e 06cb c73d c5db 8e3c
00000100: 7eac d23d cc7e cf3d 9e5d 3d3d a449 1ebe
00000110: 99b9 46bc ddb8 da3c 4192 713e 7cb2 35be
00000120: af85 163e 304f c5bd 717a 123d 54bc 9d3d
00000130: 601c 093d 7a83 b8bc 5e93 d7bd 9b77 27bd
00000140: 4f3e 96bd ae7a 083d dbea 44be cdae 923d
00000150: f803 f6bd 0819 13bd c148 8c3d 4972 1bbe
00000160: 6636 6d3d 1c63 173e a15e a0bd 6245 fcbd
00000170: b9c7 4b3d f053 8ebc d601 2c3e 8a4c 183e
00000180: beb5 c3bd 0d2a 66bd 021a 453e 8628 4b3d
00000190: 103c 6b3e 3898 18be 4423 fcbd 506b 1e3c
000001a0: 0425 903e b891 dcbd 9512 1e3e 3e64 03be
000001b0: 56aa ea3d 04f4 413e 4be2 98bd 77d8 a2bd
000001c0: 28ac d83a 8fb3 a1bd 99e6 153e 8f61 853e
000001d0: f363 153e 97ef 2d3e aa22 20be 863d db3d
000001e0: cd77 273e d7a2 c1bc b571 82be 4e15 793e
000001f0: 9121 383e f7c7 673e eb8a b83d 6d71 683d
00000200: dc1e 25be bc01 fc3d 5a6a d3bc a2e1 1b3c
00000210: 0079 13bd 0a16 03be dee7 8a3d 42ba cb3d
00000220: b118 1b3e 729f 15be 0806 1ebe 7fb7 d2bc
00000230: 4b19 623c 3b45 483e 5eb3 49bb c593 783e
00000240: 80f9 0b3e c805 703e c986 1dbe 1ca1 d5bd
00000250: fd76 893e 959f 313c 60de 9f3d 2085 d73d
00000260: b77f ce3b 5816 d8bd c5aa 04be 39ae 09be
00000270: 9608 063e 8311 73bd 52e6 103e e087 113d
00000280: 0564 38be c29c 8e3d 0efe 8dbd 1c70 08bd
00000290: 0015 d13a 7b6f 2fbe 635c 07be 34e6 dd3d
000002a0: cd78 4cbd 8c0b 333d 7eb7 34be c974 9c3d
000002b0: 8fc7 cfbd cac8 14be 5358 243d 81cc 11be
000002c0: fc38 c83d fc43 013e be14 1f3e 1599 b73d
000002d0: 0c3f 323d db6c 9cbd 873b aa3d e5fe 8c3e
000002e0: 0b0a 663e d09a 5b3e b715 bd3d 425a 023e
000002f0: b6f6 d53d 863f d43b a417 e8bd 3a02 2cbe
00000300: 7b8d c93b 320d 023e 68d9 8a3e 20cd fdbc
00000310: b2ca 8cbd d2d3 b8bd 8772 12be 5bf8 d4bd
00000320: 2bc5 5dbd a804 df3c 0e71 9cbd b008 353e
00000330: 294c 86bc 7bf9 493e 857d 293e 101f 32be
00000340: 8d93 833c d194 7b3e f19d d73d 0d56 8c3d
00000350: 8ca0 1fbe 0fcb bdbd b159 7cbc 52a2 133e
00000360: 2521 1bbe c43e 9ebd f2a4 373d 84ff 643d
00000370: a023 fa3d 948f 973d 6371 bdba 5051 39be
00000380: 877d 2d3e a7c9 3a3c 8790 9b3c b491 273e
00000390: 9a9c 333e 5ec9 043e 56e0 02bc 388f c2bd
000003a0: cea7 063e 9766 b3bd e766 b0bd 8deb 29be
000003b0: 9432 403e b392 133d 2354 5c3d 38b4 cb3b
000003c0: 1ee0 703e 3301 483e 5e15 14be 1f8c 93bc
000003d0: 540c b73d 5c49 1f3d d118 933d 5d2f a5bd
000003e0: 226f 08be 9998 b5bd bade 15bc 90fb 1cbe
000003f0: bf29 35be 1269 16be 742e 323e 8642 653e
0.041636437 0.13887681 0.082134046 -0.2152061 0.18225831 0.17687096 0.17065305 -0.18041983
-0.14306232 -0.18144946 -0.24514358 -0.067667656 -0.086304605 0.127955 -0.106023766 0.04922073
0.13835573 -0.06621016 0.007166828 -0.09822566 0.17054302 -0.009805182 0.11468297 -0.050325636
0.22983436 0.16120222 -0.09987542 0.008604801 0.006466737 0.017534144 -0.049012434 -0.06924124
0.09056557 0.075028755 -0.003115126 0.03359108 0.22628437 -0.16954966 0.18239903 0.29943618
0.19242485 -0.03335158 0.00045866624 0.1733937 0.20131503 0.021155648 -0.07422276 0.0508384
0.040483538 -0.015842393 -0.05821646 0.17634718 -0.018348504 0.22081104 0.1520129 0.27802637
-0.005009747 0.08755469 0.23972742 0.23455796 -0.06903102 0.1421081 0.097555205 0.017438779
0.102868065 0.101316065 0.04623186 -0.15457779 -0.012129211 0.026699478 0.23590948 -0.17743868
0.14699434 -0.096342444 0.0357613 0.07701936 0.033474326 -0.02252363 -0.10526155 -0.04088555
-0.07336103 0.03332012 -0.19230215 0.07162247 -0.12012476 -0.035912544 0.06849814 -0.15180315
0.057913207 0.14783901 -0.07830549 -0.12317921 0.049751017 -0.017374009 0.16797575 0.14872947
-0.09556149 -0.056192447 0.19248202 0.049599193 0.22972131 -0.14901817 -0.12311414 0.00966914
0.2815324 -0.10769981 0.15436776 -0.12831208 0.1145827 0.18940741 -0.07465037 -0.07951444
0.0016530799 -0.07895576 0.14638747 0.26050994 0.14588909 0.16985928 -0.15638223 0.10705094
0.16354294 -0.023637218 -0.25477377 0.24324533 0.17981555 0.22634874 0.090108715 0.056748796
-0.16125053 0.12305018 -0.025807548 0.009514244 -0.036004066 -0.12801376 0.067825064 0.09947635
0.15146138 -0.14611605 -0.15431988 -0.025722263 0.013799976 0.1955766 -0.0030777077 0.2427512
0.13669395 0.23439705 -0.15383448 -0.1043112 0.26848593 0.01084127 0.078060865 0.105234385
0.006301846 -0.10551137 -0.12955768 -0.13445367 0.13089213 -0.059342872 0.1415036 0.03552997
-0.18006904 0.06963493 -0.06933223 -0.03331004 0.0015951693 -0.1713237 -0.13218836 0.108349234
-0.049919892 0.043712184 -0.17648122 0.076394625 -0.10145485 -0.1452972 0.040123295 -0.14238168
0.09776494 0.1262359 0.15535256 0.08964745 0.043517157 -0.0763795 0.08312135 0.2753822
0.22464769 0.21445775 0.092326574 0.12729743 0.10447447 0.006477299 -0.11332634 -0.16797724
0.006150899 0.12700346 0.27118993 -0.0309816 -0.068745986 -0.090247765 -0.14301501 -0.103989325
-0.054143112 0.0272239 -0.07638751 0.17679095 -0.016393738 0.19724075 0.16551788 -0.17394662
0.016061569 0.24568488 0.10528172 0.068523504 -0.15588588 -0.09267246 -0.0154022435 0.14417389
-0.15149362 -0.07726815 0.04483504 0.05590774 0.12213826 0.07400432 -0.0014453348 -0.18097425
0.16942416 0.011400617 0.018989814 0.16364175 0.17540208 0.1296744 -0.007988056 -0.09499973
0.1314995 -0.08759802 -0.08613377 -0.16593762 0.18769294 0.036028575 0.053791177 0.006216552
0.23522994 0.19531707 -0.14461276 -0.01801115 0.08937898 0.03888832 0.07182468 -0.080656745
-0.13323644 -0.08866996 -0.00914734 -0.15330338 -0.17691706 -0.14688519 0.17400533 0.22388658

hidden_layers.1.bias f4 [10]
00000000: 3185 2e3d 59f5 87bd 899e bcbd 2d2c 41bd
00000010: 6d12 6c3e 3ccb 91bd 471b 6f3e 9db2 013e
00000020: 35b6 f8bd 540e d53d
0.04260749 -0.06638593 -0.09209926 -0.04716127 0.23053904 -0.07118842 0.23350249 0.12665792
-0.12144128 0.104031235

output_layers.0.weight f4 [21, 10]
00000000: ecd0 c0be 632f 05be d55c 383d fb5f 853e
00000010: 400d bfbe fa6a 62be 8d64 80be 1796 643e
00000020: 5ce5 4dbe 4bcf 1fbe 94b9 9b3d cd74 48be
00000030: 9f6b 26be 3ea9 bbbe 6270 7dbd 27b8 a3bd
00000040: 27bd f33d 0dce 063e cbe8 2f3e 3fee 25be
00000050: 30e5 8fbe 6320 69be ecb5 963d a227 c43d
00000060: a743 41be 73d5 06be 5e39 fbbd 0af8 adbe
00000070: ad79 8abd 469f 1abe 7a0e 5c3e bca0 88be
00000080: e917 31be 85bb 1cbe 0595 afbe 2aa1 25be
00000090: 91b5 2c3d f2b7 4fbe 9a23 3a3e 4733 c2be
000000a0: c84a 7fbb e0ba 753e 4931 35bd e9c1 47be
000000b0: ae59 50be 84c6 933e c347 90be f6ef cfbd
000000c0: 4b07 83be 4732 91be a7ae e3bd b3de f03d
000000d0: 3f04 753d 9140 a4be 45d3 39be 2914 393d
000000e0: 28a7 06be c24d 643e f1a1 a5bc be43 6ebc
000000f0: 50fb ebbd dc06 a6be 4cb9 adbd 0e2e 8fbe
00000100: c7c4 03be 63e6 77be 568d f13d 97bd a2be
00000110: 2d8f b83d c51d 303e 5037 293e 5838 2439
00000120: cf95 87be 1769 6a3b 4818 22be f65b 5fbe
00000130: b48a 78be 89d0 9cbe 8622 c6be dd10 a1bd
00000140: 8594 95be 1896 adbd 3cfa 823e 8c35 8bbe
00000150: e021 4fbe a03d 153e 930b 62be 849e c2bc
00000160: e8c3 63bc 4990 ea3d 24d5 14be 17e0 32be
00000170: 44e2 53be a0e2 56be 1853 0c3e 7d73 863e
00000180: 2a8f 7ebe 01c2 80be 96fb 6fbe 691c 01be
00000190: 6761 aabe f741 97be 2188 80be d087 853d
000001a0: 2097 d73c 7565 ab3d be6f c9be 10aa e93d
000001b0: d5bb d33c 13cc 1c3e dc2a 66be 23c5 d7bd
000001c0: 192c 813c e4c4 4abd c46b 61be e148 603e
000001d0: 91e4 c7be 3000 48be 22ed e83d 22ae b1bd
000001e0: d38c c8be 2d8e 573e 60e4 573e fb5d 8fbe
000001f0: cd19 0cbe 4311 2dbe 01e3 5dbe 3f94 32be
00000200: d332 20bc 8ab1 aebe dc5e 083c 3fa4 7fbe
00000210: 2bdb 3dbe 1587 76bd fc55 763d 1225 9e3e
00000220: 4722 29bd 3f32 8fbe 8158 97be e3c9 acbe
00000230: ebb3 3a3e e363 babe 9b37 d13d c9ea b3bd
00000240: b75e 9ebe 72b7 65bd 9a5b 1d3e 9271 9abe
00000250: beae 96be 6f05 e33d 30cc 77be bf3b a5be
00000260: 841c 693d c198 79be cf99 0e3e 869d 5b3e
00000270: 4811 cb3d 618c 70be 7d86 b4be 6af6 9ebe
00000280: 4c68 aebd bcc5 0e3d 05dd 983d eb90 98be
00000290: 217b c33d 3633 143d 172c 00be 3258 923d
000002a0: 7db2 a8be b3f4 11be 8376 7a3d e9bc 183e
000002b0: ced4 d3bc 403e d6be effc 84be 4f12 ad3d
000002c0: a26e d2be 1135 0d3e a9df b03d 0f89 113e
000002d0: cdfb 763d 74a1 c93d 39c4 ed3d e628 a7be
000002e0: e178 b8be 17ff 1e3e f6c9 15bc 51e4 6f3e
000002f0: 4a64 a8be 9618 1ebd 9dcd 65bd 9c2f 0cbd
00000300: cc20 70be 1492 8d3c 961c 93be 5243 373e
00000310: dab5 2cbe 765a f7bd c7b7 51bd 0818 cdbd
00000320: b748 4a3e ac1c 9cbe 074c c9bd 5a09 03bd
00000330: 42c8 fa3d 2f08 9c3e a500 a0be 3504 803e
00000340: 892a 4e3c f142 97be
-0.37659395 -0.13006358 0.045010407 0.2604979 -0.37314796 -0.22111121 -0.25076714 0.2232288
-0.20107025 -0.1560642 0.076037556 -0.19575806 -0.16251992 -0.3665256 -0.061874755 -0.07994109
0.11901312 0.1316454 0.17178647 -0.16204165 -0.28104544 -0.22766261 0.073589176 0.09577872
-0.18873464 -0.13167362 -0.12266801 -0.339783 -0.06761489 -0.1509982 0.21489897 -0.2668513
-0.17294277 -0.15305908 -0.3429338 -0.1617476 0.042165343 -0.20285013 0.18177643 -0.37929747
-0.0038954485 0.23997068 -0.044236455 -0.19507565 -0.2034671 0.28862393 -0.2817975 -0.10153191
-0.25591502 -0.2835867 -0.11117297 0.117612265 0.059818503 -0.3208051 -0.18146999 0.04518524
-0.13149703 0.22295287 -0.020218821 -0.014542518 -0.115225434 -0.32427108 -0.08482608 -0.27964824
-0.12868033 -0.2420898 0.11794536 -0.3178527 0.090116836 0.17198856 0.16525006 0.00015661248
-0.26481482 0.0035768205 -0.15829575 -0.21812424 -0.24271661 -0.3062785 -0.38698214 -0.078645445
-0.29214874 -0.08475894 0.2558154 -0.2718929 -0.20227766 0.1457429 -0.22074728 -0.023757227
-0.013901688 0.114533015 -0.14534432 -0.17468296 -0.20691782 -0.20984888 0.13703573 0.26259986
-0.248593 -0.25148013 -0.23435816 -0.12608494 -0.33277437 -0.29542515 -0.25103858 0.06520045
0.02631718 0.08368961 -0.39343065 0.1140939 0.025846401 0.15312223 -0.22477287 -0.10535648
0.015768098 -0.049504176 -0.22013766 0.21902801 -0.3904157 -0.19531322 0.113733545 -0.08675791
-0.3916994 0.2105033 0.21083212 -0.2800139 -0.13681717 -0.16901116 -0.21668626 -0.17439364
-0.009777742 -0.34119827 0.0083233975 -0.24964999 -0.18540637 -0.060187418 0.060140595 0.30887657
-0.041292455 -0.27968022 -0.2955971 -0.33747777 0.18232696 -0.36404333 0.10215684 -0.08785016
-0.30931637 -0.05608315 0.15366974 -0.30164772 -0.29430193 0.11085021 -0.24198985 -0.32272145
0.05691196 -0.24374677 0.13925861 0.21446809 0.099154055 -0.2349105 -0.35258856 -0.31047374
-0.08515987 0.034856543 0.07464031 -0.29798064 0.09544969 0.03618165 -0.12516819 0.07145728
-0.32948676 -0.14253502 0.061148178 0.14915814 -0.02585831 -0.41844368 -0.25974223 0.08450758
-0.4110003 0.13789774 0.0863641 0.1421244 0.06029873 0.09845248 0.11609692 -0.3264839
-0.36029723 0.15526997 -0.0091423895 0.2342694 -0.32889014 -0.038597666 -0.05610429 -0.03422509
-0.23450011 0.01728157 -0.28732747 0.17896774 -0.16866246 -0.12077801 -0.051200654 -0.10014349
0.19754301 -0.30490625 -0.09828954 -0.03199134 0.122452274 0.30474994 -0.31250492 0.2500321
0.012583383 -0.2954326

output_layers.0.bias f4 [21]
00000000: 5a76 6b3e bfbd bcbe c795 67bd a8d9 16bd
00000010: fcaf 1bbd a7ed 9ebe f465 0bbe d31d 4a3e
00000020: 37f1 9fbe 2665 debd 1be6 28be c712 843e
00000030: 3935 8f3d 838e b5be 81e4 15bd 3496 fc3d
00000040: 7d12 90be 84a2 423d 6714 a13c b1c5 cd3d
00000050: bce8 fb3c
0.22994366 -0.36863515 -0.056539323 -0.036828667 -0.03800963 -0.3104069 -0.13613111 0.1973794
-0.3123872 -0.10859136 -0.16494028 0.25795576 0.06992573 -0.3546029 -0.03659487 0.123333365
-0.28139105 0.04751827 0.019663049 0.10047472 0.030750625
