my_data_and_graph/pretrained/Dueling DDQN_local_network.pt (torch, 30887 bytes, 7 tensors)

embedding_layers.0.weight f4 [225, 20]
00000000: 2578 c9be 4c54 903f 7bdf 093f c46c c1bf
00000010: d339 e4bf 5629 f53d 7def 153e 6fa6 bfbe
00000020: 1e5e d43e 2cde 9ebe a9e0 afbe bdee 553f
00000030: 248b 47bf a0d8 a9bf a67e 59bf 04f9 0940
00000040: 7c29 a2bf f839 4fbf 3c52 f4be 7f1a c13e
00000050: 06f2 06bf 25e0 d03d bc23 933e bc63 eb3e
00000060: 9321 853e 91ef a03e cca5 b8bf dd04 be3f
00000070: df44 f8bf bb14 5140 0e7c 25bf 3cbd 36bb
00000080: 2298 d1be 4662 0fc0 b1bc 15bd e267 3740
00000090: 9de1 e5be e8ac 5abf 6732 9f3e d7f5 e1bd
000000a0: 41ca b03e 60ee b23f bb59 d23e 342f 953f
000000b0: 9b7e b13f d436 2cbe eb5d 0ebe 746c b13f
000000c0: 6067 a83e 92e2 543f d745 1fbf 230b a03e
000000d0: ec11 bc3f a3a4 0a3f f38e 36bd d05e 32bf
000000e0: 48fb 9cbe bae7 923f a654 debf d959 ed3e
000000f0: 234b 6c3e 30a1 dd3f 3499 a43f d060 19bf
00000100: 3521 cc3e 7638 67c0 5160 113f 695a 193f
00000110: 6e69 913f 6d8f a4bf 7085 f83d c067 1abf
00000120: 4fa5 9e3e 347b 503f 6c37 db3e eb73 033e
00000130: 9f4c 23c0 5238 853e b27f 1440 a73c 1abf
00000140: 9bce ebbf 62e3 e33e 3351 c6be 30c5 463e
00000150: 28ab 8e3f 564c 613e 34af 083f b709 2a3d
00000160: b607 a83f c364 b6bf e2cb d7be 1592 9d3d
00000170: dae4 95bf ae8e be3d 1020 53bd b7e1 8abf
00000180: 8fde 77bf 1dbc 263f dc7a 90bf 9902 1e40
00000190: 5412 ea3e c1e9 76bf c0d0 e13d d5cc 3a3e
000001a0: 1f3d f53e 5ecf 9bbf 32e0 413f cdc2 e13e
000001b0: 08a6 4ebf 7016 09bf 0ada 1340 0ba1 2340
000001c0: 1e38 a0bf 2b36 cd3f 4927 213d 5558 f2be
000001d0: 853c 6f3f 1dc1 9ebf 8f64 f7be 43b4 81be
000001e0: db0a debe d994 553e 8e39 3fbf 1a03 68be
000001f0: cb19 f6bf a5ec 48bf 2aa2 cf3e 6d3a b7bf
00000200: 33fd 76bf 89c3 46bf 6592 b53f d806 b8be
00000210: 5d01 9bbf afe0 85bd 8b34 f03f 75c0 2dbf
00000220: 0795 0f3f 6629 8bbf 5668 a2be 33a7 503d
00000230: d739 0d3e d99d a73f 6065 433f 54c8 473f
00000240: 064d e8bf d9e2 993f 20d7 0f3f c5db 0fbf
00000250: 9f78 523f a374 32bf 6633 03c0 03fb c0bf
00000260: 6434 19bf 5f86 dbbe f16b acbe 8c2b f3bd
00000270: f375 9abf 9725 23bf 1bf3 8cbe 6324 b8bf
00000280: e3e4 353f 8981 873c 78ac 79bd 378a c0bf
00000290: 46a2 903e 5bd9 263f 12d3 c3be 197a 653d
000002a0: e3d4 61bf d6ce d73f 3fdc 303c c2c0 21bf
000002b0: ddc8 b33f b7db c7bf a8d5 e23e 1ae3 13bf
000002c0: 07b0 ecbb 8206 34bf e088 483f 88be 423e
000002d0: 7400 3fbe a363 ed3f 6545 b0bf 2f8e 06bf
000002e0: 0801 bd3d fc3e c73f ac80 babf ec89 50be
000002f0: 017a 7bbf a26e cd3e d020 83bf da5a 603f
00000300: b41b c3be 707e ce3f afe8 d53e b71c 153f
00000310: 7af4 073f a2bd e93e 8754 32be 804b 0bbe
00000320: c313 213f 263d 943e ba52 b4be 2d09 843f
00000330: 0485 e63f 19e3 c33e 5f6c 1f40 9522 ba3d
00000340: 075d dcbd ef7b 10bf 7d60 373f 9fb7 65bf
00000350: 8639 16c0 377c bdbd 5696 6b3f 260b fb3e
00000360: f64c ecbe 3fe9 5a3f f766 0c3f 4ae1 253f
00000370: 265e 88bf 2df5 0740 a949 2cbf 31e4 8cbf
00000380: a7e2 85bf 194f 5e3f f51b f0be c053 183f
00000390: 4c06 393e 6471 c33f 4cc4 823f b522 28be
000003a0: e56d 893d 5015 d6be ce45 c7be 7ff7 babf
000003b0: 0bad 9abf 46f4 95bf dd34 b03d bb77 10bf
000003c0: ff53 0cbe 3979 863d 3e05 bb3a f796 113f
000003d0: b6d9 f63b b172 393f c2c8 5cbe e566 d83f
000003e0: 8889 1fc0 a49b cbbf d8d8 86bf 311d 403f
000003f0: ad34 cebe 5f80 80bf 2208 23bf a54b efbf
-0.39349476 1.1275725 0.5385663 -1.5111318 -1.7830147 0.11970775 0.14642139 -0.37431666
0.41478056 -0.3102888 -0.3435109 0.8356741 -0.77946687 -1.3269234 -0.84958875 2.1558237
-1.266891 -0.8094783 -0.4771899 0.37715527 -0.5271305 0.10199002 0.287382 0.4597453
0.26002178 0.31432775 -1.4425597 1.4845234 -1.9396018 3.2668903 -0.6464242 -0.0027883789
-0.4093638 -2.2403731 -0.036556903 2.8657155 -0.44898692 -0.85420084 0.3109314 -0.11033218
0.34529307 1.3978996 0.41084084 1.165503 1.3866762 -0.1681779 -0.13903014 1.3861222
0.3289137 0.8315822 -0.6221594 0.31258497 1.4692969 0.54157466 -0.04456992 -0.6967592
-0.30660462 1.1476967 -1.7369583 0.4635761 0.23075537 1.7314816 1.2859254 -0.5991335
0.39869085 -3.612821 0.5678759 0.5990358 1.13603 -1.285627 0.12134826 -0.6031456
0.30985495 0.81437993 0.4281572 0.12837188 -2.5515516 0.2601953 2.320294 -0.602488
-1.8422426 0.44509417 -0.38733825 0.19411159 1.1145983 0.22001776 0.5339234 0.04151317
1.3127353 -1.42495 -0.42147738 0.076938786 -1.1710465 0.09304558 -0.05154425 -1.0850133
-0.9682397 0.6513079 -1.1287494 2.4689085 0.45717108 -0.9645043 0.11026144 0.182422
0.47898194 -1.2172658 0.7573272 0.44093934 -0.80722094 -0.5354986 2.310183 2.5567043
-1.2517126 1.6032156 0.039344106 -0.47333017 0.9345172 -1.2402683 -0.48318908 -0.2533284
-0.43367657 0.20857562 -0.74697196 -0.22657433 -1.9226621 -0.7848609 0.4055341 -1.4314705
-0.964801 -0.7764211 1.4185301 -0.3594272 -1.2109791 -0.065369956 1.8766035 -0.6787179
0.5608677 -1.0872009 -0.31720227 0.050940704 0.13791595 1.3095046 0.7632656 0.7804005
-1.8148506 1.2022353 0.5618763 -0.56194717 0.82215303 -0.69709224 -2.050012 -1.5076603
-0.59845567 -0.42875955 -0.33676103 -0.1187354 -1.2067245 -0.6372923 -0.27529225 -1.4386104
0.7105238 0.01654126 -0.060955495 -1.504218 0.28248805 0.6517541 -0.3824697 0.056024645
-0.88215464 1.6859996 0.010794698 -0.6318475 1.4045674 -1.5613927 0.44303632 -0.57768404
-0.0072231325 -0.7032243 0.78333855 0.19017994 -0.18652517 1.8546032 -1.3771178 -0.52560705
0.09228712 1.5566096 -1.4570518 -0.20365113 -0.9823304 0.4012347 -1.0244389 0.8763863
-0.38107073 1.6132336 0.41779086 0.5824694 0.53107417 0.4565249 -0.17415057 -0.1360302
0.6292078 0.28952903 -0.35219365 1.03153 1.8009343 0.382592 2.4909894 0.09088627
-0.10759931 -0.5643911 0.71631604 -0.8973331 -2.347261 -0.09252208 0.9202627 0.49031943
-0.46152467 0.85512155 0.5484461 0.6479689 -1.0653732 2.1243393 -0.67299896 -1.1007138
-1.0459794 0.86839443 -0.4689633 0.5950279 0.18068808 1.5268979 1.0216155 -0.1641949
0.06710414 -0.41813135 -0.38920444 -1.460678 -1.2084059 -1.1715171 0.08603833 -0.56432694
-0.13703917 0.0656609 0.001426853 0.5687098 0.0075332774 0.7244063 -0.21560958 1.6906401
-2.4927692 -1.5906873 -1.0534925 0.7504454 -0.40274563 -1.0039176 -0.63684285 -1.869496

hidden_layers.0.weight f4 [30, 66]
00000000: 0abf a93c c892 88bd cb83 783d ce1c e5bc
00000010: 19a1 99bc 175d fa3d e3fd 963d accc 0dbd
00000020: e6e4 27bb a647 a63d fa87 aa3d 61fb 1ebd
00000030: a72c 143d 1e97 d53d af04 dfbd 0272 883d
00000040: 2cbf c0bb 63c5 bf3d 13e0 92bd 7fee 003c
00000050: 410c 9b3c a0ac c33c 4d65 c6bd df8d d1bd
00000060: 0227 b23c 0f3a 363b 17db b73c 0d35 013e
00000070: 88fd 0d3e f0f5 9ebd 5ff0 afbc 03c2 603d
00000080: 2c61 66bd 896d 10bd b9ad c43c 3931 143e
00000090: faa6 133e fb7e a9bc 6e2d 0f3e 46c3 d0bb
000000a0: 1f68 0a3e 8902 3fbd c932 373b c1b8 7c3d
000000b0: 012a babd a207 2b3c 3655 dc3c 6655 f2bb
000000c0: 37c0 c03d 72ee b2bd 229b 2b3c 23c6 de3d
000000d0: ad0e debd 1b93 f93d 764a ce3d 1c50 12bd
000000e0: faf8 8e3d 64d5 033e d19f 923b d22f 833d
000000f0: e3bb eebd 47c4 65be 473d 1fbe 27e5 a53b
00000100: bfed e2bb f92c bb3d 7605 d93d cd43 0c3e
00000110: ee1d 9a3d 5c27 103e dc63 75bc 3667 9e3d
00000120: c03f e93d a699 98bd f182 f83d 0139 a23d
00000130: 8cc8 e6bc b674 4c3d 79ac b2bc 2ea0 2fbd
00000140: 55db b23d 1071 d63d da89 9ebd 7d50 743c
00000150: 44ac 21bd 32ce 93bd 8d7b a43d 8e1d 503d
00000160: 3be0 41bd 3aa9 86bd dde8 523c 750a 20bd
00000170: f914 403d cb9d f9bc ba28 e03d f64b af3d
00000180: d380 80bc 0a97 443d d59a c1bb ceac e3bd
00000190: d67d ea3d 2457 0b3e 4e65 0ebd 49b5 7c3d
000001a0: de5b 113e 6af1 f93b 1fa8 ff3d fcfa 083e
000001b0: 11d0 033e 7261 bb3c 5ef0 a8bd 6a84 c03d
000001c0: 57a3 d93d 8606 f5bb d750 3d3d c2f3 5fbc
000001d0: 73c0 d63d e64d 34bd 6efb f63c 4e58 f63d
000001e0: d894 6c3b 5327 e2bb 9a28 e5bc 731f 553d
000001f0: c3eb 21bd 44a5 b9bc ecac 393e 4872 4b3d
00000200: 9f0b b5bd 6942 bd3d 6728 1fbe 5737 f1bc
00000210: 53f0 de3d d2ee 223d 56cc f33d 03ad 973b
00000220: 28e4 c03d 6b52 da3d 960d 503e c7c1 a53c
00000230: 1556 643c 7fd0 15bd 40bf 483e ff52 213e
00000240: 9ddd 22bb cb3f 993c 7c0e 93ba 98d4 c43c
00000250: 4a26 b73d b96f 2c3e 7b24 1abc 1c64 0f3e
00000260: cf50 6e3d d5e4 0a3d b20a a73c 82fa 1c3e
00000270: b1e0 ff3d 10b1 723e 3ea1 0bbe 1b86 4abe
00000280: 95dd 923d 47b8 f7bc 79f6 8bbd d4b3 003e
00000290: 4652 9cbd 8993 2fbd 53fa 10be 8914 75bd
000002a0: 7f60 c1bd 1268 aabd 49a8 c03d f956 593d
000002b0: e10d 8e3d 6b15 dbbd ca6e 2c3d 9be0 833d
000002c0: 43d8 303d 32c3 0dbe 6301 28bd 817a 8a3d
000002d0: f76f 023c 79df 373d e830 ccbd 5307 ff3c
000002e0: cb38 9ebb 661f 9dbd e403 c4bc 1ebb ca3c
000002f0: eba2 1abe 9a89 75bd 1664 65bb dd57 d3bc
00000300: 5696 b1bd 9d8d 3fbc 793c f8bb 6056 c0bd
00000310: 5b3b 1cbd b6c8 9abc fa1f 503d 1899 253d
00000320: 0401 f8ba 7786 423e a6ec 133d 26a2 b93d
00000330: 29fb 433e 6efc 5c3d ef86 6cbd c4a7 1b3e
00000340: 2a5f 20bd 64fd 5d3d b5af 3b3c a15c ba3c
00000350: 5b15 56bd de6a 153e 8c03 bf3d 7e6c a33d
00000360: 69ce 453e 029b 34ba b5c1 1e3e 6147 913d
00000370: 9f9b f73d fee0 ca3d d568 443e 7987 d7ba
00000380: 38ad 003d 2f0b 123e 207d 1cbd a863 8abd
00000390: bdde 14bd cbbd 4fbd 5812 73bd f05d 993d
000003a0: 0146 0f3e 3e1e acbd f7e2 1a3e 952e 2b3b
000003b0: e210 e1bc 7acd c93d f3ab 113e b617 003e
000003c0: ecfe fc3c 7384 62bd cbc8 933d afef b8bd
000003d0: 5931 32bd 4362 e0bc 5988 e8bd e0bc c83d
000003e0: b9d6 68bd fef9 903c fbb9 053e 0c6e 543b
000003f0: 66cb dcbc 9ccf bcbd 7205 163e e1d7 9c3c
0.020720977 -0.06668621 0.060672563 -0.027967837 -0.018753575 0.12224787 0.07372644 -0.03461902
-0.0025618612 0.081191346 0.08326717 -0.038813952 0.036175396 0.10429214 -0.10889565 0.0666237
-0.0058821645 0.093638204 -0.07171645 0.007869362 0.018926742 0.023886025 -0.0968729 -0.10232138
0.021747116 0.0027805602 0.022443337 0.12617894 0.13866246 -0.077617526 -0.021476923 0.054872524
-0.056245014 -0.03526071 0.024008619 0.14471902 0.14419165 -0.020690432 0.13982174 -0.0063709347
0.13516282 -0.046633277 0.0027953854 0.061699633 -0.09090043 0.0104388315 0.0268961 -0.007395434
0.09411662 -0.08736886 0.010473998 0.10877635 -0.10842643 0.12186261 0.10072796 -0.03572093
0.06981082 0.12874371 0.004474618 0.064056054 -0.1165693 -0.22438155 -0.15550719 0.0050627175
-0.006925314 0.09139437 0.10596745 0.13697739 0.0752524 0.14077514 -0.014977422 0.0773453
0.113891125 -0.07451181 0.1213435 0.07921029 -0.0281718 0.04991599 -0.021810757 -0.04287737
0.087332405 0.10470784 -0.07741137 0.014911768 -0.039470926 -0.07217063 0.08031378 0.050809436
-0.047332983 -0.06575246 0.012872902 -0.039072473 0.046895 -0.03047075 0.10945268 0.0855941
-0.015686428 0.047995605 -0.00590835 -0.11116944 0.114497826 0.1360746 -0.03476458 0.061696324
0.14195201 0.0076276558 0.124832384 0.13376993 0.1287234 0.022873614 -0.082489714 0.09400256
0.10626858 -0.0074775843 0.046219673 -0.013668956 0.104859255 -0.044019602 0.030149188 0.120285615
0.003609946 -0.0069016605 -0.027973462 0.052031945 -0.03953148 -0.022661813 0.1813237 0.049669534
-0.08840107 0.09241182 -0.15542756 -0.029445333 0.10885682 0.039778538 0.11904208 0.004628779
0.09418517 0.10660251 0.20317683 0.020234002 0.013936539 -0.03657579 0.19604206 0.15754317
-0.002485133 0.018707177 -0.0011219527 0.024027154 0.0894285 0.16839494 -0.009408112 0.14003032
0.058182534 0.033909637 0.020390842 0.15329936 0.12494028 0.23700356 -0.13635728 -0.1977772
0.0717117 -0.030239237 -0.0683412 0.12568599 -0.0763288 -0.04286531 -0.14157991 -0.059834037
-0.09442233 -0.08320631 0.09407098 0.05306146 0.06936241 -0.106974445 0.042097844 0.064393245
0.043174993 -0.13843992 -0.041016947 0.06761647 0.007961265 0.044890855 -0.099702656 0.031131422
-0.0048285476 -0.076720044 -0.023927636 0.024747428 -0.15101211 -0.05994568 -0.0035002283 -0.025798732
-0.086712524 -0.011691478 -0.0075755683 -0.09391475 -0.038142543 -0.018894535 0.050811745 0.040429205
-0.0018921201 0.18996607 0.036114357 0.090641305 0.19138779 0.053951673 -0.05774587 0.15200716
-0.039153256 0.05419673 0.011455466 0.022749247 -0.05226646 0.14591548 0.093268484 0.079796776
0.1931702 -0.0006889553 0.15503581 0.070936926 0.12090229 0.09906195 0.19180615 -0.0016443572
0.031415194 0.14262079 -0.038205266 -0.06757289 -0.036345232 -0.05071811 -0.059343666 0.0748862
0.13991548 -0.08404206 0.15125643 0.0026120294 -0.02747387 0.09853645 0.1422575 0.12509045
0.030883275 -0.055302095 0.072160326 -0.09030091 -0.043504093 -0.027390605 -0.11354131 0.0980165
-0.0568454 0.01769733 0.13059227 0.0032414226 -0.026952457 -0.09219286 0.14650515 0.019145908

hidden_layers.0.bias f4 [30]
00000000: 4d5b 1f3d 3457 4abd e48b 883d c049 123c
00000010: b790 e8bd f097 dcbd 7211 1f3c 2f4b c93d
00000020: 8489 4abd 6ee7 5d3c 15c1 a8bd 5381 8e3d
00000030: 0369 bd3d 614f e43c 94df 59bc 56eb 103c
00000040: 6bb4 a8bd b8a9 c1bb 0f78 003e 58ad c23d
00000050: dbd8 943d e3df 2a3d 2122 383d 699c 61bd
00000060: f61d a83d 07ce 0a3e 6f2a a73d f0fb ac3d
00000070: 60e1 c9bd f8ac a1bd
0.03890543 -0.04939957 0.06667307 0.008928716 -0.11355727 -0.10771167 0.009708749 0.09828793
-0.04944755 0.013543947 -0.082399525 0.069582604 0.09248545 0.027869882 -0.013297934 0.008845171
-0.08237537 -0.0059101246 0.12545799 0.09505719 0.072679244 0.04171742 0.044954423 -0.055080805
0.082088396 0.13555156 0.081623904 0.08446491 -0.0985744 -0.07894319

hidden_layers.1.weight f4 [10, 30]
00000000: db1e 553b fede 2b3e 6a53 1c3e a386 d03d
00000010: 74fa ff3d 8402 343e 60c1 643e 345c 0f3e
00000020: 65a0 9abd e268 02bd 54a1 1bbe 8cbd e83d
00000030: 3faf b93b f7f3 083e 7319 fdbd baa5 c2bd
00000040: e855 27be e424 f83d 99f7 d03d fe84 f5bc
00000050: bf42 473e d2d5 113d 38ea c83d b7f2 ef3d
00000060: e270 ccbc 89a6 f43c 4ad6 063e 7886 32bd
00000070: 339c 30be 2d46 92bd a541 90be c6c9 9dbc
00000080: 36b5 383e ca6e 143e 6efb 243e 3f2f 0dbe
00000090: 4621 7a3c 0c48 6a3e dc87 21be 6db4 053d
000000a0: 4d64 3ebd 693d 1c3e 6f7a 423e 925e 463e
000000b0: 669e 68bd 8ffd 3a3e d068 0ebe 18c5 803d
000000c0: 2bb3 c0bd 92e3 72be 824a 073d e0e0 753c
000000d0: c36c 4e3e 934c fd3c e271 8dbe 2ead a03d
000000e0: f2b8 663e 5ab2 6d3e 1d84 8cbe a8c8 cfbd
000000f0: aa11 83be beb5 ec3d 4822 9b3e bae6 7b3d
00000100: f826 273e ed7d 01be 0763 4d3e 02db 423e
00000110: 01ac f9bd 2986 6a3e db0d acbd ffe2 a43b
00000120: feb4 6e3e f622 483e 1e2d 08bd 27e4 c2bd
00000130: 3fa7 84bd 5611 c9bd 488c 553e 05c0 17be
00000140: 9ace 183e 273d c03d 171b a9bc 4f9b c2bc
00000150: 2b12 1dbe b464 e53d a2f9 55bb b4cb 663e
00000160: 77e1 04be 13d0 21be c241 16be 723c 6d3d
00000170: 785b 233d 9020 0abd 5bc6 dbbd 7ba5 0fbe
00000180: 8ec6 1c3e 0a68 083e f026 bd3d f4b7 7ebd
00000190: d5db f2bd 862e e53d 2eec ac3d d7b0 49be
000001a0: 147d 92bd 44a3 0ebd 200f dbbb 7d24 47bc
000001b0: 6313 5f3d 20ae 893d 08df 34be 9956 07be
000001c0: 83c1 083e ce1f 86bc a936 d4bd fcda 46be
000001d0: 6df9 ffbd 5b26 ecbd bc39 abbc b28b bdbd
000001e0: 8288 ecbd 0ec7 01be 840d 983d 47ab 03be
000001f0: 2025 efbb f026 803d e809 96bd d09d 353c
00000200: be9c 09bd 6ae1 9e3c 8fc4 7f3b 977f 8d3d
00000210: e9ad 0fbb 12c4 c0bc 2358 d1bd 2895 863c
00000220: efe7 02be 8bea 1abe 164e 18be c8d4 1e3e
00000230: 822c 94bd d673 343e 1c89 e2bd 19ab 05be
00000240: 90e6 2c3e bee4 523d c1d7 95bd ab0d 413d
00000250: 6252 05be 7e7a 003e 1635 febd cd8f 503e
00000260: ce81 babc 1826 073e d23a 0cbe 50be 7b3d
00000270: f3f8 493e 6692 223d b96d e73d c9c2 edbd
00000280: c206 fabd 88f0 763d a9e6 363e 4b95 48bd
00000290: f4af 01bc 025c 1bbd 6008 1d3c 0091 01bc
000002a0: 9c18 ee3d 2ef2 82bc 701d 1f3e e792 493d
000002b0: baac 5b3e f970 643e 4a1f 6a3d d1fc 8c3d
000002c0: e80b d8bd 6b65 1a3e 5f61 01be 7e66 95bd
000002d0: fc6a 52be 1ec5 3fbd 8ec9 6a3d 5077 09be
000002e0: f2db 2dbe c01d 2dbb 6d32 e03d 1fab 17be
000002f0: 04bd e33c 8bf1 043e abd9 28be f0e1 dcbd
00000300: bd29 86bd 0d3f a4bc 1c3a 8dbd f88a cbbd
00000310: 176b b93d 8758 e33d 6021 db3d 1573 04be
00000320: 42f9 043e 2c4b 033e 8dee 5abd dbe6 923b
00000330: 6cbf f5bd 52b2 c13d b42c a33d 38e0 123e
00000340: ae51 07bd 30f8 9cba 79f5 e1bd 1fa5 8ebd
00000350: 9e40 843e acc8 dcbc 80f2 7b3d 546d 103e
00000360: eb79 253e 6c47 883d 9771 143d 3960 1f3e
00000370: 05c8 bdbd d17f 6db9 c358 1b3e cfae 403e
00000380: d724 15be 6f66 bc3d a1d2 d9bd 4177 a7bd
00000390: d9a9 5f3e 048b 3cbd 86bc 4a3e 058c c63d
000003a0: 4059 7d3d 80a7 1e3e 2cb4 82be a222 e93d
000003b0: 5003 0ebe c9a9 aebd 9c52 a6bd fce4 063d
000003c0: e795 163c 84c6 abbc 2a01 523e 9b8c 12bc
000003d0: c834 443d 0931 dbbd 7fd1 703e 1e61 9dbd
000003e0: 086e efbd 0798 1d3e 6838 cbbd 9a50 123e
000003f0: 2157 7f3c 312e 843e f08c 37bd 02e3 85bd
0.0032519612 0.16784284 0.15266195 0.1018193 0.12498942 0.17579085 0.22339392 0.14000016
-0.07550124 -0.031838305 -0.1519826 0.11364278 0.005666643 0.13374315 -0.1235837 -0.09504266
-0.16341364 0.12116411 0.102034755 -0.029970642 0.19459055 0.035604306 0.09810299 0.11716216
-0.02495617 0.029864566 0.13167682 -0.04358527 -0.17247085 -0.07142291 -0.28175083 -0.019261252
0.18037876 0.14495388 0.16111538 -0.13787554 0.015266722 0.22879046 -0.15774482 0.03264277
-0.046482373 0.15257801 0.18992017 0.19372013 -0.056791686 0.18260787 -0.1390717 0.06287593
-0.094091736 -0.23719624 0.03303004 0.015007228 0.20158677 0.030920302 -0.27625948 0.078455314
0.22531489 0.23212567 -0.27444544 -0.10145694 -0.25599414 0.11558102 0.30299592 0.061499335
0.16323459 -0.12645693 0.20057307 0.19028857 -0.1219101 0.2290274 -0.0840108 0.005031943
0.2331123 0.19544587 -0.033246152 -0.09516173 -0.06477212 -0.0981776 0.20854294 -0.14819343
0.14922562 0.09386664 -0.0206428 -0.023755698 -0.15338962 0.11200848 -0.0032650013 0.22538644
-0.12976633 -0.1580203 -0.14673522 0.057918973 0.039882153 -0.03372246 -0.10731193 -0.1402797
0.15310118 0.13320938 0.09235942 -0.06218715 -0.11858336 0.11190514 0.08443485 -0.19696365
-0.07152763 -0.03482367 -0.0066851526 -0.012154696 0.054461848 0.06722665 -0.17663205 -0.13216628
0.13355069 -0.016372588 -0.10361988 -0.19419473 -0.12498746 -0.11530753 -0.020901553 -0.092551604
-0.11549474 -0.1267359 0.07424453 -0.12858306 -0.007298127 0.06257427 -0.07326108 0.011084989
-0.033596747 0.019394595 0.003902707 0.069091015 -0.0021923727 -0.023530994 -0.10221889 0.016428545
-0.12783788 -0.15128534 -0.14873537 0.15510857 -0.07235052 0.17622313 -0.11061308 -0.1305355
0.16884828 0.051487677 -0.073165424 0.047132175 -0.13019708 0.12546727 -0.12412469 0.20367356
-0.022766974 0.13198125 -0.13694313 0.061460793 0.19723873 0.039690398 0.11300225 -0.11609418
-0.1220832 0.060287982 0.17861427 -0.048970502 -0.007915486 -0.037929542 0.009584516 -0.007908106
0.116257876 -0.01598462 0.15538573 0.049212363 0.21452609 0.2230872 0.057158746 0.068841584
-0.10549146 0.1507775 -0.126348 -0.072949395 -0.20548624 -0.046818845 0.057321124 -0.1342442
-0.16978434 -0.0026415437 0.10947118 -0.14811371 0.02780009 0.12982766 -0.16489284 -0.10785282
-0.0655093 -0.020049596 -0.06895849 -0.099386156 0.09053629 0.111008696 0.10699725 -0.12934525
0.1298571 0.12821645 -0.053450156 0.0044830865 -0.119994015 0.0945784 0.07967511 0.14343345
-0.03303688 -0.0011975821 -0.11033148 -0.06965088 0.2583055 -0.026951157 0.061510563 0.14104205
0.1615979 0.06654248 0.03624114 0.1556405 -0.09266666 -0.00022649697 0.15170579 0.18816684
-0.14564835 0.09199225 -0.106358774 -0.08177043 0.21842135 -0.046031013 0.19798478 0.09694675
0.061852694 0.15493584 -0.25528085 0.11383559 -0.13868451 -0.08528478 -0.08121225 0.03293322
0.009191013 -0.020968683 0.20508257 -0.008944656 0.0479019 -0.10702712 0.23517416 -0.07684539
-0.11690909 0.15390025 -0.09922868 0.1428856 0.015584738 0.2581649 -0.044812143 -0.06537439

hidden_layers.1.bias f4 [10]
00000000: e1ee 93bd 0dfa 223e a268 373d 5141 c6bd
00000010: 32d9 2cbe 2d79 8b3c 151c 89bd a48c 0d3e
00000020: af30 013d 8410 a13d
-0.07223297 0.159157 0.04477752 -0.09680427 -0.16879728 0.017025555 -0.06694809 0.13823181
0.03154057 0.07864478

output_layers.0.weight f4 [22, 10]
00000000: f3f2 9e3d c4db 92be 5871 a8be 6ab4 33bd
00000010: d3b8 0b3e 1f91 92bd 6ccd 8cbe 6c77 8ebe
00000020: 8ae6 073d 93c4 1dbe ed0c cebc f14c 5f3e
00000030: 908f 8ebb 2d79 86be d9d5 f13c 219b 4cbd
00000040: e720 13be 7965 713e a564 7ebe 44f7 a4bc
00000050: a324 923d 9ea9 213e 0d03 04be e15d 903e
00000060: 7696 a03d 2b78 8d3e a337 993e 6135 8ebd
00000070: bc2f a6be a601 883e a7a8 21be 1b9b 76bc
00000080: a2da 82bc 0aa3 cd3d 5a18 843e 6749 253e
00000090: 86c6 5f3e 5974 78be 62c2 393e b016 513e
000000a0: d2a4 14be 5f08 41be d57b d73d 5654 983d
000000b0: 2d09 9fbd 8e90 52bc 09b0 0c3e 8f2d 103e
000000c0: 559f 0bbd bffd 673e b1a9 3f3e b1c0 863d
000000d0: 27a4 34be 322f 593e 1201 033e 1e17 26be
000000e0: a1f8 7fbe 3ac0 363e 16d2 543e 0729 423e
000000f0: 5744 073e 4513 323e c175 4ebe aeb0 abbd
00000100: 2f33 6fbe c04c 05be 692f 993d e54d 1d3c
00000110: e9b0 cabc 13e5 09be f3cc 7b3e b363 0f3e
00000120: b2a4 69bd f9b6 98be f49b 353e e6e4 48be
00000130: ac89 463e 283f 12be 487a bb3d ace7 0ebe
00000140: f3fe 933d a2ac 08be 6418 143e e306 3bbd
00000150: c497 ed3d 9cae bfbe c468 64be 5944 0b3e
00000160: 3984 273e e766 3fbd 2e15 903e 804a 733d
00000170: 03e8 ecbd 7bda d1bd fe13 91be ee09 7cbe
00000180: 645f 083e db24 1d3e bc49 123d 7547 d1bd
00000190: a911 113d 1ed8 19be fa86 68bc 6deb 7a3e
000001a0: e7b8 5e3e 03b1 6c3e ccf6 783d cd66 0dbb
000001b0: 078a 8ebd ac26 a43e e6a7 42be 2eee dfbd
000001c0: f442 eabd b0bf 9d3c 7ad3 593e 71f2 2d3e
000001d0: 3207 a63d cadb 8f3d 3320 bf3e ace3 b23d
000001e0: b842 f5bd bb8f cbbd 6428 48bd c47d 32bd
000001f0: 14ee 9abe 4e67 b03c e31f 57be 78e2 963e
00000200: c4dd 583e f1de 3dbe 654a 77be 7bb4 a03e
00000210: 3a13 88be 44c5 4ebd 9215 9b3e 71f6 233d
00000220: cd91 8a3e 849d ae3e c852 75bd bbb1 edbd
00000230: 9e9e 47be 04a8 4e3d 2464 a43e feeb 70be
00000240: eba3 22be b8a3 2dbe f585 48bd 34ae 1dbe
00000250: 4876 043e a16c f5bc d630 5a3e e2a3 dbbc
00000260: 3bf1 523d aae4 463e 9110 29be 50c1 c73d
00000270: a754 43be d642 20be 64a7 e5bc c700 003d
00000280: d524 2abd a4f8 9b3d fb87 54be f9f3 06be
00000290: a59e 273e a613 693e e844 c93c a74f 78be
000002a0: 0323 6bbd 2686 3f3e d1ad 9a3e 3b74 093e
000002b0: 68e3 16bd ab79 983d 0d86 963e fc09 1ebe
000002c0: dce2 68be fad7 5cbe ce50 4e3e 25a0 e33d
000002d0: e60f 153e 96c6 363d 83c1 673d 0863 953e
000002e0: b5dd e6bb 0151 5d3e 146e 1bbd 7ca1 a6be
000002f0: 0a23 25be 381a 25be f7fe d73c 65e2 4a3e
00000300: 5c0b cc3d 2359 ce3d 47c9 983e 353d febd
00000310: a499 13be e16c c2bd 8c81 413e b8fb 8a3e
00000320: 5c85 be3c d115 30be 4a33 90bd c293 603e
00000330: f55e 953e 1e6f 8e3e 7890 f33d ccb0 f9bd
00000340: 8d8c 713e 4e74 533e d05d 70be a5b1 60be
00000350: dc3b a2be 7c6d 743d 5a99 733e 7942 4fbe
00000360: 4514 cd3d 9f41 59bd ad86 e8bd c4ae 4d3e
0.07761183 -0.28683293 -0.32898974 -0.043873228 0.13644724 -0.07156586 -0.27500474 -0.27825487
0.033178844 -0.15407018 -0.025152648 0.21806695 -0.00435061 -0.26264325 0.029520916 -0.04995263
-0.1436802 0.23573865 -0.2484308 -0.020137437 0.07135894 0.1578736 -0.12891789 0.28196624
0.07841198 0.27630743 0.2992526 -0.06943775 -0.32458293 0.26563758 -0.15786992 -0.015051628
-0.015973393 0.10040863 0.2579983 0.16141282 0.21853074 -0.24263133 0.18140557 0.20418811
-0.14515999 -0.1885085 0.10521666 0.07437961 -0.07765422 -0.012851847 0.13739027 0.14079879
-0.034087498 0.2265539 0.18717076 0.06579722 -0.17640744 0.2120941 0.12793377 -0.16219756
-0.24997188 0.17846766 0.20783266 0.18960963 0.13209663 0.17390163 -0.20162107 -0.08383308
-0.23359369 -0.13017559 0.07479746 0.009601091 -0.02474256 -0.13466291 0.245899 0.14002876
-0.05704183 -0.29827097 0.17735273 -0.19618568 0.19388455 -0.14281905 0.09154183 -0.13955563
0.07226362 -0.13347104 0.1446243 -0.045660865 0.116012126 -0.37437904 -0.2230559 0.13600291
0.16359033 -0.046728995 0.2814116 0.05939722 -0.1156769 -0.1024675 -0.28335565 -0.24613163
0.13317639 0.1534609 0.03571485 -0.102187075 0.035417233 -0.15023848 -0.014192337 0.2450387
0.21750222 0.231144 0.06078224 -0.0021576167 -0.069599204 0.32060754 -0.1900936 -0.10934101
-0.114385515 0.019256443 0.21272078 0.16987015 0.08106841 0.07024343 0.37329254 0.08734831
-0.11975616 -0.09939524 -0.048866645 -0.04357697 -0.30259764 0.021533635 -0.21008258 0.29469657
0.21178347 -0.18542077 -0.24149473 0.31387696 -0.2657717 -0.050481096 0.30289894 0.040029947
0.27064362 0.3410455 -0.0598934 -0.11606165 -0.19494101 0.0504532 0.3210765 -0.23527524
-0.15882842 -0.16956985 -0.048955876 -0.15398484 0.12935746 -0.029959025 0.21307692 -0.026811544
0.051499587 0.19423166 -0.16510226 0.09753668 -0.19075261 -0.15650496 -0.02803392 0.03125074
-0.041539032 0.07615784 -0.20754997 -0.13179006 0.16369112 0.22761402 0.02456899 -0.24249135
-0.057406437 0.18703517 0.30210736 0.13423245 -0.036837965 0.07445081 0.29399148 -0.15433496
-0.2274279 -0.21566764 0.20148012 0.111145295 0.14556846 0.04462298 0.05658103 0.29177117
-0.0070454725 0.21612932 -0.037946776 -0.32545078 -0.16126648 -0.16123283 0.026366694 0.19812925
0.09963104 0.10075595 0.29841062 -0.12414018 -0.14414078 -0.09493423 0.18897074 0.2714517
0.02325695 -0.17195822 -0.070410326 0.21931365 0.2917401 0.2781915 0.118927896 -0.121919245
0.23588772 0.20649835 -0.23473287 -0.21942766 -0.31686294 0.059674725 0.23788968 -0.20240201
0.10013632 -0.053041097 -0.11353812 0.20086199

output_layers.0.bias f4 [22]
00000000: d200 07bc fd8d 753e e4b0 753e b160 853e
00000010: aee0 52bd 3d53 adbd f45f 9abd e647 95bc
00000020: a6be 173e 3cb9 543c f18d 05be 3c40 28be
00000030: 0ef0 0cbb 33e0 5cbe 3ee8 323e a807 1a3e
00000040: 0e83 dc3d e502 9abd 97c9 553e af52 87bd
00000050: b61d 873e 091a 5f3e
-0.008239942 0.23979945 0.2399326 0.26050332 -0.051483802 -0.08463142 -0.07537833 -0.01822276
0.1481882 0.012983616 -0.13042428 -0.16430753 -0.0021505388 -0.215699 0.17471406 0.15041983
0.10767184 -0.07520083 0.20877682 -0.066075675 0.26389855 0.21787275
