my_data_and_graph/pretrained/PPO_local_network.pt (torch, 9695 bytes, 6 tensors)

hidden_layers.0.weight f4 [20, 47]
00000000: 66d1 9e3d 7733 33be d9a0 c03c 5407 e23d
00000010: 61eb a3bd 3c9e 003d 2e45 11bd ca07 4fbd
00000020: 2918 23be 9084 803d 8631 523d 032d d7bd
00000030: aac9 f9bb dc35 f4bc 8c93 463c fe5d 033d
00000040: b2e4 d2bd f35e 923c 2e5c 4cbe 24c9 93bd
00000050: d9fb 98bd f8dc 0c3d 4220 87bd 06b8 c83d
00000060: a396 94bd 9b0f ca3c 5219 ee3c 0387 b9bd
00000070: 8d3b 293e 2447 e4bb 4500 003e 9ea5 c3bd
00000080: 03b3 d23d 87f2 c83d 9ad3 50bc 4651 4cbe
00000090: 550a 963c 676d d03d cc3b dcbd 2854 263c
000000a0: 5166 ecbb fbe6 0abd 7a53 2c3e 34de 4abc
000000b0: 03c0 1d3d dc33 23be de30 a8bd 00f5 7e3d
000000c0: 629c 28bd 9ba9 3bbe 3817 f33d 6214 5dbe
000000d0: c5ec 40be 7a7b 24be de49 81bd 86a5 983d
000000e0: a135 9fbd 1383 f63d 9390 a63d ac87 4bbd
000000f0: 5ae5 b43d a776 423d 9ca7 6d3d 6f5d 813c
00000100: 5b2f 03bc 3ca2 d23b 42e5 edbd 709a cfbd
00000110: d527 febd afaa 54bc ea60 91bc 3161 d1bd
00000120: 4dfe 4abd f6cd 29bd 4085 9dbd b317 b63c
00000130: 5627 273c cb2b d8bc 4126 f9bd ab86 37be
00000140: 4d45 d1ba a6d1 4dbe adbe 42bd 5483 20be
00000150: d83c 05be 6f85 c8bc a79c 1b3e 772c 123c
00000160: 1b7e e3bd 0b65 de3c 14c8 6dbd 16f9 44bd
00000170: 4f42 2d3d 2467 813d 54b4 cfbd 3cac f9bd
00000180: f225 efbd 48dd a63d 48af d63c 4bcd 08be
00000190: c21e 0c3e 302d e0bd ae7f 953d 366b c63d
000001a0: 6817 943c 0e30 31bd 34a0 5c3d 4c18 a13d
000001b0: 106b 553d 1efc 81bd f84d a9bc 0084 993a
000001c0: 00fc 68bc c0c0 3f3d ec7e b8bd f04a fb3c
000001d0: 603f 983d 5614 02be 9aa0 1bbd 8038 0b3e
000001e0: 70ab 3bbc 9267 a1bd 203f 363c 8ac3 b6bd
000001f0: 90ca fe3d 5a58 41bd a286 bf3d 54a7 b93d
00000200: 003e b7ba 3b2d 98bd e4a6 d53d 60ac 073d
00000210: 805c aa3c 4aa2 aebd 58fc c53c c8f1 dd3c
00000220: e2e5 093e 34de 133e 38c9 5a3d 856d 14be
00000230: e00c c23c 69d0 29be 6a5a 00be 184b 9f3c
00000240: 8a81 e03d 8afe a5bd 3846 d5bd dcbd 22be
00000250: 0734 613d 3037 f5bd 7936 18bd 715a a13d
00000260: de48 aebd 320a b7bc efb0 d9bd 111b 233e
00000270: 96ba 543d 53b3 083e bcd4 583d bf87 43be
00000280: 74ed f7bc dcfa 3ebc f3b0 233d 1662 92bd
00000290: aadd e2bd 857b ffbd 72d0 bdbd ebaf 3abc
000002a0: 634e 28be d4d7 42be 849a 87bc 4623 5bbe
000002b0: 7883 0c3e 06e9 dfbd 2d5a 793d fd9d 25be
000002c0: 7579 1f3c 78ef 9e3d fcef 47be a1fc 44be
000002d0: f7ec 193e 7c71 98bd aa76 18bd b62b 91bd
000002e0: 9109 35be c4f1 c7bd ab26 a7bc 91fc 2fbc
000002f0: 5e19 e33c ceea bb3d 7028 9b3d 69e4 acbd
00000300: 9201 063e 08b8 193e f699 25be 7701 443d
00000310: e5c9 1fbe cea1 a43d 5c5d 21bd 336b 2cbe
00000320: b5fc a53d 0012 1b3d d801 b9bd 8bb8 f0bd
00000330: 1ea9 4cbd aec2 143e 3f44 31bd 4de6 bb3d
00000340: fe72 013e d677 9c3d df39 d5bb c8f0 5dbe
00000350: 8258 c4bd 47b1 cebd cbbc 11bd cf80 0ebe
00000360: 2547 473d 2ef9 40be c731 08bd 3558 c83d
00000370: 5d60 f5bd 8c88 b9bd 5b18 19be f7d0 7f3d
00000380: 90d3 0a3d ff7a 093e 034b 55bc cf20 acbd
00000390: 52bd 0bbe 4b61 99bd b404 073d b6ea 33be
000003a0: 6834 313d 4a45 0ebe afe6 40be 221f 753d
000003b0: f81f 6ebd 79b6 07be 4b0c 5b3e ff20 063e
000003c0: e4e3 203e d1af cc3d 4473 f4bd 73a3 783d
000003d0: 89b7 50bd 45ef ac3d b936 d7bc cbf4 153d
000003e0: c1f2 9ebd 22a3 093e d47e 21bd b4ad 3e3e
000003f0: 0634 0bbe d4f4 d1bd 4f0b d3bc 5aa9 c0bd
0.07754783 -0.17500101 0.023514198 0.11036554 -0.08003879 0.031400904 -0.035466366 -0.050544538
-0.15927185 0.06275284 0.05131676 -0.10506632 -0.007622917 -0.029810838 0.012120139 0.03207206
-0.102975264 0.017867541 -0.19957039 -0.07216099 -0.07469911 0.03439042 -0.065979496 0.09800725
-0.07255294 0.024665644 0.029064808 -0.090589546 0.16526623 -0.0069664884 0.12500103 -0.09553073
0.1028805 0.098118834 -0.012745762 -0.19952878 0.018315474 0.10177117 -0.10753593 0.0101519
-0.0072143455 -0.033911686 0.16828719 -0.012382079 0.038513195 -0.15937752 -0.08212446 0.06224537
-0.041164763 -0.18326418 0.11869663 -0.21589807 -0.1884032 -0.16062728 -0.06312917 0.07453446
-0.07773901 0.12036719 0.08133044 -0.049689934 0.08832808 0.047476437 0.058021173 0.015791623
-0.008006896 0.0064280313 -0.11615993 -0.101368785 -0.12409941 -0.012980147 -0.017746408 -0.10223616
-0.049558926 -0.041456185 -0.07691431 0.022228098 0.0102022495 -0.02638807 -0.121654995 -0.17922466
-0.0015966088 -0.20099506 -0.047545124 -0.15675098 -0.13011491 -0.024477689 0.15196477 0.008921734
-0.11108037 0.02714779 -0.058052137 -0.04808911 0.042299565 0.06318501 -0.10141817 -0.12191054
-0.11677159 0.08147675 0.026206627 -0.13359563 0.13683608 -0.10946119 0.072997436 0.096884176
0.018077567 -0.04325872 0.05386372 0.078659624 0.052104056 -0.06346916 -0.020667061 0.0011712313
-0.014220238 0.04681468 -0.090085834 0.030675381 0.07433963 -0.1270307 -0.03799496 0.13595772
-0.011454448 -0.078810826 0.011123449 -0.08924015 0.124409795 -0.0472034 0.09351851 0.090651184
-0.001398027 -0.07430502 0.104322225 0.033123374 0.02079606 -0.08527048 0.024168178 0.02709283
0.134666 0.14440233 0.053414553 -0.14494903 0.02368778 -0.16583408 -0.1253449 0.019444987
0.109622076 -0.0810519 -0.10413784 -0.15892738 0.054981258 -0.11973417 -0.037161324 0.078785785
-0.08509992 -0.022343729 -0.106294505 0.15928294 0.051935755 0.13349657 0.052937254 -0.19094752
-0.030264594 -0.011656489 0.039963674 -0.07147615 -0.11077435 -0.12474731 -0.092682734 -0.011394481
-0.16436152 -0.19027644 -0.016553171 -0.21400174 0.13722026 -0.109331176 0.060877014 -0.16173549
0.009733547 0.07760519 -0.1952514 -0.19236995 0.15031801 -0.074435204 -0.037222542 -0.07088415
-0.1767943 -0.0976291 -0.02040418 -0.010741369 0.027722057 0.09175645 0.07576072 -0.08442003
0.13086537 0.15011609 -0.16172013 0.04785296 -0.1560436 0.08038674 -0.039395675 -0.16837768
0.08104841 0.037858963 -0.09033555 -0.11753949 -0.04996597 0.1452739 -0.043277975 0.09174786
0.12641522 0.076400444 -0.006507143 -0.21673882 -0.09587194 -0.10092407 -0.035580438 -0.13916324
0.048651833 -0.18845055 -0.033250596 0.09782449 -0.119812705 -0.090592474 -0.14950697 0.062455144
0.033893168 0.13425826 -0.0130183725 -0.08404695 -0.13646439 -0.0748926 0.03296347 -0.17570004
0.04326287 -0.13893619 -0.18837999 0.059844144 -0.058135957 -0.13253202 0.21391408 0.13098525
0.15711933 0.09994472 -0.11936048 0.060702752 -0.050956283 0.084440745 -0.026271211 0.036610406
-0.077611454 0.13441136 -0.039427593 0.1862095 -0.13594064 -0.102517754 -0.025762228 -0.09407301

hidden_layers.0.bias f4 [20]
00000000: ad45 c7bd 3dec 5dbe 6098 c0bd 9731 e0bd
00000010: c37b 7ebc 31b1 56bc a8e7 93bd e62d 75bc
00000020: 9f59 6c3d 8c7b 13be 5ea4 423c 955d 873d
00000030: 09cd 1abe d399 363d 8272 92bd bc4b 4f3d
00000040: d39a f53c 335e aebd e44a 633d cd5b 5ebd
-0.097300865 -0.21672149 -0.09404063 -0.109469585 -0.015532437 -0.013103769 -0.07221919 -0.014964556
0.057702657 -0.14402598 0.0118800085 0.06609646 -0.15117277 0.044580292 -0.07150747 0.050609335
0.029981053 -0.08514061 0.055491343 -0.054286767

hidden_layers.1.weight f4 [20, 20]
00000000: 44e8 dbbd 83d8 4d3e 48a6 a7bd b051 773e
00000010: 6bc6 17be 1344 8b3d 3922 fc3d d486 7fbd
00000020: 1414 fb3d b9cd 45be ab75 59bd d7f4 ee3d
00000030: 547b c6bd 9e04 acbd 8d8d a03d d544 c8bd
00000040: 100e ac3d 88c9 0c3e 5e9d 133e e63c 1e3e
00000050: 0033 0d3e 53cb 12bc 54e1 00be 5b34 88bd
00000060: 8217 f13b 0a00 883e c81c ea3d 3b44 6b3d
00000070: 22ca ac3d f471 52be d578 88be fccd b0bd
00000080: f99e 3f3e 8176 773e d0d9 363e 1e4c b43c
00000090: 13f8 883e db3d b5bd 93e8 abbd b50d a7bd
000000a0: ede1 a8bc 65e8 3abd 42bb 063e 1ca4 1fbd
000000b0: d383 4ebe cb6a 073c 564f 80bd aec0 aabd
000000c0: 225c e13d 5960 3c3e 26fa 83bd 806a 56be
000000d0: aea9 e83d 26ea 20be b337 32bd 5f97 10be
000000e0: 803f d13b 998e b43c d249 213e 5a2b 3fbe
000000f0: 42a5 3b3e e706 59be 80f2 2e3d 50f2 85bd
00000100: 1227 44be 4ac5 333e e4ec f93d 63c8 cabd
00000110: 283b 0f3d e0b2 503d 1ea0 31be f08c 67bd
00000120: 21a7 45be 8020 ac3d bc4e 0fbe b4a9 23bd
00000130: b0c0 50be f8bc 2f3d e2e0 48be 42e8 b8bd
00000140: 30c1 34bc 383b c2bd b69a 4c3e 92f3 d43d
00000150: c687 e4bd 6209 63be 89d1 21be b584 00be
00000160: e718 603d f7d7 99be 3873 f03c 1a4d b1bd
00000170: d4df 843c c8a3 08be 7ebb 39be b8a9 b43d
00000180: 1e53 b73d 7402 13be 664d 4ebe 7e3a 20be
00000190: 08fa a03d fc52 89bc 60a1 db3d 6991 84be
000001a0: 63e4 a5bb 1eaf 42be 0756 303d 7697 17be
000001b0: d10b a7be a3d0 553d dcd2 d3bd b286 2dbe
000001c0: 34c2 363d 981e 23be 6aab 8c3e 6222 623e
000001d0: 4ac7 8e3e e5c4 78bb 5558 a9bc 4512 44be
000001e0: 2593 963d 578d c63d de9c 453e 270c 4b3e
000001f0: 0410 ba3d d605 8c3e a396 33be b637 e53d
00000200: 564e abbd b022 9a3d 720c 89be dfa4 fcbd
00000210: 9674 193e 74ac 853e a3b0 2dbe f3f3 ee3d
00000220: cc04 393d c2b1 493e 0c38 ecbd b401 883e
00000230: c84c a5bd cf35 9cbd 2844 193e 5906 0dbe
00000240: 333a 813e c239 00be bb94 9a3b 4de1 3dbe
00000250: 6792 8cbd 30f0 babd 3c82 32bd 16f3 bd3d
00000260: cf26 c7bd 1f09 dd3c 5050 903c eca0 27be
00000270: 80da 513d be18 b63d e759 e23d 3350 883e
00000280: ca23 e0bd 6628 00be 3b27 25be 407d 06be
00000290: 27fc e53d 8f38 8f3e 2c37 a63d fc72 86bc
000002a0: 6052 243e 13f6 263d 3cb5 0e3e 0e53 1b3e
000002b0: 06e6 2ebe 741c 663b 9d91 0cbd 6a2a f9bc
000002c0: 65e2 19be 15e2 debc 37de 1fbd 7903 6e3e
000002d0: ce61 1a3e f55e 753d 6874 5b3d 8b37 333e
000002e0: 8d52 ae3e 37c2 afbd c1e8 c5bd 7a50 36be
000002f0: 4d5c 19bd f127 763d 6c59 39bc b0fb 753d
00000300: 90c5 923c d34b c8bd 133f f73c e72a 3f3e
00000310: 7609 c6bb 4f99 5abe 0295 0d3c f293 873c
00000320: d3ae e0bd 21a6 56be 0071 e33d 87a6 143e
00000330: 1005 c3bd f240 193e f571 a8bd 0f9d cb3d
00000340: 8d80 ca3d b207 513d a72d 46be 6672 553d
00000350: f06a 453d 9018 51bc 48aa aa3d 0fe9 88bd
00000360: 68e8 ba3d d96d f23d 4709 3fbe fd08 18be
00000370: e061 b73d da0d 48be 0a7e 87bd e02a 14bd
00000380: f85f 64be 2073 4d3c 38d9 363e 8086 c13d
00000390: f284 64be be0e 97bd ff5d 2dbe 4409 24be
000003a0: b0a8 fcbc f179 453e 5485 0ebe 1360 5b3a
000003b0: 885f 733d d68f 35be bf47 9fbd 30e3 c0bc
000003c0: ae2e 1ebe 4c2a 9d3d 2cdd 9ebd 1922 50be
000003d0: f468 253e e20b 08be 7d56 fabd 06b8 44be
000003e0: 6827 113e b0ee 733d b035 fd3c 90b4 21bc
000003f0: 5a7c 58be 00bd 1c3c 3847 863d 0235 15be
-0.107376605 0.20102124 -0.081860125 0.24152255 -0.14821784 0.068000935 0.12311215 -0.06238444
0.12259689 -0.19316758 -0.053090733 0.11667793 -0.09691492 -0.08399318 0.07839499 -0.09778754
0.0840112 0.13748753 0.144155 0.15452918 0.13788986 -0.008959609 -0.12585956 -0.06650611
0.0073575387 0.2656253 0.11431271 0.057438117 0.08436991 -0.20551282 -0.26654688 -0.086330384
0.18712987 0.241663 0.17856526 0.022008952 0.26751766 -0.088496886 -0.083939694 -0.08156911
-0.020615542 -0.045631785 0.1315737 -0.038974866 -0.20167474 0.0082652075 -0.06265132 -0.08337532
0.11003901 0.18396129 -0.064441964 -0.20939064 0.11360489 -0.1571432 -0.04351015 -0.14120243
0.0063857436 0.022040652 0.15750816 -0.18668881 0.1832476 -0.2119404 0.042711735 -0.06540358
-0.19155529 0.17555729 0.122033864 -0.09901502 0.034968525 0.05095184 -0.17346236 -0.056530893
-0.19302036 0.084046364 -0.13994879 -0.039956763 -0.20386004 0.042904824 -0.19617036 -0.09028675
-0.011032388 -0.09483951 0.19980893 0.1039802 -0.11158709 -0.22171548 -0.15802588 -0.12550624
0.05471125 -0.3004758 0.029351816 -0.08657284 0.01622001 -0.13343728 -0.18137929 0.08821434
0.089514 -0.14356405 -0.20146713 -0.15647313 0.0786019 -0.016763203 0.10724139 -0.2589219
-0.005062626 -0.19012114 0.043050792 -0.14803872 -0.32626203 0.052200925 -0.103429526 -0.16945913
0.0446188 -0.1592964 0.2747453 0.22083429 0.2788642 -0.0037959155 -0.020672003 -0.19147594
0.07352284 0.09694927 0.19298121 0.19828855 0.09085086 0.27348202 -0.17537932 0.11192267
-0.08364551 0.07526147 -0.26767308 -0.12336134 0.1498588 0.26108134 -0.16961913 0.11667623
0.04517059 0.19696715 -0.115341276 0.265638 -0.080712855 -0.07627451 0.14967406 -0.13771953
0.25239715 -0.12522033 0.004717437 -0.18542977 -0.068638615 -0.091278434 -0.043581232 0.092748806
-0.09724199 0.026981888 0.017616421 -0.1636998 0.05123377 0.08891438 0.11052304 0.26623687
-0.10944326 -0.12515411 -0.16128246 -0.13133717 0.11229735 0.27972838 0.08115992 -0.01641225
0.16047049 0.04076202 0.13936323 0.15168402 -0.17079934 0.0035112174 -0.034318555 -0.030415732
-0.15027769 -0.027207414 -0.03903028 0.23243512 0.15076372 0.05990501 0.05357781 0.17501657
0.34047356 -0.085819654 -0.09663535 -0.17804137 -0.03744154 0.060096685 -0.011312824 0.06005448
0.01791647 -0.09780087 0.030181443 0.1866871 -0.0060436083 -0.21347545 0.008641483 0.016550038
-0.10970845 -0.2096181 0.111055374 0.1451665 -0.0952245 0.14966181 -0.082248606 0.09942066
0.098878 0.05103273 -0.19353352 0.052111052 0.048197687 -0.012762204 0.0833326 -0.066850774
0.09126359 0.11837358 -0.18655883 -0.14847179 0.08954215 -0.19536534 -0.06615837 -0.0361737
-0.22302234 0.012539655 0.178563 0.09449482 -0.2231634 -0.07375859 -0.16930388 -0.1601916
-0.030842155 0.19284798 -0.13918048 0.0008368503 0.059417278 -0.1773065 -0.07777356 -0.023545831
-0.15447494 0.07674083 -0.07757029 -0.20325507 0.16153318 -0.13285783 -0.122235276 -0.19210824
0.14175189 0.059553802 0.03090939 -0.00986971 -0.21141186 0.0095665455 0.06556553 -0.14571002

hidden_layers.1.bias f4 [20]
00000000: 601a b6bc f105 22be d738 7abd a426 17be
00000010: fa3e 99be e321 70be 46c8 883d 5b6c 523e
00000020: dfca 4ebc 7cff 943c ca0f 20be 597c 26be
00000030: c08c 573b 9c38 84bd fdea 98be 20b2 3f3e
00000040: f0cd 23be 3596 033e 456b a33d 9e42 a4bd
-0.022229373 -0.15822579 -0.061089363 -0.14760834 -0.2993086 -0.23450427 0.06678824 0.20549147
-0.01262161 0.01818823 -0.15631023 -0.16258372 0.003289029 -0.0645611 -0.29866782 0.18720293
-0.15996528 0.12850268 0.079794444 -0.08020519

output_layers.0.weight f4 [21, 20]
00000000: b385 b63d ed27 b53d e016 8b3e 50fb 893d
00000010: dbe3 b0bd 6d36 2fbe 1b5b bd3d 3b02 423d
00000020: b766 d93d 3551 90bd e094 d33d 6ae4 1c3e
00000030: 1dd5 54be 2b92 713e 2b6d 66be 10f3 81be
00000040: ab7d 8abd ddb8 153e ac58 a6bd b889 753e
00000050: d9ac 7dbc 3d99 153e 5e2a 213e fef4 99bd
00000060: d99d 2a3e 1ffc 1d3e 05a2 cebd c570 4e3e
00000070: bb26 31be 40bc c4bd fb72 b63d bb10 3b3e
00000080: a008 29bc 8bb1 503d 5553 0c3e fb94 073e
00000090: 84a7 0a3e adc7 3d3e 4eaf 963b 91be 9abb
000000a0: 9564 133e b080 963d 4a76 84be 008f 8f3d
000000b0: acaa 9e3b fcf4 73bd e84b a63e a7ea b83d
000000c0: 8915 123e a618 783e 3859 e03d 331a 633e
000000d0: e900 f6bd 4c30 133d f636 e3bb a414 6a3d
000000e0: c81f 87bd d15f 1b3e 028b 0f3e 6bd8 2d3e
000000f0: ae48 7dbd f595 953e c6c3 35bd 906f d73c
00000100: 92a4 f4bd 278c 63be 00f1 e33d ee25 1e3e
00000110: a0a3 903e 7989 443d b32a 483e d8af 1a3d
00000120: 22c5 4c3e 8c31 9cbd 86af 0abe f3d6 1d3d
00000130: c955 323e e8bd 6a3d 6c8a 0d3d 8d99 ec3d
00000140: c9cd b03c 8538 36be e7c7 f2bd 1082 0bbe
00000150: 438a f13d d09e 133d a344 cd3c 61f5 8cbe
00000160: 4293 df3c d458 44be 1d51 743c e5e2 3bbe
00000170: 5cc4 46bd 7dd3 0bbe f308 76be 588b 6ebe
00000180: 9eec 97bd 1cbe 333e 6d55 a8bd 785c aabd
00000190: 764c 2c3d fea9 023e d184 9bbd b2e8 18be
000001a0: 5e0b 0ebe 74ec 2ebe 7764 8abe 8fa2 81bd
000001b0: 1944 f6bd fca1 d4bd 080b 033e ddb6 12bd
000001c0: ca81 4e3e 9135 f93d 0e95 22bd 64b3 b4bd
000001d0: b6c6 453d 14ed 5bbe d84a d43d 8dec dcbb
000001e0: cf25 afbd 72ea f7bd 3ed6 bbbd b098 193c
000001f0: c255 613e 369a 66bd 8c4e 08be 300d 90be
00000200: a887 e43d 668f a4bc 7016 34be 2db4 913a
00000210: c0fc adbc 688f 993c c451 96b8 7c98 5ebe
00000220: 0992 3bbc 9184 6fbe e81f f8bd b172 873e
00000230: 5e60 cc3c 4035 c5bc 0814 44bd df6f e3bd
00000240: eba3 9cbd a94b 903e bfcc 1abe 65c2 013e
00000250: 5b94 c93d eb79 ebbd ea88 c9bd ac4c 0c3d
00000260: 14bc bf3d af84 02be 1beb 023e 1062 97bd
00000270: 4ee9 073e e09d a93d e636 c5bd d855 9bbd
00000280: 75d6 403e d796 3fbe e897 283e 38c3 a93c
00000290: 5e54 6dbe f336 2abe f4f4 8b3e a195 863e
000002a0: 291a 843d 7507 d53c 180a b93d ecc8 17be
000002b0: c4da 163e c419 603e a26c 01be 779d 24be
000002c0: 4709 e5bd 362a 7a3e ddb0 183d ac37 00be
000002d0: c288 1bbe 7a93 7f3c a2b2 213e 242d 45bd
000002e0: dae6 aebd a75d 69be 3ce0 7f3d 201e 683c
000002f0: f302 12bd 2bf3 003e 1a4c 02bd af13 e7bd
00000300: 306e 41be 32c6 813e 86d3 0e3d 77a9 ffbd
00000310: 7e4b 7ebd 3309 61bd fbbe 01be 7374 3fbc
00000320: 3fd4 553d 2ea6 87bd 4d9c 1abe 7821 16be
00000330: d2ba babd b9a9 853d 9f05 babd b780 89bd
00000340: d90f 64bc 35b7 21be 5328 6e3e 1d09 1b3e
00000350: 5069 163c 3e66 613e 87f7 5e3c 3684 28be
00000360: 74ac 123e bdcd 7b3d 607b 4d3e d949 8e3e
00000370: e879 c3bd 2b27 2b3e 2b79 ae3d 603d 85bd
00000380: ee3e e5bd 104e 6a3e cf2e 7e3d 9fcc 463e
00000390: 1528 623e 1b93 3abe c6a2 cc3d 4448 1abe
000003a0: 62e6 1a3e 3501 643e 91b9 09bd 784e c53d
000003b0: 1ddb 85bd 0196 26be 173e 21be 5d5c 713e
000003c0: dd30 16be 10e4 42bd f8a6 a0bd 6ed5 063e
000003d0: 3066 21bd 6fa2 07be 5f2c 0a3e ea24 02be
000003e0: bb5c 51be 744a 63bd 8b99 46be ce48 9bbc
000003f0: 8aab 0d3e 3b53 4fbe f12c d9bc 9c99 84bd
0.0891222 0.08845506 0.2716589 0.06737387 -0.0863721 -0.17110606 0.092458926 0.04736541
0.106152944 -0.07046739 0.1033113 0.15321508 -0.20784421 0.23590915 -0.22502582 -0.25380754
-0.067622505 0.14621301 -0.081223816 0.23978317 -0.015483105 0.14609237 0.15738818 -0.07517432
0.16661777 0.15428208 -0.100894965 0.20160206 -0.17299931 -0.09606218 0.089086495 0.18268101
-0.010316998 0.05095057 0.13703664 0.13240425 0.13540465 0.18533202 0.0045985347 -0.0047224243
0.14393838 0.07348764 -0.25871497 0.07009697 0.004842123 -0.059559807 0.32479787 0.090291314
0.14266028 0.24228153 0.10954517 0.22177963 -0.12011892 0.03593473 -0.006934042 0.05714859
-0.06597859 0.1517327 0.14017871 0.16977088 -0.06183689 0.2921597 -0.044376157 0.026298314
-0.11945452 -0.22221433 0.111299515 0.15444157 0.28249836 0.047982667 0.19547538 0.037765354
0.19997075 -0.07626638 -0.1354352 0.03853507 0.17415537 0.057310015 0.034555838 0.11552725
0.021582501 -0.17794998 -0.118545346 -0.13623834 0.117939495 0.036040127 0.025057143 -0.2753096
0.027291898 -0.1917451 0.014911917 -0.18348272 -0.048527107 -0.13654895 -0.24026851 -0.23295343
-0.07418178 0.1755299 -0.08219419 -0.08318418 0.042065106 0.1276016 -0.07593692 -0.14932516
-0.13871524 -0.17082387 -0.27029774 -0.06329834 -0.12024707 -0.103824586 0.12797177 -0.035818923
0.20166698 0.1216842 -0.03969293 -0.088232785 0.04828521 -0.21477157 0.10365838 -0.0067420662
-0.08552133 -0.12105264 -0.09171723 0.009374782 0.2200537 -0.05629941 -0.13311213 -0.2813506
0.11158687 -0.020087909 -0.17586684 0.0011116319 -0.021238685 0.01874514 -7.1677874e-05 -0.21737856
-0.011448392 -0.23390414 -0.12115461 0.2645469 0.024948295 -0.024073243 -0.047870666 -0.11105322
-0.07648452 0.28182724 -0.15117167 0.12671812 0.0984275 -0.114978634 -0.098405674 0.034252807
0.09362045 -0.12745927 0.12784998 -0.07391751 0.13272592 0.082820654 -0.09629612 -0.07584733
0.18831809 -0.18709885 0.16464198 0.02072297 -0.23176715 -0.16622524 0.27335322 0.26286033
0.06450302 0.026004532 0.09035128 -0.1482274 0.1473189 0.21884829 -0.12639096 -0.16075693
-0.1118341 0.24430165 0.037278045 -0.12521237 -0.15188888 0.015599126 0.157908 -0.048138753
-0.08540125 -0.22789632 0.062469706 0.014167339 -0.035647344 0.12592761 -0.031810857 -0.11283051
-0.1888969 0.25346524 0.034869693 -0.12483495 -0.062083714 -0.054940414 -0.1267051 -0.0116854785
0.052204367 -0.06623493 -0.15098687 -0.14661205 -0.091176644 0.06526513 -0.090831034 -0.067140035
-0.013919794 -0.15792544 0.2325757 0.15140195 0.009180382 0.22011659 0.01360882 -0.16456684
0.14323598 0.061475504 0.20066595 0.27790716 -0.09544736 0.1671416 0.08519205 -0.06505847
-0.111936435 0.22881341 0.06205636 0.19413994 0.22085603 -0.18220179 0.09991984 -0.1506663
0.15126947 0.22266085 -0.033624236 0.09634107 -0.06535933 -0.1626816 -0.15746342 0.2357039
-0.14667077 -0.04758078 -0.07844347 0.13167354 -0.039404094 -0.13245557 0.13493489 -0.12709394
-0.2044553 -0.055490926 -0.1939451 -0.018955614 0.13834968 -0.20246594 -0.026510688 -0.06474611

output_layers.0.bias f4 [21]
00000000: f9bb 82be 9417 f93d f585 e1bd c413 393e
00000010: bb6a 7a3d 865a 32be 1848 ff3d e00c 3a3d
00000020: bf14 23be 9bc1 70be 90bb 6b3e 5044 4ebd
00000030: ca31 403e 793d 96bd fe96 cebd a2ea 023e
00000040: fa71 d2bd a4c8 0a3e 0141 ba3c ae0a 80be
00000050: cd19 0a3d
-0.25534037 0.121627 -0.110118784 0.18073946 0.061136942 -0.17417344 0.12464923 0.045422435
-0.15925883 -0.23511355 0.23020768 -0.050358117 0.18768993 -0.07335944 -0.10087393 0.12784818
-0.102756456 0.13553101 0.022736074 -0.25008148 0.03371601
