my_data_and_graph/pretrained/SAC_local_network.pt (torch, 36895 bytes, 6 tensors)

hidden_layers.0.weight f4 [64, 47]
00000000: 2b2d 393e 5651 3ebd b1a6 323e 08dd d6bc
00000010: 4dda 333e 0521 1dbe f117 a4bb 1b40 d0bc
00000020: 0128 aabc 62a8 ecbd fb45 7f3c ef4d 8c3d
00000030: 8cfd 4e3e 641f 223e 3935 02be 46fd 3fbd
00000040: dad6 41be d060 23be 2162 c03c 6872 e83c
00000050: 9d16 2bbe 4bcc e53d c589 f73d 4951 5f3e
00000060: 95b7 13be 834b 50be 02db f33d 237b ecbd
00000070: 7b3b 1cbe 48c6 3d3d be75 1cbe 01c8 a83d
00000080: 99b7 ccbd 29ae 4f3e d995 3ebc 8aa2 72bc
00000090: ca64 fd3d b105 71be 21d8 863d 54aa 4ebd
000000a0: 6f27 4c3e e1f0 f73d 67d8 6dbd c59c 32be
000000b0: d6fc c53d e6e4 b03d 3d1f 0b3e eeab 0c3e
000000c0: aa8f 393d 3731 25be ffb8 873d 4604 17be
000000d0: 8481 203e a512 093e b161 7a3d cdae 36bd
000000e0: 837b 3cbe 8026 53be 7ca4 d1bd 33e7 aebc
000000f0: 7bdc 48bc 8e9a 5c3e 11cd 76bd 80e3 5cbd
00000100: 5158 5dbe 6754 37be 42f8 34be 7d97 48be
00000110: a87b abbd f002 2b3d d56b 103c a5d6 263e
00000120: ad71 68be 88f7 1e3e 62ae a83d d42d 01be
00000130: 95e7 f1bd 441e 3c3e 6dd0 223d b31c 4bbe
00000140: 0285 f9bd c45d e93c 5b78 1fbe 0932 65be
00000150: 4ffc 59be 6776 cd3d 3836 bf3d 897c 59be
00000160: 86e1 ce3d c064 e73d c107 ff3d 9f91 33be
00000170: ea8f 45bd f0ce c93c 4276 fbbc 960d 803d
00000180: d6c5 2c3e b56b abbd 5e19 8e3d 331c 1bbd
00000190: 3b52 203e 783c f53d a1b8 1d3e d795 5bbc
000001a0: a927 23bd d7d1 de3d ba08 bcbd 4a79 62be
000001b0: 1794 273e f25a 47be 9d31 3e3c 9027 45be
000001c0: a583 cab9 23fe 733d 5d17 0cbe 6c3c 42bd
000001d0: eeea b43d c524 ee3d c19f b5bd 3d10 1fbe
000001e0: 5ac2 64bc 9064 eabd 0a5b 41bd 43bb 19be
000001f0: 53b6 0a3d 55fd 66be 676f d53d cb2f 7dbd
00000200: 542a a03c 7ccd 6ebe 8ede 083c efc2 99bc
00000210: 8919 7dbd 32a2 6b3d efb1 92bd eef3 12be
00000220: a0f5 bc3d a641 80bc 0d3e 443e e048 0f3b
00000230: ebec 403c 0496 c4bc e677 803d ebf0 c93d
00000240: 2f46 88bd 6682 f73d c45a 10be 6ca8 f1bd
00000250: 14b3 6ebe 16b0 4a3c 4cf2 d33d 7412 11be
00000260: 24b4 70be ebd8 c73d cbaf 4bbe d0a4 06be
00000270: 664f 0fbc 3dab 133e 8e3c b13d 2d13 bcbb
00000280: 41bc ea3d 3a1b e7bd b077 c1bd a71b a3bd
00000290: da2b e7bd ee58 f1bd 0fad 5c3e 2038 583e
000002a0: 68d6 0c3e 9f0f 9bbd 8f90 0c3d 7c2c 51be
000002b0: d919 35bd cd37 ccbd 96c3 18bb 6489 10be
000002c0: 031f 9ebd 4e2c 21be fa91 76be 2de0 aebd
000002d0: 7237 253e d5d2 e6bd 1bf3 f7bd bb42 60bd
000002e0: f627 4f3e 2078 463e 61e8 4d3e a876 3fbd
000002f0: 7588 913d afbb 31be a34d 3cbe 3e45 023e
00000300: d5ad 413e c7ab 9dbd 4a28 f33d 63a9 83bd
00000310: 84d0 e03c 9f41 213e 551d 433d be4c 463e
00000320: 3612 483e b055 6bbe 8ad7 3dbe c76a 70bc
00000330: 49c4 8cbd d409 b3bd 2d43 31bd 843c 9ebd
00000340: bd3f 2e3e aabd 273e 6a02 023d a9f2 f1bd
00000350: 05dd 2e3e 94fc 6bbe 743d 7a3d 8ced 773d
00000360: a9e4 dd3c 9499 a0bd 62e7 ec3d 7609 3a3e
00000370: 2a5c 5a3e 5220 e53d cbc5 1ebe 4c6b fd3d
00000380: 5a36 683c 18dc 7ebd e4a6 cdbd d5d4 133e
00000390: e792 a5bc d623 b4bd 1e63 573e ec07 60be
000003a0: 00bd 07be bf4d 1cbe ddb3 233e 7dca 03be
000003b0: e17d 7b3d eacc 3c3e 14c4 29be c528 d1bd
000003c0: d098 6ebe 341f 27be 4f4e d93d dab6 5b3e
000003d0: be47 9e3d 900d 023e e581 063e 5c02 67be
000003e0: 25d6 11be f992 623e 82be 16be dc07 b5bd
000003f0: 01ce 863d 4843 bcbc d03b 323e 954e 2d3c
0.18083636 -0.046464287 0.174464 -0.026228443 0.17563744 -0.15344627 -0.005007737 -0.025421193
-0.020771028 -0.11555554 0.0155806495 0.06850802 0.20213908 0.15832287 -0.12715615 -0.0468724
-0.18929616 -0.159549 0.023484292 0.028374866 -0.16707845 0.112206064 0.12086824 0.21808352
-0.144255 -0.20341305 0.11907007 -0.11546924 -0.15257065 0.046331674 -0.1527929 0.08241273
-0.09995956 0.2028128 -0.011632406 -0.01480926 0.123727396 -0.23537327 0.06584192 -0.050455406
0.19936918 0.12106491 -0.058067705 -0.17442615 0.09667365 0.08637409 0.13586135 0.13737461
0.045303024 -0.16132055 0.06627082 -0.14747724 0.15674406 0.13386019 0.061128322 -0.044600297
-0.18406491 -0.20620155 -0.10236451 -0.021350479 -0.012259598 0.21543333 -0.06025416 -0.0539279
-0.21615721 -0.1790329 -0.17672828 -0.19589038 -0.08373195 0.04175085 0.008814772 0.16292818
-0.22699614 0.15524113 0.08236386 -0.12615138 -0.11811749 0.1837092 0.03974955 -0.19835167
-0.12183572 0.028487094 -0.15573256 -0.22382368 -0.21287654 0.10032349 0.09336513 -0.21238913
0.10101609 0.112985134 0.12452651 -0.17536019 -0.04823295 0.024634808 -0.030696038 0.06252591
0.16872343 -0.08370153 0.06938432 -0.03786869 0.15656368 0.11974424 0.15402462 -0.013402424
-0.039832745 0.108798675 -0.09181352 -0.2211658 0.16365086 -0.19468287 0.011608508 -0.19253373
-0.00038626525 0.059568536 -0.13680787 -0.047420904 0.08833872 0.11628107 -0.08868361 -0.15533538
-0.013962353 -0.11444962 -0.047205962 -0.15012841 0.033865284 -0.22557576 0.10421639 -0.061813157
0.019551434 -0.23320574 0.008353842 -0.01876971 -0.06179193 0.05752773 -0.071628444 -0.14350864
0.09226537 -0.015656304 0.19164295 0.0021863505 0.011775236 -0.023997314 0.06272869 0.098604046
-0.066540115 0.120854184 -0.14097124 -0.11799702 -0.233105 0.012371084 0.10348949 -0.14167196
-0.23506218 0.09758171 -0.19891278 -0.13148808 -0.008746957 0.14420791 0.08654128 -0.0057395906
0.11461688 -0.1128449 -0.09446657 -0.07964259 -0.11287661 -0.1178454 0.21550392 0.2111516
0.13753664 -0.07571339 0.03431755 -0.20427126 -0.044214103 -0.09971581 -0.0023309938 -0.1411491
-0.07720759 -0.15739557 -0.24079123 -0.08538852 0.16134432 -0.11270682 -0.121069156 -0.05475114
0.20230088 0.19381762 0.20108177 -0.04674402 0.07106105 -0.17356752 -0.18388991 0.12721726
0.18913968 -0.076987796 0.11872919 -0.06428792 0.027443178 0.15747689 0.047635395 0.19365212
0.19538197 -0.22981906 -0.18539253 -0.014673895 -0.06873376 -0.08742109 -0.043276954 -0.07726386
0.17016502 0.16380945 0.031740583 -0.11813862 0.170765 -0.2304557 0.061093763 0.060529277
0.027086573 -0.07841793 0.1156757 0.18167672 0.2132422 0.11187805 -0.1550514 0.12373981
0.014173115 -0.062221617 -0.100415975 0.14436658 -0.02021165 -0.08795898 0.21033904 -0.21878022
-0.13255692 -0.15264033 0.15986581 -0.12870212 0.061399344 0.18437544 -0.16578704 -0.10212854
-0.23300481 -0.16320497 0.10610639 0.21456471 0.077285275 0.12700486 0.13135488 -0.22559494
-0.14241846 0.22126378 -0.1472111 -0.0883939 0.06582261 -0.022981301 0.17405629 0.010577817

hidden_layers.0.bias f4 [64]
00000000: 92a1 3b3d 7ab4 fabd 56a5 bb3d 01fc 453d
00000010: af3a 0e3d e6bc 913d 0061 d7ba 09b4 953d
00000020: c853 0c3e c823 cabd ca98 a4bd 96e5 043e
00000030: 7ead d93d e04a 723c bd23 a6bd 1184 113c
00000040: 704f 84bd 755c e3bc 0806 e13d 592f 03be
00000050: 01b8 43bc 1f4b 7d3d a141 35bc 5b12 fe3c
00000060: eae4 103e f8ac e9bd a84b 9cbb 9493 a23d
00000070: d705 aebd fc45 ca3d 8e08 e3bc b84c 33bd
00000080: b817 89bd ad6e e6bd 8d14 a93d db4c 07be
00000090: 7f97 d43d 4c41 9ebd 9749 9abd 0483 ddbb
000000a0: 405b 16bd 82f5 8b39 d335 8cbc 1b42 3fbc
000000b0: 981a 593c 81fc 1cbd c0f6 0ebd 2fff e83d
000000c0: eca3 3d3d 4e94 843b ea14 7b3d 3862 003e
000000d0: 5277 72bd 59c2 123e 504c efbd edfe 92bd
000000e0: b5dc 693d be31 3fbd 1767 bf3d 81d3 fcbd
000000f0: 4b88 b13d cf9d 0abe cd5a 45bd e321 a7bd
0.045808382 -0.122414544 0.09162395 0.048336033 0.034723934 0.07116108 -0.0016432106 0.073097296
0.13703835 -0.09870106 -0.08036955 0.12978205 0.10628794 0.014788359 -0.08112285 0.008881585
-0.06460464 -0.027754048 0.109874785 -0.1281103 -0.011945725 0.06183922 -0.01106301 0.031014612
0.14149824 -0.11409944 -0.004769761 0.079383045 -0.084972076 0.0987663 -0.02771404 -0.043774337
-0.06693977 -0.112515785 0.08255873 -0.13212912 0.10380458 -0.07727298 -0.075335674 -0.006760003
-0.036708117 0.00026695064 -0.01711551 -0.011673476 0.013250969 -0.038326744 -0.034903288 0.113767974
0.046298906 0.0040459996 0.061299242 0.12537467 -0.059195824 0.1433195 -0.11684477 -0.071775295
0.05709525 -0.046678297 0.09345835 -0.12345029 0.08668574 -0.13536762 -0.048182297 -0.0816076

hidden_layers.1.weight f4 [64, 64]
00000000: 2ff1 f6bc e478 553e 53d9 ed3d 7c83 87bd
00000010: df79 be3d 0d75 213e 7638 df3d a9b7 27bd
00000020: 8d05 4cbe f7e8 0b3e 2e8a 8dbc cf02 40be
00000030: 43fa 283e 0792 4e3e 11c3 4abe da4f 683d
00000040: f70b 093d 2985 31bd d992 b9bc d7d0 093e
00000050: 1aa8 393e 75b7 583e 61aa 4d3d bf09 303e
00000060: 9bea 593d fbf1 503e 95b5 0d3e 923d 04be
00000070: 0c83 a43d 5115 b13d 3734 01bd dcf9 42be
00000080: 5b02 4fbe af31 c2bc 0ad3 bfbd b8fd d73d
00000090: 496f 5e3b cb6d 883d 0b93 1cbe a0ea 33bd
000000a0: cee0 073d f4a6 30be ab47 213d c06b 29be
000000b0: 57b3 a93d 57a4 debc 42ea 68bd 1e95 1a3e
000000c0: c70e febd dda9 19be 7f24 4f3d 9f3e bfbd
000000d0: 7d28 6e3d 0514 3bbe 96e2 e9bd 07a8 31be
000000e0: 9226 c0bd 638d 2dbe c7cd adbd 28cf b33d
000000f0: 57da 9fbd a7e7 45be 77b1 3bbe 0cd5 a1bd
00000100: 6216 af3d a65f 00be 8d8a 683d 551b 093e
00000110: 337d 90bc 8199 d13d 5822 e2bc 88b2 96bd
00000120: 67bb c93d 5cf9 e2bd 9256 4e3d ce2b 52bd
00000130: f5fa d1bd b300 31be 43d8 233d 938f c9bd
00000140: c3df 5ebd 59f5 34be de45 0f3e 879f 46bd
00000150: 4aa5 773d e334 063e 1ebf 17bd 3bfa 373d
00000160: c05c 2fbe 9c46 5e3d 77e4 083e a2f9 08bd
00000170: 5f26 d33d 1e4a 983d 1b1d 71bd 11d9 ba3c
00000180: 815b 6ebd 1eca 203e bfb4 473e cc1b 383e
00000190: af5a 013c 59b8 debd 20f8 46bc f09a 55bd
000001a0: 887b 0e3e 0d12 5dbe 9a87 e33b a7a8 00be
000001b0: 2659 0f3e d5e7 c73d 787b 283e 2c64 5fbc
000001c0: d4b4 54be 2145 8e3b dbda 1bbe 5a59 263d
000001d0: ed8d af3c c73e cf3d 00d1 eabc ae77 a63d
000001e0: d82d c3bd f279 f5bc aa98 1d3e 91eb 1e3d
000001f0: 0228 0bbe 43ab 3bbe 74f0 53be 5e6d c33d
00000200: cc27 0c3e e7f8 debc 55e6 01be 50a1 1c3e
00000210: 3497 ba3d 2f85 abbd b321 053e 0579 753d
00000220: a646 97bc e2d6 1c3e 68fb 43be a79a f13c
00000230: 81bd 243e 61a6 ea3d ff6b a4bd a3d3 2fbe
00000240: 89bb 903c d8b1 48bb 1f32 bbbd 1c8f 6e3d
00000250: 88d9 123e 0406 2a3d e8bd 2bbd d1da c53c
00000260: 5955 f1bd 0cbc 30be 2ed0 cf3d c284 21bd
00000270: 9ec6 3fbe 363c 1e3e 4b5b feba 5ce6 cebd
00000280: 3344 03be cdfd 163e 261f 75bd 9fe9 443e
00000290: 7702 ec3d 063d 013d 7489 3b3e 9e86 08be
000002a0: d7d7 4cbe a6cf 82bc 5bc9 41bd 6ce6 1fbc
000002b0: 9f23 93bd 87d9 4ebe f855 5ebd 2886 363e
000002c0: 586c 8ebd 165e 653c 144c 183d 6ea8 61bd
000002d0: d68d 093e 9b98 cbbd 4671 993d 9afe ddbd
000002e0: cb86 143e 76d9 d6bd 0150 743c 96e4 ffbb
000002f0: e408 e2bd 72d1 303e de52 9f3c 7783 7abd
00000300: 8c9e 1ebe 672a 1abe 50e7 12bd 8e87 af3d
00000310: d8a7 4fbd 0c01 5abe f65c 9a3d 71ef 2f3e
00000320: 2a94 91bd 4925 a43d fda3 45be 0637 1f3d
00000330: 0433 013d c7cd 453e a2aa 003e 43f5 4a3e
00000340: 0143 933d ab76 aa3d 317d 053e a895 0b3e
00000350: 1df1 40bd 5742 85bd b0be 853c 6542 503d
00000360: 554a 52be 9292 bcbd a108 8e3c fb80 e13d
00000370: 2431 0dbe 374d 7cbd 4f0c 1f3e 97d2 82bd
00000380: 3573 b53d f046 44be f151 273e e883 513e
00000390: 6e63 efbd 0eae f53c 261a f13d 6d50 283e
000003a0: 7463 c03d 62c1 183d ded7 063d 0371 df3d
000003b0: e861 a13d c5b3 803a e515 25be 2253 06be
000003c0: 32b6 00be fdaa cc3d 5629 383e 8e34 19be
000003d0: e03f 953d 68f8 53bd 4b54 ab3d 8da3 0cbe
000003e0: 0a2b 1bbe 0d27 47be 0dec c9bd 7f72 47bd
000003f0: 4f3e 443e be61 ef3d ac94 a73d a095 d13d
-0.030144302 0.20846897 0.11613717 -0.066168755 0.09300589 0.15767308 0.10899441 -0.040946636
-0.19923992 0.13663088 -0.017277803 -0.18751071 0.16501717 0.20172893 -0.19800974 0.056716777
0.033458676 -0.043339882 -0.02265303 0.13458572 0.18130532 0.21163733 0.050211314 0.17191218
0.053202253 0.20404808 0.138388 -0.12914112 0.08032808 0.08646644 -0.031543937 -0.19040626
-0.20215742 -0.023705332 -0.093664244 0.1054644 0.0033940843 0.06661566 -0.15290467 -0.043924928
0.033173375 -0.17251188 0.03937499 -0.1654501 0.082861595 -0.027177973 -0.05686403 0.15095946
-0.12405162 -0.15006204 0.050571915 -0.09338116 0.05814408 -0.18269356 -0.11420171 -0.17349254
-0.09382357 -0.16948466 -0.084865145 0.08779746 -0.07805317 -0.1932665 -0.18329416 -0.079019636
0.08549191 -0.12536487 0.056772757 0.13389333 -0.017637825 0.10234357 -0.027604267 -0.07358271
0.09850197 -0.11082718 0.05037553 -0.051311307 -0.102529444 -0.17285423 0.040001165 -0.09841838
-0.054412615 -0.17671718 0.13991496 -0.04849198 0.060460366 0.13106112 -0.037047498 0.044916373
-0.17125225 0.054266557 0.13368402 -0.033441193 0.10310053 0.07436012 -0.058865648 0.022808583
-0.058192734 0.15702102 0.19502543 0.17979354 0.007895156 -0.10875005 -0.012144119 -0.052149713
0.13914311 -0.21588917 0.006943655 -0.12564336 0.13998851 0.09761015 0.1645335 -0.013634723
-0.20772105 0.004341737 -0.15220205 0.040612556 0.02142998 0.10119396 -0.028664112 0.08128296
-0.095302284 -0.029965375 0.15390268 0.038798872 -0.1358948 -0.1832705 -0.20697194 0.095423445
0.13687056 -0.027218295 -0.12685521 0.15295911 0.09110871 -0.08375012 0.13001136 0.059929866
-0.018466305 0.15316346 -0.19138873 0.02949269 0.16087915 0.114575155 -0.08028411 -0.17170577
0.017667549 -0.0030623581 -0.09140419 0.05824195 0.14340794 0.041509643 -0.041929156 0.024152191
-0.11783857 -0.17259234 0.10147129 -0.03943325 -0.1872811 0.15452656 -0.001940587 -0.10102531
-0.12818985 0.14745255 -0.05984416 0.19229744 0.11523908 0.031552337 0.18314153 -0.13332602
-0.20004211 -0.015968155 -0.04731117 -0.009759527 -0.071845286 -0.20200168 -0.054281205 0.17824614
-0.06954259 0.013999483 0.03718193 -0.055092268 0.13433012 -0.099412166 0.07492308 -0.10839577
0.14504544 -0.10490696 0.014911653 -0.007809232 -0.11036852 0.17267397 0.019448694 -0.06116053
-0.15490168 -0.15055238 -0.035865128 0.08570777 -0.050697178 -0.21289462 0.07537262 0.17181183
-0.07108338 0.08014924 -0.19300838 0.038870834 0.031542793 0.19316779 0.12565091 0.19820122
0.07190514 0.08323415 0.13036038 0.13631308 -0.047104944 -0.06506794 0.016326278 0.05084457
-0.20536168 -0.092076436 0.017338099 0.11010929 -0.13788277 -0.061597075 0.15532039 -0.06387823
0.088598646 -0.19167686 0.16339852 0.20460474 -0.116888866 0.029990222 0.117725655 0.1643693
0.09393969 0.0372938 0.03292071 0.10910227 0.07880002 0.00098192 -0.16121633 -0.1311765
-0.12569502 0.09993551 0.17984518 -0.14961454 0.07287574 -0.05175057 0.08365687 -0.13734265
-0.15153137 -0.1944849 -0.09859476 -0.048693176 0.19164394 0.11688565 0.08182654 0.10233617

hidden_layers.1.bias f4 [64]
00000000: 068e 003e 3362 c3bc d9af ecbc 0042 883d
00000010: e131 a63d 80f7 273d f359 07be 85a7 30bc
00000020: 26c8 7d3d 2af3 193d a853 b3bd af93 49bd
00000030: 7fc9 e3bc e355 7e3d c71a c3bd 6c76 b4bd
00000040: 4800 8cbd 983f 673d c314 e03d 9751 8f3b
00000050: a0d6 93bc e009 cabd e178 d4bd e2a2 a5bd
00000060: 64f4 8a3d 288a f63d 1b3d 913c c3c2 003e
00000070: 6444 b8bd 45ca a63d 720c e8bd e4ad debd
00000080: 752e d33c c92d cabc fd55 013e 0e9d 80bd
00000090: c86a 2a3d d471 d3bd f709 e7bd 270c a6bd
000000a0: c7e1 88bc f4e0 98bd c853 18bd 03af a03d
000000b0: 47e2 953d 25d5 dfbc e402 803c 60b7 6f3d
000000c0: 04c5 8abb b5ad acbd d163 3dbd d16e a5bc
000000d0: c63e 293d e7a2 87bd a7b7 d1bd d287 2d3d
000000e0: 74de 97bd 84dd 2ab8 7d38 ccbb ee24 263d
000000f0: 015d 02bd 0479 19bd a299 bbbd 98ee d6bd
0.12554178 -0.023850536 -0.028892444 0.066532135 0.081149824 0.04100752 -0.13217907 -0.010782127
0.061958455 0.037585415 -0.087561905 -0.049213108 -0.027806042 0.062093627 -0.09526592 -0.0881165
-0.06835991 0.056457132 0.1094146 0.00437374 -0.018046677 -0.09865165 -0.10374618 -0.08087708
0.06784895 0.1203807 0.017729333 0.12574296 -0.089974195 0.081440486 -0.11330499 -0.10873011
0.025778988 -0.024680035 0.12630458 -0.06279956 0.04160574 -0.10324445 -0.112811975 -0.081077866
-0.016709222 -0.074647814 -0.037189275 0.07845881 0.073185496 -0.027323315 0.015626378 0.05852449
-0.004234912 -0.084315695 -0.04623777 -0.020194443 0.04131963 -0.06622868 -0.10240107 0.042365856
-0.074154764 -4.073746e-05 -0.00623232 0.040562563 -0.031826977 -0.037468925 -0.091601625 -0.10494727

output_layers.0.weight f4 [21, 64]
00000000: a725 40be 9632 343c 8c2e 1b3e af34 6cbd
00000010: aff1 af3d ad7c 29be db4f 403e 2b85 51be
00000020: e4b2 d6bd 3ca9 4b3e 1c5a 2d3e 47da 84ba
00000030: e251 783e 3ce0 093e 9a99 b1bb eb63 86be
00000040: 5cbc 323e 48bb 663e 1584 83be 96fc 32be
00000050: 9f85 39be 5351 253e 444d 8dbe dcd2 98bd
00000060: 985c 62bd 8a47 91bd 6da9 5abc aad5 10be
00000070: a45f 9dbe f3ec 323e 2534 cc3d d4a1 003d
00000080: 9a4b fcbd 023e dc3c f5c4 52be 4ce2 063e
00000090: 64d2 21bd d5a1 35be 945a 74be ee02 093e
000000a0: 2a61 7a3e 9cb5 0e3e 0b9e abbd 7e31 973d
000000b0: 10ff 3ebe 8766 263e 1d23 50bd e2b7 323e
000000c0: b461 4c3e 9987 4ebe 691e c13d 56dc cebd
000000d0: 1397 563e 2d1f 66be 6cbf 783e 3b62 f9bd
000000e0: 025c 623e 121c 50be 262b 2cbe d3ea 43bd
000000f0: c676 c83d b35b 173e e83a 193e fd2f 953d
00000100: 5538 3fbe c09b 49bd d1f1 71bc 6582 2bbe
00000110: a000 2b3e 81d9 2cbe bfd8 f1bd e433 f43d
00000120: 449f 36be d29e 9d3c 8f83 0ebe e866 183d
00000130: 8562 223e 5b0c 8b3e 62e0 7abc 4687 7abe
00000140: 599e fcbd 9496 eb3d 92d9 843e 2e7a 1abd
00000150: 90f9 033d 76fe e1bd 7269 fe3d b5d2 10be
00000160: 18e9 cfbc 188b 433e 4937 b83c 245e f9bd
00000170: fb2c 8d3c e12c 9dbd e81a 2e3e 5266 fd3d
00000180: 8973 58be 443b 3b3e e6ce 643e a761 c93d
00000190: 80a4 1c3b 9eda ddbd 00e0 f1bd 2a7a fc3d
000001a0: 4271 0a3e c7db 8d3e 0439 933d 65c7 f13c
000001b0: f903 2d3e 8b47 a13d 8f83 4bbe e474 a73d
000001c0: c26a de3c b32f aa3d 5dca c3bc 2ee8 66be
000001d0: 95bf 813d 66e4 513e 8530 a0bd 51b0 de3a
000001e0: cc5a 4e3e 7171 413e 1f52 233e b387 51be
000001f0: 923c 00bd 88fc 113c d750 bfbb 04c8 c73d
00000200: b111 d7bd 2c50 413c ae15 893c 73af 6e3e
00000210: 4961 813e 302b b0bd 5bba 11be fad9 36be
00000220: 9bd3 84bd 58e0 b0bd ceea 5fbe da5a 213e
00000230: a566 f43d 33c0 43be 62bd 823e d054 48bd
00000240: e5ba d4ba 4123 5fbe 2b3c 003e 8619 8b3d
00000250: 6814 50bd 5a45 6bbe bc3b 5d3e 15c8 3ebe
00000260: a566 563d d4cb 94bd dc75 7bbe ab95 633e
00000270: 2aab e63d 35d4 fa3d 1dc8 68be f462 a8bb
00000280: ca4d d53d 580c fa3d c382 ccbd e119 29be
00000290: 86fc 643e df6a c7bd 0b56 ffbc 1c41 5abd
000002a0: 5073 5ebe d22a 463e 70cd 0b3e ecb4 6cbd
000002b0: 6d95 533d fd5e 27be ec92 e13d 4432 f03d
000002c0: 7787 553c 179a 82bd 20f0 7c3d 6f64 523d
000002d0: 0cb3 06be d3ee 08be 188f 89bd 5e0a 613e
000002e0: 90d2 3b3e e28f 42be a963 ddbd d207 4d3e
000002f0: 8886 353d 40ed 68be e0ba 8a3d 2ed1 013e
00000300: 91ac 103e 52ac 3ebd 17ba 893e 1448 7cbc
00000310: 3c9a 27be 3f29 d4bd bf53 4a3e ef24 1f3e
00000320: 7d3a 0e3e 1690 f13d 58ef 9dbb f942 b8bc
00000330: e821 ea3d de7a 02bc 5420 66be 38c1 e1bc
00000340: a4a8 2f3d dec4 333e 561b 54be 8400 6cbd
00000350: aedf 3b3e b7bb 5ebe 4b49 75be 893a cf3d
00000360: 543e 7ebe 48d3 853e 885b e03c 61de e93d
00000370: bf0b 69bd 14fc 36be 8209 e6bd 7803 973d
00000380: 28b4 2ebe dab8 043e 1b23 5b3e 8092 893d
00000390: fef6 783e 6d74 51ba f334 613e ba0c 7f3e
000003a0: 9e66 453d ed1e 983c 878a 05be 2f64 0f3e
000003b0: 7e58 713d 676f 96bd a051 69bc a345 72be
000003c0: 03cb 07be 7a98 bdbc 00b3 203e 68a6 b4bc
000003d0: 7a32 1d3e 75ee b3bd 6140 6d3e e7f5 193e
000003e0: b357 6cbd dcc7 3cbd d34c 2f3e e242 753c
000003f0: 83cc b7bc 9848 6c3e 2288 cfbd 2579 0a3e
-0.18764363 0.010998389 0.15154475 -0.05766743 0.08591019 -0.16551466 0.18780462 -0.20460956
-0.104833394 0.19888777 0.16928905 -0.0010135852 0.24249986 0.13464445 -0.005419922 -0.26248106
0.17454666 0.2253238 -0.25686708 -0.17479166 -0.18117379 0.16144304 -0.27598011 -0.07462093
-0.055264086 -0.07093723 -0.013346058 -0.14144006 -0.3073703 0.17473201 0.09970883 0.03140433
-0.12319107 0.026885036 -0.20582946 0.13172263 -0.039507285 -0.17737515 -0.23862678 0.13380024
0.24451128 0.13936466 -0.08379754 0.07382487 -0.18651986 0.16250049 -0.050814737 0.17452958
0.19959146 -0.20168914 0.094296284 -0.101006195 0.20956068 -0.2247283 0.24291772 -0.12176939
0.2210541 -0.20323208 -0.16813335 -0.047831368 0.09788279 0.14781074 0.14963877 0.07284544
-0.18673833 -0.0492208 -0.014767126 -0.1674896 0.16699457 -0.16879846 -0.11808919 0.1192396
-0.17834193 0.01924077 -0.13917373 0.037207514 0.15857895 0.27157864 -0.015312286 -0.24465665
-0.1233489 0.1150333 0.25947243 -0.037714176 0.032220423 -0.11034863 0.12422456 -0.14142878
-0.025379702 0.19096029 0.0224873 -0.12176159 0.017233362 -0.076745756 0.17002451 0.12373032
-0.21137823 0.18284327 0.2234455 0.09833079 0.002390176 -0.108327135 -0.11810303 0.123279884
0.13519767 0.2770674 0.07188609 0.029514024 0.16896047 0.07874974 -0.19874404 0.08176592
0.027150515 0.08309879 -0.023900205 -0.22549507 0.063353695 0.20497283 -0.07821754 0.0016989802
0.20151824 0.1889093 0.15949295 -0.20461921 -0.031307764 0.008910306 -0.0058384943 0.09754947
-0.10501421 0.0117989 0.01673397 0.23309116 0.25269535 -0.08601987 -0.14231245 -0.17856589
-0.06485673 -0.0863654 -0.21866915 0.15757313 0.119336404 -0.19116287 0.25535113 -0.04890901
-0.0016230015 -0.21790792 0.12522952 0.067919776 -0.05080071 -0.22975674 0.21604818 -0.18631013
0.052343983 -0.0726544 -0.24556679 0.22225063 0.11263116 0.122475065 -0.22732587 -0.0051387493
0.10415228 0.12209386 -0.09985878 -0.16513778 0.22361955 -0.09737181 -0.031168958 -0.05328475
-0.21723676 0.19352272 0.13652587 -0.057789728 0.051656175 -0.16344829 0.11014351 0.117283374
0.013032786 -0.063770466 0.06175244 0.051365312 -0.13154238 -0.13372354 -0.06716746 0.21976611
0.18342042 -0.190002 -0.10810024 0.20022514 0.044317752 -0.22746754 0.06773925 0.12677452
0.14128329 -0.046551056 0.26899788 -0.015398044 -0.1636743 -0.103594296 0.19758509 0.15541433
0.13889499 0.1179506 -0.0048197918 -0.022492873 0.11432248 -0.007963864 -0.2247327 -0.027557954
0.042885438 0.17555568 -0.20713553 -0.05761768 0.18347046 -0.21751295 -0.2395374 0.101185866
-0.24828464 0.26137757 0.027387396 0.114193685 -0.056895968 -0.17869598 -0.11232282 0.073737085
-0.17060912 0.1296114 0.2140011 0.06717396 0.2431297 -0.0007990066 0.21992855 0.24907199
0.048193567 0.018569434 -0.13041125 0.14003061 0.058922283 -0.07345467 -0.014240652 -0.23659377
-0.13261037 -0.023143996 0.15693283 -0.022052005 0.15351287 -0.087857164 0.2316909 0.1503521
-0.057700824 -0.04608904 0.1711915 0.014969559 -0.022436386 0.23074567 -0.10133387 0.13522775

output_layers.0.bias f4 [21]
00000000: 11ed 06be e078 f9bb 8580 cbbd 103d d73d
00000010: a304 9c3d 6f96 27bd d94f 69bc 224a 8abd
00000020: 158e 193d f199 133d 5ee3 86bd f108 afbc
00000030: 41ad 073d f245 1c3d 1af9 9ebd 0db7 9ebd
00000040: 277d 583d 91ea 0c3c ec10 4c3d 5240 ad3d
00000050: 90c0 0a3e
-0.13176371 -0.0076132864 -0.099366225 0.105096936 0.07618072 -0.04091495 -0.014240229 -0.06752421
0.037489016 0.03603548 -0.065863356 -0.021366568 0.033124212 0.038152643 -0.07762356 -0.07749758
0.05285373 0.008600847 0.049820825 0.08459534 0.1355002
